model/model_9.npz (npz, 5306 bytes, 18 tensors)

predictor/bn3/avg_var f4 [6]
000000 82 0a f2 3e 79 4a b9 3f 00 e2 36 3f d7 a1 4f 3f
       0.47273642 1.4475852 0.714386 0.81106323
000010 d3 bf e4 3f c9 4b 25 40
       1.787104 2.5827506

predictor/bn1/gamma f4 [14]
000000 00 00 80 3f 00 00 80 3f 00 00 80 3f 00 00 80 3f
       1.0 1.0 1.0 1.0
000010 00 00 80 3f 00 00 80 3f 00 00 80 3f 00 00 80 3f
       1.0 1.0 1.0 1.0
000020 00 00 80 3f 00 00 80 3f 00 00 80 3f 00 00 80 3f
       1.0 1.0 1.0 1.0
000030 00 00 80 3f 00 00 80 3f
       1.0 1.0

predictor/bn3/avg_mean f4 [6]
000000 14 e9 5b 3d f4 94 eb 3d fa 78 97 3d 69 d8 48 3e
       0.053689077 0.1150302 0.07396121 0.19613804
000010 1a dd 8e be 83 3c 21 bf
       -0.27903062 -0.6298296

predictor/bn3/beta f4 [6]
000000 60 5b 54 3e b8 b1 5a 3e 35 51 7e 3e 75 6a 92 3e
       0.20737982 0.21356857 0.24835666 0.28596845
000010 55 75 1b 3d 03 8e 2b be
       0.037953693 -0.16753392

predictor/bn2/gamma f4 [10]
000000 c8 7b 3f 3f 3b 36 79 3f b8 6c 97 3f 1e 13 91 3f
       0.7479825 0.97348374 1.1830053 1.1333959
000010 7c ee 69 3f 2e be 64 3f e0 cc 53 3f cd 5c 44 3f
       0.91379523 0.8935269 0.8273449 0.767041
000020 41 c9 48 3f fd 19 9b 3f
       0.7843209 1.2117306

predictor/bn2/avg_var f4 [10]
000000 4d 98 be 40 1f 71 3c 3f 9d 03 69 3f 7b 3e af 3f
       5.9560914 0.7361011 0.9102114 1.3690943
000010 ee 74 bd 3e 97 b8 e3 3f 7e 12 47 40 4e 62 7a 3f
       0.37003273 1.7790707 3.1105037 0.9780625
000020 8b 88 ba 3f e7 cd 3d 40
       1.457292 2.9656923

predictor/l3/b f4 [2]
000000 0c 21 f0 3e 10 21 f0 be
       0.46900213 -0.46900225

predictor/bn3/gamma f4 [6]
000000 24 28 93 3f 5f d6 87 3f 80 f3 9c 3f 95 09 73 3f
       1.1496625 1.0612296 1.226181 0.94936496
000010 5b 8d 98 3f 02 84 4c 3f
       1.1918138 0.7988893

predictor/bn2/avg_mean f4 [10]
000000 f9 29 14 c0 35 22 31 be 71 ae f5 bf 9c 51 50 c0
       -2.3150618 -0.17298205 -1.919386 -3.254981
000010 37 00 e3 bf ab 79 4b c0 03 5f 67 3f 10 14 ee bf
       -1.773444 -3.179301 0.9037935 -1.8599873
000020 2f 98 e4 bf c2 cd 96 3f
       -1.7858943 1.1781542

predictor/l1/b f4 [10]
000000 87 13 f2 3b 67 a3 b0 ba 86 20 53 3c 9d c8 cb ba
       0.0073875817 -0.0013476432 0.012886172 -0.0015547458
000010 d9 d0 d1 bc 19 e3 ba 3c aa 69 a4 3c 51 49 30 3c
       -0.025612282 0.022813367 0.020069916 0.0107596675
000020 1e 21 3e 3b cd 82 e0 3b
       0.0029011439 0.00685153

predictor/l2/b f4 [6]
000000 79 86 c6 bc 57 52 22 3c 9e 52 ab bb 28 94 a6 3c
       -0.024234043 0.009907327 -0.0052283546 0.020334318
000010 a4 4f d2 3c 0f f0 8f 3b
       0.025672741 0.004392631

predictor/bn2/beta f4 [10]
000000 3f 35 9e 3e f9 73 58 be 92 8b 15 bf 74 cd 9a be
       0.309 -0.2113799 -0.5841609 -0.30234873
000010 b1 68 29 bf 3e c8 c6 be 22 53 8c be 74 13 f9 be
       -0.6617537 -0.38824648 -0.27407175 -0.48647654
000020 89 31 ea bd fc 28 9b be
       -0.11435229 -0.30304706

predictor/l1/W f4 [10, 14]
000000 c8 e9 02 bf 7a ab ee bc 68 1c 1d bf f8 9a 8d bf
       -0.5113797 -0.0291345 -0.6137147 -1.1062918
000010 3a a9 05 3d 1e 78 c4 3e 42 52 2b 3f ea 6d 43 3f
       0.03263209 0.38372892 0.6692239 0.7633959
000020 80 ea 2d bf 7a ed 6b 3f 5d 64 52 bf 71 0d 91 3d
       -0.67935944 0.92159235 -0.8218439 0.07082642
000030 c9 e3 c8 3d ae 5b 20 be 7b 2e 1d 3e 97 84 54 3a
       0.098090716 -0.15659973 0.15349762 0.00081069156
000040 b8 ee 62 3e ea de b8 3e 0a 5c 20 bc cd c7 58 be
       0.22161376 0.3610757 -0.009787569 -0.21169968
000050 4c 70 63 bf 7c 2d 85 bf 94 89 3d be db a2 17 bf
       -0.88843226 -1.0404506 -0.18509513 -0.5923287
000060 b7 88 90 3e 4a 8b c8 be 1f 80 4e 3d 76 90 6c be
       0.28229305 -0.3916877 0.050415155 -0.23101982
000070 e3 af 19 bf 5c 81 47 39 61 40 ef bd d4 9d de bc
       -0.60034007 0.00019026309 -0.11682201 -0.027174868
000080 84 34 f8 b9 22 bf a3 3d f2 93 19 3e 4c 9d cb 3f
       -0.00047341373 0.0799544 0.14997843 1.5907378
000090 b1 ba 5b be 17 26 b7 3e b5 a9 4b bf da a5 c9 bd
       -0.21457936 0.35771248 -0.7955583 -0.09846087
0000a0 23 00 ae 3d 05 e0 38 be 34 39 63 bf e6 7b ad bc
       0.0849612 -0.18054207 -0.8875916 -0.021177243
0000b0 b8 b0 d0 bd b7 94 4d bd da 1b 86 ba 2e 51 12 3e
       -0.101899564 -0.050190654 -0.0010231689 0.1428878
0000c0 3c e7 b2 3e bc c5 9e 3f d6 99 d4 be 4e 3d b9 3e
       0.34942043 1.2404094 -0.41523618 0.36179584
0000d0 a1 e7 36 bf 43 41 19 bc a8 ed 50 3e e4 52 22 be
       -0.7144719 -0.0093539385 0.20403159 -0.15851933
0000e0 d4 e5 d6 be a7 45 89 bc 4d 77 45 be ad 77 13 3d
       -0.4197222 -0.016756846 -0.19283791 0.036002804
0000f0 8e 8f e6 bb 63 38 b8 3e 7c ba 0e 3f 14 f9 a9 3f
       -0.007036156 0.3598052 0.557533 1.3279138
000100 89 5f ef bd bc c4 05 3d 4d 5d 9e be de 69 9f 3d
       -0.11688144 0.032658324 -0.30930558 0.077838644
000110 b4 23 1a 3b 83 ae 4f 3d 7d 29 44 bf 58 be 09 bd
       0.0023519816 0.050703537 -0.76625806 -0.03362879
000120 2a a9 b3 be a8 04 4e bc 1a 53 e2 3a d5 a2 ac 3d
       -0.3509 -0.012574352 0.0017267198 0.08429495
000130 cd 6e 34 3f 3d 6b 0f 40 d1 51 c0 be c2 57 21 3f
       0.7048157 2.2409203 -0.3756242 0.6302453
000140 ce 8a 2e bf 64 5b b7 3e 66 84 c5 bd 48 01 c0 bd
       -0.6818055 0.35811913 -0.096443936 -0.093752444
000150 fd 3c 97 3e f3 a6 77 3c ad 5b c5 3e b4 d2 b1 bd
       0.29538718 0.015115487 0.38546506 -0.086827666
000160 09 8c bf bc 6e 0a 13 bf 1b 32 21 3d a1 37 12 bf
       -0.023382204 -0.5743779 0.039354425 -0.5711613
000170 44 f4 0a 3e dc 26 d7 be 4f f4 7f 3f af 47 e7 be
       0.13569742 -0.42021835 0.9998216 -0.45171878
000180 bb 71 c5 bd e9 1a 38 bd d1 3c 0e bf 35 70 96 ba
       -0.09640833 -0.04494754 -0.5556155 -0.0011477532
000190 c9 62 79 be b3 8d c2 bc d9 4b a8 b9 1f 64 e5 3d
       -0.2435409 -0.023749208 -0.00032099968 0.11200737
0001a0 9c 2c a5 3e 94 0e f0 3f ca 27 09 bf ba ed 21 3f
       0.32260597 1.8754449 -0.5357634 0.63253367
0001b0 93 58 b8 be 07 c1 2e be 45 4f 67 3b dc 5b 46 be
       -0.36005077 -0.17065822 0.003529505 -0.19370979
0001c0 9b 39 de be 6f 42 14 bb 77 32 88 3d e8 34 1e bf
       -0.43403324 -0.0022622605 0.066502504 -0.6179948
0001d0 56 d4 91 b9 b5 2c ea 3e fe cd 22 3f a7 d4 a7 3d
       -0.00027814758 0.45737234 0.6359557 0.08194857
0001e0 9a ea ec be 18 19 d8 3e 7f 2c 40 bf f7 69 34 3e
       -0.46272737 0.42206645 -0.75067896 0.17618547
0001f0 ef 4d 0a 3f dd 14 ca be ae 43 a9 3e 84 5b 00 3b
       0.5402517 -0.39469042 0.33059448 0.0019585798
000200 2a 1d 23 3f 1c 76 ac 3d d7 8f bf bc 4d 5f 81 bd
       0.63716376 0.08420965 -0.023384018 -0.06317005
000210 34 07 43 bf 28 61 1f bf df 7d 78 3f 62 7c d9 be
       -0.76182866 -0.62257624 0.97067064 -0.4247771
000220 03 22 3b 3e 7e e3 96 bd 64 fb 81 3d 5f e4 d4 3e
       0.18274693 -0.073676094 0.06346777 0.41580483

predictor/bn1/beta f4 [14]
000000 00 00 00 00 00 00 00 00 00 00 00 00 00 00 00 00
       0.0 0.0 0.0 0.0
000010 00 00 00 00 00 00 00 00 00 00 00 00 00 00 00 00
       0.0 0.0 0.0 0.0
000020 00 00 00 00 00 00 00 00 00 00 00 00 00 00 00 00
       0.0 0.0 0.0 0.0
000030 00 00 00 00 00 00 00 00
       0.0 0.0

predictor/l3/W f4 [2, 6]
000000 ec 73 3f be 7d 06 0a 3e da 4e e8 be b3 b9 79 bd
       -0.18696564 0.13479038 -0.4537266 -0.060968112
000010 d1 e0 8d 3e db 42 50 3f 0f 5a bf 3e 56 c1 3c 3f
       0.27710584 0.81352013 0.37373397 0.7373251
000020 f1 29 5a 3d f6 c5 0d 3f c4 85 6a be 7b 9b d3 be
       0.053262655 0.5538019 -0.2290259 -0.4132956

predictor/l2/W f4 [6, 10]
000000 b7 4e be 3c da 27 ad be 84 d0 42 3e 72 15 12 3e
       0.023230894 -0.33819467 0.19024855 0.14265993
000010 d5 86 b3 3e d2 6b 34 3e 0f f7 8c be e7 17 90 3e
       0.35063806 0.17619255 -0.2753224 0.28143236
000020 87 63 00 3e 96 3c 6f be c8 7e 7b 3d d9 ce 16 bf
       0.12537967 -0.23362955 0.061400205 -0.58909374
000030 59 a7 b3 3e ce ea 80 3e 3b ef bd 3e 80 65 a6 3e
       0.35088614 0.25179142 0.3709658 0.32499313
000040 17 7f 06 bf 60 3b 21 3f 46 69 16 3e 22 3f e6 be
       -0.52537674 0.62981224 0.14688596 -0.44970042
000050 f3 cb 3c 3d bd 1b f2 be 3c f0 4f 3e 2e 84 2c 3e
       0.04609294 -0.47286788 0.20306486 0.16847298
000060 63 08 d9 3e e3 53 63 3e 96 1d c9 be 8b 54 ca 3e
       0.4238921 0.22199969 -0.39280385 0.39517626
000070 f8 5e e8 3d 98 70 7a be b7 47 6b 3d eb ae a0 be
       0.11346239 -0.24457014 0.05744144 -0.31383452
000080 0e d4 83 3e d4 12 3a 3e cf 55 fc 3e ed 81 4d 3e
       0.25747722 0.18171245 0.49284217 0.20069094
000090 66 89 a3 be ea 97 ed 3e 6d 89 3d 3e ac 61 97 be
       -0.31940764 0.46404964 0.18509455 -0.29566705
0000a0 28 6b c9 be 42 5b d9 3e be 8a 85 be 14 8b 98 be
       -0.39339566 0.42452437 -0.26082414 -0.29793608
0000b0 29 f5 ac be 08 6b c5 be 45 c9 24 3f b1 b3 d5 be
       -0.33780792 -0.3855822 0.6436961 -0.41738656
0000c0 54 62 89 be 8c 4d a8 3e 5a 95 18 bf 2f e2 8a 3e
       -0.2683283 0.32871664 -0.5960289 0.2712569
0000d0 c7 97 b5 be 23 6c 13 bf 64 55 06 bf 43 28 be be
       -0.3546736 -0.5758688 -0.52474046 -0.37140092
0000e0 bc 02 aa 3e ae 5c bb be ae 01 6a be af 12 6c 3e
       0.3320521 -0.36594146 -0.22852203 0.23054002

predictor/bn1/avg_mean f4 [14]
000000 dd 5d 14 40 6a ce ec 41 d0 51 03 3f 90 28 c1 3e
       2.318229 29.600788 0.5129671 0.3772626
000010 24 f6 fd 41 0d f0 4d 3e 8c 48 10 3e 11 2e 2f 3d
       31.745186 0.20111103 0.14090174 0.04276854
000020 f3 9d 16 3f 46 27 b2 3e 58 ec 26 3f f3 c9 3b 3e
       0.5883476 0.34795588 0.6520438 0.18338756
000030 5a bc b6 3d 78 aa 39 3f
       0.08922644 0.7252574

predictor/bn1/avg_var f4 [14]
000000 66 43 31 3f d2 f1 23 43 e7 a2 97 3f 2e 07 26 3f
       0.69243467 163.94461 1.1846589 0.64854705
000010 dc 1b 17 45 1c 2c 25 3e b9 3f f7 3d 34 30 28 3d
       2417.7412 0.16130108 0.12072701 0.041061595
000020 1c 3b 76 3e ca a4 67 3e ca a4 67 3e f9 f8 18 3e
       0.24045986 0.22621456 0.22621456 0.14938726
000030 24 eb a5 3d e8 9c 4b 3e
       0.0810149 0.19884074
