model/model_6.npz (npz, 5313 bytes, 18 tensors)

predictor/bn3/avg_var f4 [6]
000000 52 86 a8 3e 09 3f ae 3f 7e eb 0c 3f 65 28 c3 3e
       0.32914978 1.3612987 0.5504683 0.38116756
000010 4c bd 50 3f 04 ef 9b 3e
       0.81538844 0.30455792

predictor/bn1/gamma f4 [14]
000000 00 00 80 3f 00 00 80 3f 00 00 80 3f 00 00 80 3f
       1.0 1.0 1.0 1.0
000010 00 00 80 3f 00 00 80 3f 00 00 80 3f 00 00 80 3f
       1.0 1.0 1.0 1.0
000020 00 00 80 3f 00 00 80 3f 00 00 80 3f 00 00 80 3f
       1.0 1.0 1.0 1.0
000030 00 00 80 3f 00 00 80 3f
       1.0 1.0

predictor/bn3/avg_mean f4 [6]
000000 0e 3f 64 3b 0c d1 62 3e e4 16 9e bb 42 18 1a be
       0.0034827623 0.22150058 -0.004824506 -0.15048316
000010 b7 32 4e be e6 71 3a be
       -0.20136534 -0.18207511

predictor/bn3/beta f4 [6]
000000 74 82 fe 3d f5 bb b3 3e 05 d8 e6 3d c9 d4 e2 bd
       0.12427226 0.35104337 0.11271671 -0.11075742
000010 dd 0d bb bc 81 62 38 be
       -0.022833759 -0.18006326

predictor/bn2/gamma f4 [10]
000000 0d ad 79 3f 68 21 72 3f 88 80 56 3f 6e c4 85 3f
       0.9752968 0.94582224 0.83789873 1.045057
000010 62 b8 3e 3f 11 8f 59 3f ba c0 51 3f f5 8e 6e 3f
       0.74500096 0.84983927 0.819347 0.93186885
000020 ab 0f 58 3f 7d 91 44 3f
       0.8439891 0.767845

predictor/bn2/avg_var f4 [10]
000000 a8 8b 1d 3f 08 59 b5 3f e5 33 2d 3f e8 01 de 3f
       0.61541224 1.4167795 0.6765731 1.7344332
000010 b1 af 40 3f 47 68 0b 40 1e 2e 01 40 8a f7 64 40
       0.75268084 2.1782396 2.0184398 3.5776086
000020 b3 95 99 3f b4 9a 52 3f
       1.199881 0.8226731

predictor/l3/b f4 [2]
000000 0a cf 90 3e 0c cf 90 be
       0.28282958 -0.28282964

predictor/bn3/gamma f4 [6]
000000 21 5d 7a 3f 3b f5 a8 3f 90 f6 88 3f 54 4e a3 3f
       0.97798353 1.3199838 1.0700245 1.2758279
000010 e2 ab 9d 3f 6c 94 a1 3f
       1.231808 1.262342

predictor/bn2/avg_mean f4 [10]
000000 4d ab 16 c0 c0 09 2d c0 94 62 c4 bf e5 8a 4d be
       -2.3542054 -2.70372 -1.5342584 -0.20072515
000010 67 16 26 c0 d8 28 e5 bf ae 98 a8 c0 2f 90 a2 3f
       -2.5951173 -1.790309 -5.2686377 1.2700251
000020 bc ae b2 3f 09 07 d6 bf
       1.3959575 -1.6720897

predictor/l1/b f4 [10]
000000 f6 18 0b 3c be e6 56 3d 12 c4 42 bc e8 a8 a0 bb
       0.008489838 0.052466147 -0.011887567 -0.0049029477
000010 35 01 70 bd bc 4d 7e bc f6 d4 da 3c a2 21 80 3a
       -0.0585949 -0.015521463 0.026712876 0.0009775648
000020 2d b0 e1 ba ed 59 55 bc
       -0.0017218642 -0.013021928

predictor/l2/b f4 [6]
000000 f8 e4 de ba d0 62 80 3a 30 20 ce bb 30 51 37 3d
       -0.0017005494 0.0009795073 -0.006290458 0.04475516
000010 48 22 12 3d 7c de 3d 3c
       0.035677224 0.011588689

predictor/bn2/beta f4 [10]
000000 12 02 a5 be 43 b0 12 bf 6c 98 13 bf 8f 00 92 be
       -0.32228142 -0.57300204 -0.5765445 -0.2851605
000010 37 cc c4 bd 5c b4 11 bf 3b 07 44 bf 08 3d 4a be
       -0.096092634 -0.5691583 -0.7657353 -0.19749844
000020 39 bc 7e be 39 31 10 bf
       -0.24876489 -0.5632511

predictor/l1/W f4 [10, 14]
000000 f6 7b 40 bf 7b a7 56 bc 30 64 a5 bd 70 c8 d4 ba
       -0.7518915 -0.013101454 -0.0807575 -0.0016234051
000010 35 b3 bf bb 9e 57 1a 3e 55 f3 26 3e 09 c2 98 3f
       -0.0058502206 0.15072486 0.16303761 1.1934215
000020 7e b5 0d be 15 c9 c6 3e 8a 4b e4 be 6a ce 23 3e
       -0.13838765 0.38825288 -0.44588882 0.1599671
000030 e1 b8 bc 3e 3d aa 27 3d 08 fe 13 bf 98 42 b3 bc
       0.368598 0.040933836 -0.57809496 -0.02188234
000040 47 b7 30 be 2b 23 31 bd d4 c7 31 3b c6 7e 0b 3f
       -0.17257415 -0.04324643 0.0027127163 0.54490316
000050 e0 16 3d 3f 5c 79 b4 3f 01 a2 17 bf 09 b8 c2 3d
       0.7386303 1.4099536 -0.59231573 0.09507758
000060 a3 47 05 bf 21 b9 d8 be 76 44 7a be e4 c9 08 bf
       -0.52062434 -0.42328742 -0.24440178 -0.5343306
000070 0a bd fd be fa e8 21 bb a8 7e 65 be 3c 59 3e bc
       -0.49558288 -0.0024705515 -0.22411597 -0.011617955
000080 14 a1 c7 3a bb 74 12 be 99 1a 93 3d 61 1d cf 3f
       0.00152305 -0.14302342 0.071828075 1.6180841
000090 f6 37 51 be 01 f4 3a 3f e6 53 bc be 1f d2 ba bd
       -0.20431504 0.7302857 -0.3678276 -0.09122109
0000a0 fc 52 03 be cb 10 5a be 6b 51 10 3e 53 38 b1 bb
       -0.12824625 -0.21295469 0.14093558 -0.0054083257
0000b0 d4 90 e5 3e 2b a4 31 3e 70 b7 81 bc 9c a8 eb bd
       0.44837058 0.17347781 -0.01583454 -0.11506769
0000c0 31 de 78 bf 6f 9b a1 bf 6a 46 64 be 1c 69 26 bf
       -0.9721404 -1.262556 -0.22292486 -0.65004134
0000d0 58 fa 5f 3f b4 85 a3 be 8e 28 31 3e d0 57 09 be
       0.8749137 -0.31937945 0.17300627 -0.13412404
0000e0 f0 05 41 bf 10 ee 4c bc 56 b2 af 3c 8a 85 e3 bd
       -0.75399685 -0.01250793 0.021447342 -0.11109455
0000f0 8a 77 85 bb 93 d7 a4 3d b6 d1 f7 3e 28 0c 2b 3f
       -0.004073088 0.0804893 0.48402184 0.66815424
000100 5a 79 21 be ce 14 00 3f 0d a3 bd be e1 77 46 be
       -0.15768948 0.50031745 -0.3703846 -0.19381668
000110 5b dd df bd 37 d2 d1 be 07 b5 45 bf fd 2e 43 3c
       -0.10930892 -0.40980694 -0.7722935 0.011913058
000120 53 7b 16 3e 33 ec 27 bf 02 00 65 3b ce a2 7a 3e
       0.14695482 -0.65594786 0.0034942632 0.24476168
000130 4f 06 0e 3f ec ad 74 3f 05 2a 82 be 35 dc 8f 3f
       0.55478376 0.95577884 -0.25422683 1.1239077
000140 d3 e7 25 bf 27 9e f9 be 43 38 ee 3e 4c 4a fd be
       -0.6480686 -0.48753473 0.465273 -0.49470747
000150 38 3d 5e bf 07 50 91 bd 15 fe 18 bf c7 3c a9 3d
       -0.8681216 -0.07095342 -0.597627 0.082635455
000160 1f b0 70 bc eb ef 66 be 16 9f 38 3f 4f ce e5 3f
       -0.014690428 -0.22552459 0.72117746 1.7953585
000170 df 61 fa be 0f c0 d9 3e e6 86 c1 be 76 85 4c 3e
       -0.48902795 0.42529342 -0.37798232 0.19972786
000180 cd 97 a8 3d cc a5 cf be 7a 0b a9 3e 6c bf 17 3c
       0.08232079 -0.4055618 0.33016568 0.009261947
000190 35 9f 25 3f 80 c0 cf 3c a2 ae b1 bc ba 77 dd 3e
       0.64696056 0.025360346 -0.021689717 0.43255407
0001a0 25 d9 75 bf d8 8a 36 bf 63 4f d0 3e da 5e 32 bf
       -0.9603446 -0.7130561 0.40685567 -0.6967598
0001b0 92 97 5a 3f d4 b9 ad be b8 09 bb bd 9c 7a a6 3e
       0.8538753 -0.33930838 -0.09132713 0.3251542
0001c0 0b 2d 61 3e 69 de a0 3c 54 cf a9 bc 88 7f 22 3f
       0.21989839 0.019637303 -0.020728745 0.6347585
0001d0 2b b7 2b bc 20 65 8e be 80 3d 5e bf 11 ea 90 bf
       -0.010480682 -0.27811527 -0.8681259 -1.1321431
0001e0 93 11 a6 3e 02 80 bd be 76 02 08 3f 23 67 3c 3e
       0.32435283 -0.37011725 0.53128755 0.18398719
0001f0 64 05 0a 3f 58 2c 5b 3e 54 74 b6 be 18 73 8a bb
       0.53914475 0.21403635 -0.35635626 -0.004225146
000200 70 dc 47 be ed 84 c2 bd 0c 9d 70 3b 59 72 19 be
       -0.19517684 -0.0949801 0.00367147 -0.14985026
000210 3f d4 05 3c 7a 83 b6 3f 72 ad 35 bf eb 5b 56 3e
       0.008168279 1.4258873 -0.7096778 0.20933501
000220 41 da 39 bf ba a0 6c 3d e8 7f 9c 3e 3a 13 2a 3c
       -0.72598654 0.05777047 0.30566335 0.0103805605

predictor/bn1/beta f4 [14]
000000 00 00 00 00 00 00 00 00 00 00 00 00 00 00 00 00
       0.0 0.0 0.0 0.0
000010 00 00 00 00 00 00 00 00 00 00 00 00 00 00 00 00
       0.0 0.0 0.0 0.0
000020 00 00 00 00 00 00 00 00 00 00 00 00 00 00 00 00
       0.0 0.0 0.0 0.0
000030 00 00 00 00 00 00 00 00
       0.0 0.0

predictor/l3/W f4 [2, 6]
000000 e8 a4 91 be 02 ba e6 be 87 0b 29 bf 91 c1 28 3e
       -0.28446126 -0.45063788 -0.66033214 0.1648009
000010 70 0a 07 3f ae 51 b3 3e 9b 5d df 3e 72 78 28 3d
       0.527503 0.35023254 0.43626103 0.04113049
000020 45 32 bd 3d 79 5b d8 be d6 9c 81 3d e9 45 9a be
       0.09238104 -0.42257288 0.06328742 -0.30131462

predictor/l2/W f4 [6, 10]
000000 37 db cb 3d f2 a5 18 3e d2 f2 7e 3e 92 34 8e be
       0.09953921 0.14907053 0.24897316 -0.27774483
000010 f8 3e 95 3d 26 6a 4a 3e 63 5e cb 3e 48 27 8d be
       0.07287401 0.19767055 0.3972045 -0.27569032
000020 7a dc 7f be 40 af 73 3e c7 2b 82 3e ff 13 b5 3e
       -0.24986449 0.23797321 0.25424024 0.35366818
000030 77 7c 20 3f 68 17 ce be 31 4b 81 3e 64 a3 e8 3e
       0.6268992 -0.40252233 0.2525268 0.45437157
000040 42 78 50 3f a6 2a af be 2d 97 b3 be 9b 31 08 3f
       0.814335 -0.34212226 -0.35076275 0.5320069
000050 a1 17 0e 3e 9b b0 3d 3e 0e ee a1 3e fe 0b bc be
       0.13876201 0.18524401 0.31626934 -0.367279
000060 23 43 f0 3d d0 c6 7b 3e 3f 37 ef 3e 5c d2 64 be
       0.11731555 0.2458756 0.46721837 -0.2234587
000070 19 0c 00 bf e1 eb 92 3e 59 76 59 be a7 42 46 be
       -0.5001846 0.28695586 -0.21236552 -0.19361363
000080 54 9e 71 be 29 6c 02 3e 10 85 94 be 8a 17 73 be
       -0.23595554 0.12736572 -0.2900777 -0.23739448
000090 4e 4c 81 be 85 26 f9 3d 59 17 0d 3e 44 02 83 be
       -0.25253528 0.1216555 0.13778438 -0.25587666
0000a0 c0 a0 99 be c1 40 96 be fb fb b3 be 16 84 63 3e
       -0.30005455 -0.29346278 -0.35153183 0.22218356
0000b0 3b a4 c2 be 6b 1a ad be 85 ca 9c be 09 30 5d 3e
       -0.38015923 -0.33809218 -0.3062326 0.21600355
0000c0 d2 0c 86 3e 6f c5 c8 be e6 d5 60 be b6 30 4a be
       0.26181656 -0.3921313 -0.21956596 -0.19745144
0000d0 93 99 3f be 29 6b d0 3d e8 ef 78 be 7d b5 54 be
       -0.18710928 0.10176689 -0.24310267 -0.20772357
0000e0 8a 9d 4d be b4 d1 a0 3d 51 9d db 3d f8 5b 84 be
       -0.20079628 0.07852498 0.10723365 -0.25851417

predictor/bn1/avg_mean f4 [14]
000000 50 a5 13 40 83 4b ed 41 08 64 04 3f 9d a8 c0 3e
       2.3069649 29.661871 0.51715136 0.37628642
000010 95 19 00 42 2f 69 52 3e 16 2e 10 3e 06 91 42 3d
       32.024982 0.20547937 0.1408008 0.047501586
000020 f0 3b 14 3f 9f 2c b4 3e ac e9 25 3f 27 da 3f 3e
       0.5790396 0.35190293 0.6480968 0.18735562
000030 cf 6e b6 3d 3b b1 38 3f
       0.08907854 0.7214543

predictor/bn1/avg_var f4 [14]
000000 fe 29 33 3f 82 8f 2c 43 b1 eb 97 3f 19 45 21 3f
       0.6998595 172.56058 1.1868802 0.6299606
000010 46 4d 1a 45 a4 41 27 3e 1a 31 f9 3d 7e 94 39 3d
       2468.8296 0.16333634 0.121675685 0.04530763
000020 68 e6 79 3e 32 4a 6a 3e 32 4a 6a 3e 84 e1 1b 3e
       0.244043 0.22879866 0.22879866 0.15222746
000030 0a 41 a6 3d 30 68 4e 3e
       0.08117874 0.20156932
