model/model_8.npz (npz, 5309 bytes, 18 tensors)

predictor/bn3/avg_var f4 [6]
0.8958238 0.7235851 0.10775769 0.5298128 0.65878123 0.22349575
00000000: b554 653f e03c 393f 10b0 dc3d d0a1 073f
00000010: e3a5 283f 12dc 643e

predictor/bn1/gamma f4 [14]
1.0 1.0 1.0 1.0 1.0 1.0 1.0 1.0
1.0 1.0 1.0 1.0 1.0 1.0
00000000: 0000 803f 0000 803f 0000 803f 0000 803f
00000010: 0000 803f 0000 803f 0000 803f 0000 803f
00000020: 0000 803f 0000 803f 0000 803f 0000 803f
00000030: 0000 803f 0000 803f

predictor/bn3/avg_mean f4 [6]
-0.11833632 -0.15783285 -0.019657642 -0.012779855 0.032341924 -0.028526649
00000000: 505a f2bd ef9e 21be 1009 a1bc 9962 51bc
00000010: f778 043d b8b0 e9bc

predictor/bn3/beta f4 [6]
0.047531758 -0.042340193 0.12107991 0.21844362 0.20720522 0.047940798
00000000: a9b0 423d e96c 2dbd bef8 f73d afaf 5f3e
00000010: 9b2d 543e 925d 443d

predictor/bn2/gamma f4 [10]
0.8221616 0.784717 1.0039673 0.82660365 0.82621497 0.8885713 0.89296234 1.005312
0.8472681 0.9298593
00000000: 2f79 523f 37e3 483f 0082 803f 4c9c 533f
00000010: d382 533f 6979 633f 2e99 643f 10ae 803f
00000020: 90e6 583f 420b 6e3f

predictor/bn2/avg_var f4 [10]
8.66822 1.50867 2.5506432 0.9484552 1.8869308 0.46280912 1.0928496 2.6595373
17.347784 1.5405016
00000000: 07b1 0a41 191c c13f bd3d 2340 f6cd 723f
00000010: f386 f13f 51f5 ec3e 7fe2 8b3f dc35 2a40
00000020: 43c8 8a41 282f c53f

predictor/l3/b f4 [2]
0.52454495 -0.52454495
00000000: 9448 063f 9448 06bf

predictor/bn3/gamma f4 [6]
1.1623597 1.1529504 0.9431535 1.3263694 1.2480385 1.3558565
00000000: 34c8 943f e193 933f 8272 713f 79c6 a93f
00000010: babf 9f3f b58c ad3f

predictor/bn2/avg_mean f4 [10]
3.087799 -2.049043 0.17842543 -0.030679863 -5.221746 -1.5436059 -2.0500236 -3.245862
1.5717323 0.64558375
00000000: 809e 4540 8523 03c0 28b5 363e 5654 fbbc
00000010: 8b18 a7c0 e194 c5bf 9633 03c0 34bc 4fc0
00000020: 862e c93f fa44 253f

predictor/l1/b f4 [10]
0.00038239977 -0.021337999 -0.016717577 -0.009119935 0.01171221 -0.01830355 -0.0052467603 0.006356237
-0.0018939489 0.0074574873
00000000: d47c c839 07cd aebc 4df3 88bc c86b 15bc
00000010: 92e4 3f3c 54f1 95bc 04ed abbb fb47 d03b
00000020: 613e f8ba f05d f43b

predictor/l2/b f4 [6]
-6.82416e-05 0.030773273 -0.034715023 -0.00019996648 0.0020169646 0.052763622
00000000: ee1c 8fb8 3b18 fc3c 5731 0ebd 18ae 51b9
00000010: 0d2f 043b ab1e 583d

predictor/bn2/beta f4 [10]
-0.119570486 -0.6252346 -0.2612884 -0.11441351 -0.79114276 -0.64765245 -0.5015352 -0.5722984
-0.18731005 -0.12041945
00000000: 5fe1 f4bd 600f 20bf 98c7 85be a151 eabd
00000010: 5588 4abf 8dcc 25bf 9c64 00bf 2682 12bf
00000020: 35ce 3fbe 799e f6bd

predictor/l1/W f4 [10, 14]
0.66521037 0.08937803 -0.107750475 -0.20190862 -0.040185817 -0.1329137 -0.67020696 -1.899011
0.50544286 -0.12472006 0.6302142 0.7993015 -0.7970963 -0.15726578 -0.6617363 -0.0045423605
0.060670227 -0.11706417 0.0017422376 0.17958938 0.18739164 0.73434097 -0.34246927 0.5978784
-0.9229448 0.034090064 0.45322195 -0.035408825 0.23478583 -0.0069129798 0.5895135 0.046089854
-0.015900115 -0.25789595 -1.1531603 -0.87787366 0.48550844 -0.7092461 0.32820678 -0.24831598
0.09639269 0.064331025 0.14332663 0.00208699 0.28828663 0.36030853 -0.010172177 -0.25000218
-0.67014456 -1.1479502 -0.13965921 -0.4314687 0.5910563 -0.55831105 0.04463294 -0.3237259
-1.0565133 -0.060514104 -0.24133334 0.049652997 -0.018950922 -0.41559565 0.575106 1.3950751
-0.31523696 0.6398698 -0.6729442 0.2778615 0.14661458 -0.05361618 -0.40768662 0.0029770948
-0.28082845 -0.06668542 -0.0012409987 0.040285505 0.3432818 1.7827846 -0.21550867 0.20266846
-0.46812248 -0.07541438 -0.053503778 -0.1485626 -0.58095104 -0.00040545105 -0.17133003 -0.050068643
-0.0009168672 0.12367921 0.21487583 1.5995051 -0.59929043 0.59217757 -0.47521758 -0.097522885
0.09347438 -0.23335521 -0.8799187 -0.025749128 -0.18346266 -0.028052574 0.00683565 0.13404831
0.35588807 2.1120539 -0.57254004 0.77741903 -0.78371984 -0.076809086 0.27642378 -0.23839824
0.8572956 0.033787463 0.17129855 -0.009174937 -0.06475768 -0.21693294 -0.53930825 -1.2513144
0.092444785 -0.8916646 1.0152775 -0.7109782 -0.25519907 0.63512796 0.19815345 0.0045231883
0.3787283 0.5158219 -0.013507999 -0.008844241 -0.7025456 -1.1735817 0.083724625 -0.77973443
0.5760238 -0.124006145 0.5149897 0.035103288
00000000: 3a4b 2a3f d40b b73d 48ac dcbd 22c1 4ebe
00000010: e299 24bd 871a 08be af92 2bbf cb12 f3bf
00000020: b464 013f 3b6d ffbd b855 213f 069f 4c3f
00000030: 810e 4cbf 480a 21be 8d67 29bf 15d8 94bb
00000040: 5881 783d 57bf efbd cb5b e43a 47e6 373e
00000050: 98e3 3f3e c5fd 3b3f 2258 afbe 8f0e 193f
00000060: 1c46 6cbf 06a2 0b3d b50c e83e d808 11bd
00000070: b26b 703e 4786 e2bb 5bea 163f b7c8 3c3d
00000080: f540 82bc f00a 84be c29a 93bf 54bc 60bf
00000090: 9094 f83e 2791 35bf b80a a83e 8b46 7ebe
000000a0: 8869 c53d fcbf 833d 37c4 123e e2c5 083b
000000b0: 4e9a 933e 5c7a b83e 34a9 26bc 4900 80be
000000c0: 988e 2bbf 08f0 92bf d302 0fbe 77e9 dcbe
000000d0: 774f 173f 79ed 0ebf 08d1 363d 67bf a5be
000000e0: d43b 87bf a3dd 77bd 1620 77be f160 4b3d
000000f0: f73e 9bbc f4c8 d4be 263a 133f d291 b23f
00000100: bd66 a1be 82ce 233f 1246 2cbf dd43 8e3e
00000110: 2222 163e a49c 5bbd 4dbc d0be 5d1b 433b
00000120: bfc8 8fbe 5e92 88bd 02a9 a2ba 6a02 253d
00000130: a2c2 af3e 4932 e43f 4eae 5cbe 5288 4f3e
00000140: c0ad efbe db72 9abd c726 5bbd cb20 18be
00000150: 35b9 14bf b892 d4b9 2471 2fbe c714 4dbd
00000160: eb59 70ba 874b fd3d 6908 5c3e 95bc cc3f
00000170: 196b 19bf f398 173f b84f f3be 14ba c7bd
00000180: 7f6f bf3d abf4 6ebe 5a42 61bf d6ef d2bc
00000190: a3dd 3bbe 83ce e5bc 97fd df3b f643 093e
000001a0: f636 b63e e42b 0740 fc91 12bf ef04 473f
000001b0: dda1 48bf 154e 9dbd 6b87 8d3e ab1e 74be
000001c0: b977 5b3f b964 0a3d e368 2f3e 7a52 16bc
000001d0: ad9f 84bd ab23 5ebe 1b10 0abf 122b a0bf
000001e0: b153 bd3d 2244 64bf 9df4 813f ab02 36bf
000001f0: 74a9 82be bf97 223f bde8 4a3e 4137 943b
00000200: ade8 c13e e70c 043f a750 5dbc 6fe7 10bc
00000210: 07da 33bf ed37 96bf d177 ab3d ad9c 47bf
00000220: 4c76 133f eff6 fdbd 5dd6 033f 77c8 0f3d

predictor/bn1/beta f4 [14]
0.0 0.0 0.0 0.0 0.0 0.0 0.0 0.0
0.0 0.0 0.0 0.0 0.0 0.0
00000000: 0000 0000 0000 0000 0000 0000 0000 0000
00000010: 0000 0000 0000 0000 0000 0000 0000 0000
00000020: 0000 0000 0000 0000 0000 0000 0000 0000
00000030: 0000 0000 0000 0000

predictor/l3/W f4 [2, 6]
-0.6370095 -0.3641021 0.08387272 0.22612505 -0.4156328 -0.114352696 0.0381301 0.33873034
-0.4350227 0.76098406 -0.766703 0.49208003
00000000: 0e13 23bf 976b babe 76c5 ab3d 538d 673e
00000010: d3cd d4be bf31 eabd 4f2e 1c3d 106e ad3e
00000020: 4cbb debe dacf 423f a646 44bf eaf1 fb3e

predictor/l2/W f4 [6, 10]
-0.3185025 0.39170942 -0.29605436 -0.36205557 0.80694884 0.37654084 0.3002958 0.2869821
-0.3178825 -0.3594921 -0.5817435 0.27516475 -0.27165237 -0.31632787 0.6260867 0.34069407
0.22961451 0.24157111 -0.28079382 -0.27531394 0.06165517 -0.2032399 0.09792172 0.14168802
-0.13308378 -0.14322603 -0.17040545 -0.09429609 0.12494078 0.085385524 -0.16237189 0.3306753
-0.20694497 -0.24303307 0.6612172 0.35822955 0.29182932 0.20941283 -0.24211559 -0.21792029
0.10605471 -0.45541552 0.2592557 0.35939342 -0.29639328 -0.42835304 -0.33489177 -0.29758707
0.2754531 0.23550227 -0.21725565 0.1741379 -0.15691473 -0.19035766 0.3688856 0.21025442
0.14571857 0.11889999 -0.15232432 -0.17279102
00000000: c212 a3be 238e c83e 7094 97be 595f b9be
00000010: 3394 4e3f f6c9 c03e 5fc0 993e 51ef 923e
00000020: 7fc1 a2be 590f b8be 24ed 14bf 65e2 8c3e
00000030: 0516 8bbe baf5 a1be 3847 203f 746f ae3e
00000040: 1120 6b3e 6b5e 773e 35c4 8fbe f3f5 8cbe
00000050: 228a 7c3d 1f1e 50be 2f8b c83d aa16 113e
00000060: 1d47 08be d8a9 12be c47e 2ebe 4f1e c1bd
00000070: f4e0 ff3d 9bde ae3d d144 26be 464e a93e
00000080: 62e9 53be a9dd 78be 8845 293f dd69 b73e
00000090: a76a 953e 5170 563e 26ed 77be 7f26 5fbe
000000a0: 3633 d93d 392c e9be 2abd 843e 6a02 b83e
000000b0: dcc0 97be 1751 dbbe ef76 abbe 555d 98be
000000c0: 3008 8d3e 8227 713e 4478 5ebe 3551 323e
000000d0: 41ae 20be 1eed 42be 93de bc3e ef4c 573e
000000e0: 4037 153e d781 f33d e8fa 1bbe 21f0 30be

predictor/bn1/avg_mean f4 [14]
2.308103 29.68408 0.5230482 0.3836103 32.885757 0.19997174 0.14391547 0.046550874
0.5866959 0.34877872 0.65122116 0.18578632 0.08561809 0.7266086
00000000: f6b7 1340 ff78 ed41 7de6 053f 9268 c43e
00000010: 048b 0342 64c5 4c3e 945e 133e 21ac 3e3d
00000020: b431 163f 2093 b23e 6eb6 263f c53e 3e3e
00000030: 8a58 af3d 0503 3a3f

predictor/bn1/avg_var f4 [14]
0.6976108 166.85632 1.2269133 0.64549816 2741.1328 0.15962945 0.12397025 0.044332158
0.24346545 0.22756442 0.22756442 0.15177001 0.07864665 0.19916606
00000000: 9f96 323f 38db 2643 7f0b 9d3f 5e3f 253f
00000010: 2052 2b45 e775 233e 1de4 fd3d a395 353d
00000020: 024f 793e a606 693e a606 693e 9969 1b3e
00000030: 7f11 a13d 30f2 4b3e
