model/model_3.npz (npz, 435111 bytes, 10 tensors)

predictor/bn1/gamma f4 [1000]
0	0x3f393dab	0.7235972
1	0x3f45cf5e	0.7726954
2	0x3f7ce2cd	0.9878357
3	0x3f560257	0.8359732
4	0x3f835db4	1.0262971
5	0x3f833ff2	1.025389
6	0x3f6a5a35	0.91543895
7	0x3f5d560f	0.8645944
8	0x3f527d9d	0.8222292
9	0x3f551c8e	0.83246696
10	0x3f5d87f5	0.8653558
11	0x3fb6c28b	1.427812
12	0x3fa4ca8c	1.2874312
13	0x3f58d66b	0.84702176
14	0x3f823ec1	1.0175401
15	0x3f5bd2c3	0.8586847
16	0x3f652e37	0.89523643
17	0x3f5acc86	0.8546833
18	0x3f61439d	0.87993795
19	0x3f34dac3	0.70646304
20	0x3f562668	0.83652353
21	0x3f659971	0.8968726
22	0x3f74fd41	0.95698935
23	0x3f726f54	0.94701123
24	0x3f637db9	0.8886371
25	0x3f84b0d8	1.0366468
26	0x3f641bb6	0.89104784
27	0x3f795dd1	0.9740878
28	0x3f581243	0.84402865
29	0x3f506547	0.81404537
30	0x3f8ccdd5	1.1000315
31	0x3f4a0641	0.7891579
32	0x3f43fcba	0.76557505
33	0x3f66dbe1	0.9017926
34	0x3f63b0a0	0.88941383
35	0x3f41cad3	0.7570011
36	0x3fb0c154	1.3808999
37	0x3f744a69	0.9542604
38	0x3f53e042	0.82764065
39	0x3f65817d	0.8965071
40	0x3f91c218	1.1387358
41	0x3f40e46b	0.7534854
42	0x3f596f37	0.84935325
43	0x3f91a9d7	1.1379956
44	0x3f536cc1	0.8258782
45	0x3f86dc7e	1.0536039
46	0x3f74990d	0.95546037
47	0x3f47abef	0.77996725
48	0x3f40db51	0.7533465
49	0x3f6387aa	0.8887888
50	0x3f8b757c	1.0895228
51	0x3f497ca8	0.78705835
52	0x3f6299fa	0.885162
53	0x3f56cd7e	0.83907306
54	0x3f995123	1.1977886
55	0x3f51d688	0.81967974
56	0x3f603596	0.87581766
57	0x3f433a28	0.76260614
58	0x3fa0fcc8	1.2577143
59	0x3f6d4849	0.92688423
60	0x3f59b6c1	0.85044485
61	0x3f76d84d	0.964238
62	0x3f59afcc	0.8503387
63	0x3f4931a8	0.78591394
64	0x3f8990c1	1.07473
65	0x3f531b49	0.8246351
66	0x3f530a84	0.8243792
67	0x3f641bd2	0.8910495
68	0x3f37c600	0.717865
69	0x3f540ce0	0.82832146
70	0x3f5e2ff1	0.867919
71	0x3f85c2af	1.0450038
72	0x3f72e550	0.94881153
73	0x3f78139f	0.9690494
74	0x3f9c5886	1.2214515
75	0x3f4d3038	0.801517
76	0x3f5255a2	0.82161915
77	0x3f59ee60	0.85129356
78	0x3f58de97	0.84714645
79	0x3f59b024	0.85034394
80	0x3f4e81cf	0.8066682
81	0x3fb4d9dc	1.4128985
82	0x3f50406b	0.81348294
83	0x3f3e6835	0.7437776
84	0x3f57504e	0.8410691
85	0x3f4c688e	0.7984704
86	0x3f539949	0.8265577
87	0x3f560551	0.8360186
88	0x3f4b19de	0.79336345
89	0x3f39570e	0.7239846
90	0x3f52f165	0.8239959
91	0x3f65280c	0.8951423
92	0x3f682d50	0.9069414
93	0x3f5b7ee4	0.85740495
94	0x3f609073	0.8772041
95	0x3f3bb742	0.73326504
96	0x3f581704	0.8441012
97	0x3f459858	0.77185583
98	0x3f4b16a7	0.7933144
99	0x3f51605c	0.8178766
100	0x3f5c08de	0.8595103
101	0x3f525fb8	0.82177305
102	0x3f5550e7	0.8332657
103	0x3f58bb05	0.8466037
104	0x3f8e0b45	1.1097189
105	0x3f7069ed	0.9391163
106	0x3f438bd3	0.7638523
107	0x3f772e85	0.9655536
108	0x3f8b7a7a	1.0896752
109	0x3f546888	0.82972
110	0x3f50f9be	0.81631076
111	0x3f529dd6	0.8227209
112	0x3f86de9a	1.0536683
113	0x3f4a81cc	0.79104304
114	0x3f487578	0.78304243
115	0x3f5759a5	0.8412116
116	0x3f64bde0	0.89352226
117	0x3f8fcd26	1.1234481
118	0x3f556727	0.83360523
119	0x3f5bd242	0.858677
120	0x3f55ccc8	0.83515596
121	0x3f4f7494	0.8103726
122	0x3f4f7f25	0.8105338
123	0x3f44be2e	0.7685269
124	0x3f55f93d	0.8358343
125	0x3f51e0d1	0.8198367
126	0x3f46d9c8	0.7767606
127	0x3f447528	0.76741266
128	0x3f5b8869	0.8575502
129	0x3f4615db	0.773771
130	0x3f7cc4f0	0.98738
131	0x3f6b0c6f	0.9181585
132	0x3f568d5f	0.83809465
133	0x3f60eab5	0.87858135
134	0x3f732267	0.9497437
135	0x3f6b9f1e	0.9203967
136	0x3f805eda	1.0028946
137	0x3f55f490	0.835763
138	0x3f3ae478	0.73004866
139	0x3f5e531e	0.86845577
140	0x3f6730fc	0.9030912
141	0x3f4cf3dc	0.800596
142	0x3fe43e19	1.7831451
143	0x3f610e29	0.8791223
144	0x3f5b746c	0.8572452
145	0x3f56bd12	0.8388225
146	0x3f678121	0.9043141
147	0x3f71cdd7	0.9445471
148	0x3f46d052	0.7766162
149	0x3f67822a	0.9043299
150	0x3f64a496	0.8931364
151	0x3f54f72e	0.83189666
152	0x3f606811	0.8765879
153	0x3f457d2f	0.7714414
154	0x3f5f9011	0.873292
155	0x3f8de8c1	1.1086656
156	0x3f688f72	0.9084388
157	0x3f73ff97	0.95311874
158	0x3f6e2a41	0.93033224
159	0x3f91983c	1.1374583
160	0x3f534e53	0.8254139
161	0x3f55bd5a	0.8349205
162	0x3f53993c	0.8265569
163	0x3f449efd	0.76805097
164	0x3f5ace45	0.8547099
165	0x3f840bfd	1.0316159
166	0x3f5fc47e	0.874092
167	0x3f5516e0	0.8323803
168	0x3f9e51db	1.236873
169	0x3f5b2b2d	0.85612756
170	0x3f60d9ad	0.87832147
171	0x3f57168d	0.84018785
172	0x3f60b47b	0.8777539
173	0x3f3ba01f	0.732912
174	0x3f747424	0.95489717
175	0x3f88980e	1.0671403
176	0x3f6b3931	0.9188414
177	0x3f6d5258	0.9270377
178	0x3f4e8cae	0.8068341
179	0x3f771fa7	0.9653267
180	0x3f7a629d	0.9780672
181	0x3f5acb6f	0.85466665
182	0x3f60e3a1	0.87847334
183	0x3f56c722	0.838976
184	0x3f7bb2c0	0.98319626
185	0x3f4867ca	0.7828337
186	0x3f56c9e5	0.83901817
187	0x3f5bb286	0.8581928
188	0x3f42590b	0.7591712
189	0x3f4fce0c	0.8117378
190	0x3f737946	0.95106924
191	0x3f5179c0	0.818264
192	0x3f737545	0.95100814
193	0x3f95115b	1.1645921
194	0x3f4bb7bb	0.79577225
195	0x3f517068	0.81812143
196	0x3f6e9b25	0.9320548
197	0x3f6d366a	0.92661154
198	0x3f7003ef	0.93756
199	0x3f665f02	0.8998872
200	0x3f6b2703	0.918564
201	0x3f3dd91c	0.7415941
202	0x3f5161b9	0.8178974
203	0x3facb8ab	1.3493856
204	0x3f60495a	0.87611926
205	0x3f4a6d2b	0.7907283
206	0x3f4f37ef	0.8094472
207	0x3f57a251	0.8423205
208	0x3f4c2b61	0.7975369
209	0x3f755516	0.95832956
210	0x3f5efd0c	0.8710487
211	0x3f4afac0	0.79288864
212	0x3f609fc8	0.87743807
213	0x3f629f42	0.8852426
214	0x3f674467	0.9033875
215	0x3f539056	0.82642114
216	0x3f504928	0.8136163
217	0x3f60a531	0.8775206
218	0x3f48beb2	0.7841598
219	0x3f6e03a3	0.929743
220	0x3f562863	0.83655375
221	0x3f57eb1b	0.8434312
222	0x3f746ee4	0.95481706
223	0x3f44306b	0.7663638
224	0x3f676d61	0.90401274
225	0x3f52bd5b	0.82320184
226	0x3f610b18	0.8790755
227	0x3fa794f6	1.3092334
228	0x3f75ae42	0.9596902
229	0x3f536e3c	0.8259008
230	0x3fa0d3ed	1.2564675
231	0x3f902c9a	1.1263611
232	0x3f76b227	0.9636559
233	0x3f5012a2	0.8127843
234	0x3f50e430	0.81598186
235	0x3f55e315	0.83549625
236	0x3f4e405f	0.8056697
237	0x3f5636e1	0.8367749
238	0x3f81e7e7	1.0148896
239	0x3fb693dc	1.4263873
240	0x3f62ed4a	0.88643324
241	0x3f4f2aa3	0.80924433
242	0x3f4485b3	0.7676651
243	0x3f5ae3c7	0.8550381
244	0x3f594548	0.8487134
245	0x3faed357	1.3658246
246	0x3f641d70	0.8910742
247	0x3f54acd9	0.83076245
248	0x3f588fad	0.8459423
249	0x3f62fc69	0.886664
250	0x3fc03a7b	1.5017847
251	0x3faf50e5	1.3696562
252	0x3f52c4d7	0.82331604
253	0x3f665a56	0.8998159
254	0x3f5d4c67	0.86444706
255	0x3f4c1585	0.79720336

predictor/bn1/beta f4 [1000]
0	0xbdba0e67	-0.09084778
1	0xbc43f7d8	-0.011960946
2	0xbe33a17a	-0.17542067
3	0xbdc8f031	-0.09811438
4	0xbe8dbb1d	-0.2768182
5	0xbdc7d003	-0.09756472
6	0xbe14c4f8	-0.14528263
7	0xbe457582	-0.19283107
8	0x3da50dff	0.0805931
9	0xbd1ee402	-0.038791664
10	0xbe68e4ec	-0.22743577
11	0xbdf0eaa2	-0.11763503
12	0xbe234ab3	-0.15946464
13	0xbe043af2	-0.12913111
14	0xbd243861	-0.04009283
15	0xbdb9f016	-0.09078996
16	0xbdfbd2be	-0.12296055
17	0xbda0a660	-0.078442335
18	0xbe3cfe64	-0.18456417
19	0xbe6a3442	-0.22871497
20	0xbdebf639	-0.115215726
21	0x3e092a3a	0.13395014
22	0xbe0e756e	-0.13911983
23	0xbdb33d8c	-0.087519735
24	0xbe022840	-0.12710667
25	0xbd3564ee	-0.044285707
26	0xbe86ec2e	-0.26352066
27	0xbe474648	-0.19460404
28	0xbdb4d43f	-0.08829545
29	0xbe83c4e5	-0.25736156
30	0xbe881728	-0.26580167
31	0xbaf70c15	-0.0018848205
32	0xbd831061	-0.063996084
33	0xbe161c9b	-0.1465935
34	0xbe38949d	-0.18025441
35	0xbe5ae98a	-0.2137815
36	0x3e100dde	0.1406779
37	0xbe16f93f	-0.14743517
38	0xbdf85f47	-0.12127548
39	0xbe519a2a	-0.20468965
40	0xbd94cfcb	-0.07266196
41	0xbe775248	-0.24152482
42	0xbd815098	-0.063142
43	0x3cea8931	0.028629871
44	0xbe01c602	-0.1267319
45	0xbd0f698e	-0.035012774
46	0xbdaf2274	-0.08551493
47	0xbdfd4964	-0.12367514
48	0xbdb1d946	-0.0868402
49	0xbe6967c6	-0.22793493
50	0xbe97c4c2	-0.29642302
51	0xbe0619de	-0.13095805
52	0xbd4895d6	-0.04897102
53	0xbe81565a	-0.25261194
54	0x3e21b9f0	0.15793586
55	0xbe4ddffd	-0.20104976
56	0xbe454a3f	-0.19266604
57	0xbded6419	-0.11591358
58	0x3e521c9e	0.20518729
59	0xbdb00969	-0.08595545
60	0xbda5e939	-0.08101124
61	0xbe9ad6cd	-0.30242005
62	0xbdfacc7c	-0.122460335
63	0xbdd8760e	-0.10569392
64	0x3e97e229	0.29664734
65	0xbda48c4d	-0.08034573
66	0xbe165d6d	-0.14684077
67	0xbe4af921	-0.19821598
68	0xbe5f05b6	-0.21779522
69	0xbe727777	-0.23678385
70	0xbe256230	-0.16150737
71	0xbe9eee81	-0.3104134
72	0x3d817065	0.06320266
73	0xbd43afd5	-0.04777511
74	0x3d8bd9d6	0.06828658
75	0xbebe7bfb	-0.37203965
76	0xbe58deec	-0.21178788
77	0xbe0411cd	-0.12897415
78	0xbd0086de	-0.03137862
79	0xbe091f28	-0.13390791
80	0xbd42cc9b	-0.04755841
81	0xbd176a22	-0.03696645
82	0x3dabd647	0.083904795
83	0xbe9ff320	-0.31240177
84	0xbe6375c2	-0.2221289
85	0xbe5160e0	-0.20447111
86	0xbbf20c7d	-0.0073867426
87	0xbd72ab65	-0.059245486
88	0xbe43dc37	-0.19126974
89	0xbe24335e	-0.1603522
90	0xbe47c871	-0.19510056
91	0xbdc5e618	-0.096630275
92	0xbe5538f5	-0.20822509
93	0x3e68b906	0.22726831
94	0xbe00111e	-0.1250653
95	0xbe0b1cfb	-0.13585274
96	0xbe196c32	-0.1498268
97	0xbbd986cf	-0.006638385
98	0xbde81487	-0.1133204
99	0x3c074717	0.008256695
100	0xbe08e5bc	-0.13368887
101	0x3dc33d69	0.095331974
102	0xbe6b634a	-0.22987095
103	0xbe791ebe	-0.24328133
104	0xbd7363c0	-0.0594213
105	0xbe25d850	-0.16195798
106	0xbd2b83b0	-0.041873634
107	0xbe8ba951	-0.27277616
108	0xbe2564e1	-0.16151763
109	0xbeb2219e	-0.34791273
110	0xbd84fe61	-0.064938314
111	0xbdd67c33	-0.10472908
112	0xbd2da813	-0.042396616
113	0x3a24c2e5	0.0006285145
114	0xbe31bf21	-0.17358066
115	0xbe1445cc	-0.1447975
116	0xbeb6509e	-0.3560838
117	0xbdb60b0b	-0.08888825
118	0xbeb00f8f	-0.3438687
119	0xbddbefa4	-0.10739067
120	0xbd9fcdeb	-0.078029476
121	0xbe00ffb6	-0.12597546
122	0xbdd71981	-0.10502911
123	0xbe8977b0	-0.26849127
124	0xbdb92de1	-0.09041954
125	0xbda85580	-0.08219433
126	0xbd2c1afa	-0.042017914
127	0xbd9a26a8	-0.07526904
128	0xbdc20d94	-0.09475246
129	0xbe51f73b	-0.20504467
130	0xbd2f87a0	-0.04285395
131	0xbdfb0104	-0.12256053
132	0xbdc28976	-0.09498875
133	0x3d5510a3	0.05201782
134	0xbe482cc8	-0.19548333
135	0xbe4f488f	-0.20242523
136	0xbc820855	-0.015873114
137	0xbe21e5f8	-0.15810382
138	0xbd7a0f4d	-0.06104975
139	0xbde502c9	-0.11182172
140	0xbe565e8c	-0.20934504
141	0xbe1508dc	-0.14554161
142	0x3ecdbc9e	0.40182966
143	0xbe39dde5	-0.18151052
144	0xbe2f244e	-0.17103693
145	0xbe1e27ec	-0.15444916
146	0xbe1e7c47	-0.15477096
147	0xbdca7e36	-0.09887354
148	0xbe24973a	-0.16073313
149	0x3cc2e3ba	0.02379023
150	0xbd47f4be	-0.04881739
151	0xbe46a64f	-0.19399379
152	0xbe16ea87	-0.14737903
153	0xbd995fb1	-0.07488955
154	0xbde6b46e	-0.11264883
155	0xbd5572ef	-0.052111562
156	0x3cb8632c	0.022508226
157	0xbe016fd8	-0.12640321
158	0xbdff4738	-0.12464756
159	0xbe37be6d	-0.17943735
160	0xbdcd11e5	-0.10013179
161	0xbe62cfca	-0.22149578
162	0xbe95f5f8	-0.29289222
163	0xbdf11aa3	-0.11772659
164	0xbe77a4af	-0.24183916
165	0x3d70409a	0.05865536
166	0xbe201f59	-0.15636958
167	0xbe03e103	-0.12878804
168	0xbdc17609	-0.094463415
169	0xbe0fe42f	-0.14051889
170	0xbd650524	-0.055913106
171	0xbdc490ef	-0.095979564
172	0xbe1ed0fc	-0.15509409
173	0xbe8b4915	-0.27204195
174	0xbe8e2f93	-0.2777067
175	0xbd06cf13	-0.032912325
176	0xbe0ecb4d	-0.1394474
177	0xbe6c3492	-0.23066929
178	0x3c4e1ca4	0.012580071
179	0xbeaf739d	-0.34267893
180	0xbe3f0c9c	-0.18657154
181	0x3e1dbe34	0.15404588
182	0xbda27e47	-0.07934242
183	0xbe6b8139	-0.22998513
184	0xbd13efe7	-0.03611746
185	0xbdd899d1	-0.10576213
186	0xbd676c5a	-0.056499816
187	0xbe8129c0	-0.25227165
188	0xbd3982f8	-0.045290917
189	0xbe50fe71	-0.20409562
190	0x3c91f09d	0.017814929
191	0xbda0c4d0	-0.07850039
192	0xbe86a76d	-0.2629961
193	0xbdfe0ffb	-0.12405392
194	0xbe5f1bce	-0.2178795
195	0xbdfc426d	-0.12317357
196	0xbe76d297	-0.24103771
197	0xbd3c1d59	-0.045926426
198	0xbe2fd8d8	-0.17172563
199	0xbddf06e8	-0.10889989
200	0xbddb97bf	-0.10722303
201	0xbea5e29b	-0.3239945
202	0xbe1ac2ff	-0.15113448
203	0x3d123f5d	0.03570496
204	0xbe4b3264	-0.19843441
205	0xbdd1f481	-0.102517135
206	0xbe460f2a	-0.19341722
207	0x3d939082	0.07205297
208	0xbe3d655e	-0.184957
209	0xbe2fef35	-0.17181094
210	0xbe011c00	-0.12608337
211	0xbd4178d6	-0.04723438
212	0x3884d04b	6.333048e-05
213	0xbe0cc23e	-0.13745973
214	0xbe558aaf	-0.20853685
215	0xbe75098a	-0.2392942
216	0xbdfbdb5c	-0.12297699
217	0xbe7f7185	-0.24945648
218	0xbcd5f667	-0.02611847
219	0xbe26d7de	-0.16293284
220	0xbe72b6e7	-0.23702584
221	0xbb3e7019	-0.0029058515
222	0xbe3a881e	-0.18215987
223	0x3b91e0df	0.0044518556
224	0xbcf964de	-0.030443605
225	0xbd8cef87	-0.06881624
226	0xbd1c3158	-0.038132995
227	0xbd485087	-0.04890492
228	0xbdb95ab9	-0.09050507
229	0xbd83e2fc	-0.06439778
230	0x3e380863	0.1797195
231	0xbdc74dc6	-0.09731631
232	0xbe167f39	-0.14696969
233	0xbd3f6845	-0.0467303
234	0xbe5f8648	-0.21828568
235	0xbdc406f3	-0.09571638
236	0xbe811ca2	-0.25217158
237	0xbd403a94	-0.046930864
238	0x3cd86ee1	0.026420059
239	0x3e1578c7	0.14596854
240	0xbde5f822	-0.11228968
241	0xbe12c684	-0.1433354
242	0xbe144bfb	-0.14482109
243	0xbd96c630	-0.0736202
244	0xbe65ed44	-0.22453791
245	0xbcad41ef	-0.021149604
246	0xbab523f4	-0.0013819919
247	0xbdcdb5c5	-0.100444354
248	0xbe0c59bd	-0.13706107
249	0x3c20ea79	0.009821528
250	0x3dcf5acb	0.10124739
251	0xbe0afde6	-0.13573417
252	0xbe3430ea	-0.17596784
253	0x3d90d2e9	0.07071478
254	0xbe1d8ce4	-0.15385777
255	0xbda18ceb	-0.07888206

predictor/l2/W f4 [100, 1000]
0	0x3c53a40d	0.012917531
1	0x3daaeae2	0.083455816
2	0xbc6f0def	-0.014590724
3	0x3d4a97a3	0.04946102
4	0x3c9e2150	0.019302994
5	0xbd68776e	-0.056754522
6	0x3c9b9264	0.018990703
7	0xbd9d7fcd	-0.07690392
8	0x3c4f19bc	0.012640413
9	0xbcafe467	-0.021471215
10	0xbb45a4e5	-0.00301581
11	0xbe4a9a32	-0.19785383
12	0xbd262651	-0.040563885
13	0x3dbb3fdf	0.09143042
14	0xbd97b4c6	-0.07407527
15	0x3d602c78	0.05472991
16	0x3d6a570e	0.057211928
17	0x3d8cd6be	0.06876896
18	0x3ca607e2	0.02026743
19	0xbda9eb13	-0.0829679
20	0x3d741e21	0.059599046
21	0xbb911eca	-0.004428719
22	0xbc652c4d	-0.013987613
23	0xbc4aa29c	-0.012367871
24	0xbac905f6	-0.001533686
25	0xbd873273	-0.06601419
26	0xbd7496f9	-0.05971429
27	0xbcf03e75	-0.029326657
28	0x3c732530	0.014840409
29	0xbd26dd95	-0.04073866
30	0x3dcabed5	0.098996796
31	0xbbbf14c7	-0.0058313343
32	0x3c7a1e03	0.015265944
33	0xbe1759df	-0.14780377
34	0x3cf0dcea	0.029402215
35	0xbd5e9e8d	-0.054350425
36	0xbe5ddae9	-0.21665539
37	0xbe1760e6	-0.14783058
38	0x3cdd698b	0.027027866
39	0x3cdb694d	0.02678361
40	0x3d1743d8	0.036929935
41	0xbd36f139	-0.04466364
42	0xbcfdc2d7	-0.030976696
43	0xbd190f90	-0.037368357
44	0x3cad8394	0.021180905
45	0xbe0cb309	-0.13740171
46	0xbdc76fa8	-0.097380936
47	0x3d287a25	0.04113211
48	0x3b448a7a	0.0029989765
49	0x3cc55c18	0.024091765
50	0xbd94d3c7	-0.07266956
51	0xbd21add5	-0.03947242
52	0xbd522aec	-0.051310465
53	0xbce88c98	-0.028387353
54	0xbdf5002e	-0.11962925
55	0xbd08ca6a	-0.033396162
56	0x3be32da0	0.006932929
57	0xbc35cc17	-0.011096022
58	0xbda63c3f	-0.0811696
59	0xbe0b8e11	-0.13628413
60	0xbb6579b6	-0.0035015172
61	0xbb0c9954	-0.0021453695
62	0xbbf97df2	-0.007613891
63	0xbd0b194e	-0.03395968
64	0xbea4ab50	-0.3216195
65	0x3d99da1f	0.075123064
66	0x3d2ee5cc	0.04269962
67	0x3bdc12a9	0.0067160917
68	0x3ce0925d	0.027413541
69	0xbb2df6bd	-0.0026544773
70	0x3c8443bb	0.016145578
71	0xbd8faa55	-0.0701491
72	0xbb721772	-0.0036940244
73	0x3c494c41	0.012286247
74	0xbe4c19de	-0.19931743
75	0xbd364a3d	-0.044504393
76	0xbcd5f523	-0.026117867
77	0xbcaaf0f1	-0.020866843
78	0x3da12ad3	0.07869496
79	0xbd53b9ba	-0.051690795
80	0xbd6f0a29	-0.0583593
81	0xbddf4cef	-0.10903346
82	0xbda4315a	-0.080172256
83	0xbcc6e630	-0.024279684
84	0xbc5a5dc0	-0.013328016
85	0xbc351374	-0.011052001
86	0x3c368011	0.011138932
87	0xbc089d69	-0.008338311
88	0xbd95e400	-0.07318878
89	0x3c7445f2	0.014909254
90	0x3d06a5b9	0.03287289
91	0x3cdbf206	0.026848804
92	0x3d874001	0.06604005
93	0xbbc7d790	-0.006098695
94	0xbd6c28f6	-0.05765625
95	0xbd2d2282	-0.042269237
96	0x3d366ded	0.044538427
97	0xbbc7ecbf	-0.0061012204
98	0x3d8629c1	0.06550933
99	0x3c8207b5	0.015872816
100	0x3cf61dea	0.030043561
101	0xbda587b0	-0.08082521
102	0xbbd5ab2f	-0.006520651
103	0xbda9d9c4	-0.082934886
104	0xbd84f1ee	-0.06491457
105	0xbc1dee93	-0.0096394
106	0xba1467c9	-0.0005661217
107	0xbd9cc24e	-0.07654248
108	0x3d00f125	0.031479973
109	0xbddbcb49	-0.10732133
110	0xbdd8e47b	-0.10590454
111	0x3daa87ed	0.08326707
112	0xbd57bfcf	-0.052673157
113	0xbb444938	-0.0029950868
114	0xbd3a427f	-0.045473572
115	0xbda7bb91	-0.08190072
116	0xbd4d76e1	-0.0501622
117	0xbd01f9c5	-0.03173234
118	0xbd9a3663	-0.07529905
119	0x3d7fe0a5	0.062470097
120	0x3db85b37	0.09001773
121	0x3d48f6eb	0.049063604
122	0x3cae5128	0.021278933
123	0xbda21db4	-0.07915822
124	0x378b6af0	1.6619888e-05
125	0xbd7939f1	-0.060846273
126	0xbd7eaf4f	-0.062178906
127	0x3c06dc1f	0.008231192
128	0xbdae83c3	-0.08521225
129	0x3d6d99c6	0.058007978
130	0xbdf86d32	-0.12130202
131	0x3cf63f77	0.03005956
132	0xbc0d2a6f	-0.008616074
133	0xbc65e2c4	-0.014031116
134	0xbd073af4	-0.033015206
135	0x3d514c89	0.05109838
136	0xbdbebee4	-0.09313753
137	0x3c5df813	0.013547915
138	0x3d94b627	0.07261305
139	0x3aa026a2	0.0012218545
140	0x3dad1762	0.084517255
141	0xbdaf44d9	-0.085580535
142	0xbdceeefd	-0.10104177
143	0xbce294d6	-0.027658861
144	0x3d5ea9eb	0.054361265
145	0x3d7569fd	0.05991553
146	0x3dae0eec	0.0849894
147	0x3db2f7e0	0.08738685
148	0xbc7c1a0c	-0.015387069
149	0xbc153261	-0.00910625
150	0x3d2e012c	0.042481586
151	0x3c1f0c99	0.009707593
152	0xbc0a7fdc	-0.008453336
153	0xbd566479	-0.052341912
154	0xbc7f59fe	-0.015585421
155	0x3d9c7701	0.07639886
156	0x3b9767b0	0.004620515
157	0x3da7e718	0.081983745
158	0x3d368d9d	0.044568647
159	0x3daf362a	0.08555253
160	0x3d5c884e	0.053840928
161	0xbd82cbab	-0.06386503
162	0xbc8e5e0f	-0.017378835
163	0x3d895045	0.06704763
164	0xbc5c756b	-0.013455729
165	0xbde61c6d	-0.112358905
166	0xbbed6c5d	-0.007245584
167	0xb9acb750	-0.00032942975
168	0xbd3e16ad	-0.046408344
169	0xbd2cbb49	-0.042170797
170	0x3d3f9fbc	0.046783194
171	0x3d6662f4	0.056246713
172	0xbc9bec34	-0.019033529
173	0xbc6ac428	-0.014328994
174	0x3d101d1d	0.035184015
175	0xbd0f6a7c	-0.03501366
176	0xbd88cab5	-0.06679288
177	0xbbf877bc	-0.007582633
178	0xbd1124bb	-0.03543542
179	0xbde71e16	-0.11285035
180	0x3cd4347b	0.02590393
181	0x3b673ecc	0.0035285233
182	0x3db8c185	0.09021286
183	0xbd014dc6	-0.03156831
184	0xbddd6b4f	-0.10811483
185	0xbd689f02	-0.056792267
186	0xbbea461e	-0.007149472
187	0xbd22c220	-0.039735913
188	0xbd0c6443	-0.034275305
189	0xbc863195	-0.016381064
190	0xbd8b69ef	-0.068073146
191	0xbd48bcbb	-0.049008112
192	0xbdee3701	-0.11631585
193	0xbd566bad	-0.05234878
194	0x3cb8cade	0.022557672
195	0xbd58f7ab	-0.05297057
196	0x3d0e8839	0.03479788
197	0x3db0dbcf	0.08635675
198	0xbc3a78b0	-0.011381313
199	0xbbc9ab88	-0.0061544813
200	0xbbd3c072	-0.0064621503
201	0xbd8ec5e9	-0.06971342
202	0xbd60d3a3	-0.054889333
203	0xbd3551e8	-0.044267565
204	0x3c1527b1	0.009103701
205	0xbcf82ca2	-0.03029472
206	0x3d17d4e3	0.03706826
207	0xbc11872f	-0.008882328
208	0x3d51df4c	0.051238343
209	0xbd35d229	-0.044389877
210	0x3d413b9e	0.047175996
211	0xbc03c73a	-0.008043105
212	0xbd2b92a3	-0.04188789
213	0x3cd55f45	0.026046405
214	0x3d2c7b89	0.04211
215	0xbcc84940	-0.02444899
216	0xbc5b24bf	-0.01337546
217	0xbc4274d1	-0.0118686715
218	0x3d181443	0.037128698
219	0xbd1f8c0f	-0.03895193
220	0xbcc05a18	-0.02348046
221	0xbd86efd0	-0.06588709
222	0xbb2e192d	-0.00265653
223	0x3d575aac	0.052576706
224	0xbdfa13ef	-0.12210833
225	0xbb5aaa74	-0.0033365758
226	0xbde83438	-0.11338085
227	0xbd9152ad	-0.07095847
228	0x3c181791	0.009282962
229	0x3d84d6d7	0.0648629
230	0xbcadfe55	-0.021239439
231	0x3ccf46b8	0.025302276
232	0xbc204ec2	-0.009784402
233	0x3d7e7182	0.06211997
234	0xbcbd8ad3	-0.023137486
235	0xba9e565f	-0.0012080184
236	0xbcb37295	-0.021905223
237	0xbd8d2613	-0.06892028
238	0xbced27e0	-0.028949678
239	0xbe12f18b	-0.14349954
240	0x3d2aa625	0.041662354
241	0xbde39d56	-0.11113994
242	0xbd4036df	-0.04692733
243	0x3c0131b3	0.007885384
244	0xbd624161	-0.05523813
245	0xbda3b88b	-0.07994183
246	0xbc75eb18	-0.015009664
247	0x3d348de7	0.04408064
248	0xbc1702ec	-0.009217005
249	0x3dcf7b72	0.10130967
250	0xbea34d91	-0.31895116
251	0x3e04ea98	0.12980115
252	0xbdc334a6	-0.09531526
253	0x3cc4c3c4	0.02401913
254	0x3d2c396d	0.042046953
255	0x3ca4e485	0.020128498

predictor/l3/b f4 [2]
0	0x3e7df412	0.24800137
1	0xbe7df449	-0.24800219

predictor/l1/b f4 [1000]
0	0x37b3e9a1	2.1447255e-05
1	0x38b9d40f	8.8609864e-05
2	0x3a6ba51d	0.00089891424
3	0x38862fde	6.398534e-05
4	0x3a8d622b	0.0010786703
5	0x3b0d1a9f	0.002153076
6	0xb8705680	-5.730102e-05
7	0x37e21684	2.6951784e-05
8	0xb8d7fa65	-0.000102986385
9	0xb91dd7a1	-0.00015053015
10	0x390b21a0	0.000132686
11	0xba142a25	-0.0005652032
12	0xbb297d07	-0.0025861876
13	0xb99539de	-0.0002846261
14	0x39ed7102	0.0004528836
15	0xb81e0fa7	-3.7684713e-05
16	0xb985c967	-0.00025517793
17	0x378b165f	1.6580509e-05
18	0x38942a8d	7.065116e-05
19	0x37008aa5	7.661675e-06
20	0x3791983f	1.7356242e-05
21	0xb904dbbd	-0.0001267036
22	0xb9bcc3d5	-0.0003600406
23	0xb9a8191d	-0.00032062168
24	0xb79f050f	-1.8956633e-05
25	0xbb12a4c7	-0.0022376047
26	0x39158213	0.00014258204
27	0xb9f9aad2	-0.00047620252
28	0x3854c6c9	5.0729872e-05
29	0xb89f8fd6	-7.608502e-05
30	0x3b78f773	0.0037989288
31	0x3834916e	4.3050786e-05
32	0x38616dff	5.3746622e-05
33	0x39a8020d	0.00032044985
34	0x394326df	0.0001861113
35	0xb835d41e	-4.3351312e-05
36	0xbaed84e8	-0.0018121274
37	0xbaaf286f	-0.001336349
38	0xb7a2b537	-1.939629e-05
39	0xb66e80a2	-3.5539638e-06
40	0xbb9eab39	-0.0048421887
41	0xb5eaec4c	-1.750313e-06
42	0x38b87371	8.795306e-05
43	0xbb44206e	-0.0029926556
44	0x376382a4	1.35606715e-05
45	0xb9b2e0cd	-0.00034118295
46	0x392c99ce	0.00016460495
47	0x365ade26	3.2613839e-06
48	0xb74e5a07	-1.2299518e-05
49	0x381c2735	3.7229813e-05
50	0xbb5d4f19	-0.003376907
51	0xb86cb829	-5.6438297e-05
52	0xb99e95f0	-0.0003024782
53	0xb7b77eda	-2.187437e-05
54	0x3bb72aa7	0.0055898014
55	0xb85122de	-4.9861956e-05
56	0x38286c73	4.0155322e-05
57	0xb8267483	-3.9685994e-05
58	0xbb13e568	-0.0022567157
59	0x37817fff	1.5437601e-05
60	0xb8212efb	-3.8429145e-05
61	0x3aeeec90	0.001822846
62	0xb896cc6c	-7.190634e-05
63	0xb80ffe6c	-3.4330806e-05
64	0xba8fc8cb	-0.0010969875
65	0x3954b270	0.00020284369
66	0xb8dd8943	-0.00010563668
67	0xb84c22ac	-4.866968e-05
68	0xb6478358	-2.9729763e-06
69	0xb85d7b75	-5.2805484e-05
70	0xb8a2666f	-7.743842e-05
71	0xb93f62e1	-0.00018252015
72	0xb9bab9e9	-0.00035615198
73	0xb7c9fcfc	-2.4078872e-05
74	0xbb760952	-0.0037542176
75	0xb962ba27	-0.00021622387
76	0xb944d049	-0.00018769609
77	0xb900f0c7	-0.00012296728
78	0x380aeccb	3.3122295e-05
79	0xb96e6df5	-0.00022738411
80	0xb61e165a	-2.3556845e-06
81	0x3b9d5c1d	0.0048022405
82	0x38ac5fab	8.219419e-05
83	0x3841fbbd	4.6249235e-05
84	0xb92e50aa	-0.00016623983
85	0x389a962f	7.371266e-05
86	0x3a0623a1	0.00051170035
87	0x391d8b9e	0.00015024698
88	0x36b6d42e	5.4487236e-06
89	0xb88e2564	-6.778052e-05
90	0x390fd1d3	0.00013715708
91	0x39bcc832	0.0003600731
92	0x37b9acb5	2.2134142e-05
93	0x38ec5fbb	0.00011271188
94	0x380d3cd9	3.367369e-05
95	0x37f696ba	2.9395673e-05
96	0xb780a25a	-1.533439e-05
97	0xb3549eda	-4.950457e-08
98	0x382c40a2	4.106819e-05
99	0xb88917c8	-6.537099e-05
100	0x37c3adb5	2.33267e-05
101	0x3a055fe0	0.0005087834
102	0x3884fe03	6.341564e-05
103	0x38a98f9a	8.085296e-05
104	0x3a345310	0.00068788324
105	0xb8fdab1f	-0.00012095854
106	0xb45fb837	-2.083551e-07
107	0xba98a882	-0.0011646899
108	0x3a8a0924	0.0010531289
109	0x3931770a	0.00016924381
110	0xb7efebb7	-2.8600783e-05
111	0x38e52a07	0.00010927399
112	0x39ec44a8	0.0004506458
113	0x37ee2a1b	2.8391418e-05
114	0x37c89f89	2.3916147e-05
115	0xb8cfb69f	-9.904545e-05
116	0xb7c205f4	-2.3129374e-05
117	0xbaa2ff6f	-0.0012435744
118	0xb81a8c17	-3.684693e-05
119	0x388bab69	6.659964e-05
120	0x37cc0f7e	2.432591e-05
121	0x38c74555	9.5019735e-05
122	0xb8d0527f	-9.933579e-05
123	0x345725d0	2.0037191e-07
124	0xb8ed545c	-0.00011316754
125	0x371a04f7	9.180271e-06
126	0xb900ea83	-0.00012294394
127	0x39e5c48d	0.00043824725
128	0x378d3f1e	1.6837901e-05
129	0x37b6c114	2.1786e-05
130	0x3b1e43e1	0.0024149346
131	0x3789a0e4	1.6406593e-05
132	0xb8e8487a	-0.00011076122
133	0xb88fac28	-6.850838e-05
134	0xb8a858fd	-8.0274396e-05
135	0xb8feee33	-0.00012156032
136	0xb81db090	-3.7596154e-05
137	0x3902f442	0.00012488759
138	0x3844ed52	4.6951063e-05
139	0xb7eaa199	-2.7970224e-05
140	0x3834b286	4.3081607e-05
141	0x3997c4bd	0.00028947546
142	0x3c270c3d	0.010195789
143	0xb8cfdb76	-9.911407e-05
144	0xb809406e	-3.272335e-05
145	0xb83b91da	-4.472011e-05
146	0xb85dfc91	-5.2925727e-05
147	0x389064f8	6.885262e-05
148	0xb692044e	-4.35164e-06
149	0x387ba7f7	5.9999493e-05
150	0x387c5732	6.016269e-05
151	0xb770e9c9	-1.4359547e-05
152	0xb900234f	-0.00012220185
153	0x389df188	7.531332e-05
154	0xb9bb3bcf	-0.0003571198
155	0xba7ea10d	-0.00097133295
156	0x397d5e0b	0.00024162994
157	0xb747c794	-1.1907792e-05
158	0xba793af2	-0.000950738
159	0xbbe0c414	-0.006859312
160	0x392d7625	0.00016542578
161	0xb7592b22	-1.2944251e-05
162	0xb81e4e29	-3.7742928e-05
163	0xb91815a0	-0.00014503906
164	0x36d8da9a	6.46275e-06
165	0xbb01f1b0	-0.0019827895
166	0xb96dfcc2	-0.00022696241
167	0xb8ffd70c	-0.00012199403
168	0x3ba8e619	0.005154383
169	0x3809a89d	3.282038e-05
170	0x394eef90	0.00019734935
171	0xb79e560a	-1.8875133e-05
172	0xb86eae17	-5.6905756e-05
173	0xb805e358	-3.19214e-05
174	0x3794430c	1.7674196e-05
175	0xb912dce9	-0.0001400594
176	0xb8e6ecde	-0.000110113746
177	0xb7ab361b	-2.0409983e-05
178	0x39a826b1	0.00032072284
179	0x38b4ef41	8.627633e-05
180	0x3882a5ff	6.229802e-05
181	0xb9affd57	-0.00033567354
182	0xb8ac5073	-8.216584e-05
183	0xb75fb44b	-1.33338135e-05
184	0x3aab3db8	0.0013064658
185	0xb731a300	-1.05879735e-05
186	0x39a3e83e	0.00031262817
187	0x39a29ea3	0.0003101724
188	0x3804d722	3.167161e-05
189	0xb7a72097	-1.9923127e-05
190	0x3a04ca30	0.00050655287
191	0x38f25c9a	0.000115567076
192	0x3af933df	0.0019012651
193	0x3aad905d	0.0013241876
194	0x38e25214	0.00010791808
195	0xb80b33f4	-3.3188568e-05
196	0xb5e31956	-1.6920192e-06
197	0x3a112743	0.00055371615
198	0x38fb8d6d	0.00011994955
199	0xb8e3ddfc	-0.00010865551
200	0xb9bf154a	-0.0003644622
201	0xb810a0ee	-3.4482153e-05
202	0xb759a9eb	-1.297377e-05
203	0x3a014e04	0.00049325847
204	0x3857dd7d	5.146627e-05
205	0x379c034a	1.859818e-05
206	0xb903158c	-0.0001250116
207	0x37154905	8.898093e-06
208	0x3647808b	2.9728133e-06
209	0x39f00227	0.0004577797
210	0xb89b36a3	-7.401153e-05
211	0x392326a3	0.00015559285
212	0xb8cddd0b	-9.816334e-05
213	0xb7ca225a	-2.4096273e-05
214	0x38447334	4.6837333e-05
215	0xb7979145	-1.806825e-05
216	0x39ba2a61	0.0003550826
217	0xb8b7fdce	-8.773395e-05
218	0x375cff72	1.3172497e-05
219	0xb92be243	-0.0001639212
220	0x39850612	0.0002537226
221	0x38ae67af	8.316279e-05
222	0x38960cd7	7.154949e-05
223	0xb9b99064	-0.0003539353
224	0xb92eb981	-0.00016663039
225	0x36ca0047	6.0201014e-06
226	0x399e069e	0.0003014104
227	0x3992f098	0.00028026546
228	0xb8fe32da	-0.00012121136
229	0x389ba556	7.421772e-05
230	0x3c103dbc	0.008803781
231	0xba81ba26	-0.0009897396
232	0xb99d1ec2	-0.0002996829
233	0x38b1b280	8.473266e-05
234	0xb9060b91	-0.00012783545
235	0x365ece68	3.3200722e-06
236	0x39096d7f	0.00013106129
237	0x39d63af3	0.0004086118
238	0x3a38b8c2	0.0007046574
239	0x3b04be8c	0.0020255176
240	0x378fe66e	1.715423e-05
241	0x3720046e	9.5377745e-06
242	0x37ad724a	2.0676427e-05
243	0x3a041b8f	0.0005039507
244	0xb874d26e	-5.837011e-05
245	0x3a8aa691	0.0010578205
246	0xb9305c2f	-0.00016819009
247	0xb8aecbfd	-8.334962e-05
248	0x36c5424e	5.8787764e-06
249	0x38bbb804	8.9511304e-05
250	0x3b8bfad9	0.0042718467
251	0xbc573b6e	-0.013136728
252	0xb8cf0744	-9.8718825e-05
253	0xb856253a	-5.1056246e-05
254	0x3a894c1b	0.0010474952
255	0xb7a51497	-1.967912e-05

predictor/l2/b f4 [100]
0	0xbc5c9286	-0.013462668
1	0xbb87d9f5	-0.0041458555
2	0x3e0b12c5	0.13581379
3	0xbbc4c976	-0.0060054613
4	0xbc034e06	-0.008014208
5	0xbdd7573a	-0.10514684
6	0x3bc53e14	0.006019363
7	0xbca5e9ea	-0.02025314
8	0xbd5740c8	-0.052552015
9	0xbbafe0fb	-0.005367396
10	0xbb7e9f6e	-0.0038852352
11	0x3d872519	0.06598873
12	0xbcb292fd	-0.021798605
13	0xbbfdcf5a	-0.0077456655
14	0xbbfa88b2	-0.00764569
15	0xbbc82f44	-0.00610915
16	0xbd5b0d9e	-0.053479783
17	0xbbc4c920	-0.0060054213
18	0xbd7b8e26	-0.06141486
19	0x3d2c699c	0.042092904
20	0xbca76e6e	-0.0204384
21	0xbd2a3989	-0.041558776
22	0xbd0f1b39	-0.03493807
23	0x38fc1140	0.000120195094
24	0x3d18ee2e	0.03733652
25	0x3d9374b9	0.071999975
26	0xbd2f30dd	-0.04277121
27	0xbc6dce44	-0.01451451
28	0xbc1474d4	-0.009061057
29	0x3d8c960a	0.06864555
30	0x3d954fcf	0.07290613
31	0x3dc7830b	0.09741791
32	0xbcee912e	-0.029121961
33	0xbd5d74b5	-0.05406638
34	0x3d9ef85d	0.07762215
35	0x3d39a5cf	0.045324143
36	0x3c360285	0.011108999
37	0xbc269b52	-0.010168867
38	0x3caf2e48	0.021384373
39	0xbd6e321f	-0.058153268
40	0xbb729735	-0.0037016396
41	0xbb450037	-0.0030059943
42	0xbd2df380	-0.042468548
43	0x3d8f7907	0.07005506
44	0x3db7f13b	0.08981558
45	0xbbf6c51f	-0.007530823
46	0x3d7e501c	0.062088117
47	0xbbc8bb2b	-0.006125828
48	0xbc0c0efa	-0.008548493
49	0x3dc6314e	0.09677373
50	0x3d4b2724	0.049597874
51	0xbd89b79d	-0.067244746
52	0xbc2a2e05	-0.0103869485
53	0xbd847f6c	-0.06469616
54	0xbd8b1beb	-0.06792434
55	0x3cdc764d	0.026911879
56	0xbd639edd	-0.055571426
57	0x3b74915a	0.0037318082
58	0x3d83bd63	0.06432607
59	0xbc04c7eb	-0.008104305
60	0xbd7280e0	-0.059204936
61	0x3d8412c7	0.06448894
62	0x3d953816	0.07286088
63	0x3d801712	0.062544
64	0xbbe672d9	-0.007032734
65	0x3d9e7b20	0.07738328
66	0xbbf01ca1	-0.0073276316
67	0xbd4a978c	-0.049460933
68	0xbd6cb22f	-0.057787117
69	0x3a350941	0.0006905981
70	0x3d90ece5	0.07076434
71	0xbd951035	-0.07278482
72	0x3d31511e	0.04329025
73	0xbc47daec	-0.012198191
74	0x3d9c0bca	0.07619436
75	0x3c2f9602	0.010716917
76	0x3d922a36	0.07136957
77	0xbd894175	-0.06701938
78	0xbdd2131e	-0.102575526
79	0xbc013657	-0.007886491
80	0xbc0dd0c4	-0.008655731
81	0xbc2789c9	-0.010225722
82	0xbc05f2fc	-0.008175608
83	0xba178c0e	-0.00057810626
84	0xbc1033d6	-0.008801421
85	0xbd27e6a2	-0.040991433
86	0x3c7c96ee	0.015416844
87	0xbbef842e	-0.007309458
88	0xbc40f017	-0.011775992
89	0xbc05df24	-0.008170877
90	0x3cff670a	0.031177063
91	0xbc0ca535	-0.00858431
92	0xbb90220b	-0.0043985895
93	0x3d3e187c	0.04641007
94	0xbd59b6ce	-0.05315285
95	0xbbb684ff	-0.0055700536
96	0x3c07910b	0.008274327
97	0x3dbb6bb3	0.09151401
98	0xbbc653a3	-0.0060524507
99	0x3de0fea5	0.109860696

predictor/l1/W f4 [1000, 11]
0	0x3d99a284	0.075017005
1	0xbddf366c	-0.10899052
2	0xbea670f7	-0.3250806
3	0x3e82fd83	0.2558404
4	0x3e36e2f5	0.17860015
5	0x3dd401e0	0.1035192
6	0xbda837ef	-0.082137935
7	0xbeb833b1	-0.35976937
8	0x3debba1f	0.11510109
9	0x3efbffaf	0.4921851
10	0xbf1a38dd	-0.60243016
11	0xbf001414	-0.50030637
12	0xbdbf6b61	-0.09346653
13	0x3ec52b98	0.38509822
14	0xbf4e4d99	-0.80587155
15	0x3e53f690	0.20699525
16	0xbaa29ffb	-0.0012407297
17	0xbde8f6f4	-0.113752276
18	0xbe9c1415	-0.3048407
19	0xbe4a09c3	-0.19730286
20	0xbf0c0360	-0.5469265
21	0xbe60e7b8	-0.21963394
22	0xbee7ef2e	-0.45299667
23	0xbeecc667	-0.4624512
24	0x3f0fa55e	0.56111705
25	0xbe719eda	-0.23595753
26	0xbdc28664	-0.09498289
27	0xbe8da7ad	-0.2766699
28	0x3f2fa46e	0.68610275
29	0xbebcddb3	-0.36887893
30	0x3f34682c	0.70471454
31	0xbcdf0128	-0.027222231
32	0xbed4e185	-0.41578308
33	0xbed325bf	-0.41239735
34	0x3f150d8d	0.582238
35	0xbe96d3cf	-0.29458472
36	0xbecb63e0	-0.39724636
37	0xbedce63f	-0.43144414
38	0xbda4b9a8	-0.080432236
39	0x3c211b80	0.009833217
40	0xbee654b3	-0.44986495
41	0x3e9c4018	0.3051765
42	0xbeef8471	-0.46780732
43	0xbe6c15d2	-0.23055199
44	0x3f42b612	0.7605907
45	0xbdee4e0b	-0.11635979
46	0x3ea73d88	0.32664132
47	0xbcb69503	-0.022287851
48	0xbc915419	-0.017740296
49	0x3e8d8090	0.27637148
50	0xbe27a0f2	-0.1636999
51	0x3df615fb	0.12015911
52	0x3edbe158	0.4294536
53	0x3e986276	0.2976262
54	0xbf04c37a	-0.51860774
55	0x3ef60b03	0.48055276
56	0x3ccd8fc0	0.02509296
57	0x3ee73ca8	0.45163465
58	0xbf03f9ff	-0.5155334
59	0x3a92169f	0.0011145658
60	0xbf03c928	-0.51478815
61	0xbf27b2d1	-0.6550723
62	0x3e407f66	0.18798599
63	0x3e831638	0.2560289
64	0x3ef4f8f4	0.47846186
65	0xbe8a1453	-0.2696863
66	0x3e18605a	0.14880505
67	0x3ea2ccb0	0.3179679
68	0x3f395db4	0.72408605
69	0x3e0b2dcf	0.13591693
70	0xbeecbfc1	-0.46240047
71	0x3e7da579	0.24770154
72	0xbf204bff	-0.6261596
73	0x3d2dcded	0.042432714
74	0xbeb951fc	-0.36195362
75	0xbe963dce	-0.29344028
76	0xbe2e7796	-0.17037806
77	0x3f211661	0.6292477
78	0x3f343819	0.703981
79	0xbea41fee	-0.3205561
80	0xbdc74973	-0.09730806
81	0x3ebfae3b	0.37437615
82	0xbe36afd0	-0.17840505
83	0x3f5c9511	0.8616496
84	0x3e53692d	0.2064559
85	0xbf179fa5	-0.59227973
86	0x3f114c8c	0.56757426
87	0xbd0d854e	-0.034550957
88	0xbd86770e	-0.06565677
89	0xbe861382	-0.26186758
90	0x3f2dd0d0	0.6789675
91	0x3f29739e	0.6619204
92	0x3d814578	0.06312078
93	0x3f05d757	0.5228171
94	0x3ec5d42c	0.38638437
95	0xbe65cee8	-0.2244221
96	0xbed53ef2	-0.41649586
97	0xbeffac9a	-0.49936372
98	0x3ea946d8	0.33061862
99	0xbed64edb	-0.41857037
100	0xbf5ffe2b	-0.87497205
101	0x3f109589	0.5647817
102	0xbe1d1e91	-0.15343691
103	0xbe77f038	-0.2421273
104	0xbed49c16	-0.41525334
105	0xbe6da22f	-0.232064
106	0xbe77b294	-0.24189216
107	0x3e9d518c	0.30726278
108	0x3ea16890	0.31525087
109	0x3e9cc6eb	0.30620512
110	0xbe6b16a2	-0.22957852
111	0x3c958eb7	0.018256528
112	0xbd9af72c	-0.075666755
113	0xbd0e5995	-0.0347534
114	0xbec390ec	-0.38196504
115	0xbe30f308	-0.17280209
116	0x3f029a49	0.5101667
117	0xbecb60a5	-0.3972217
118	0xbea831f2	-0.32850605
119	0x3dd10e59	0.10207815
120	0x3f5d8c59	0.8654228
121	0x3e233465	0.15937956
122	0x3d1a19a6	0.037622117
123	0x3f206de7	0.626677
124	0xbf73be57	-0.9521231
125	0xbcac0ec5	-0.021003136
126	0xbe83865d	-0.2568845
127	0xbc186f94	-0.009303946
128	0xbdd778ef	-0.10521113
129	0xbe707bc8	-0.23484719
130	0xbe6e50ee	-0.2327306
131	0xbc7dbee9	-0.015487411
132	0x3f2602bc	0.6484792
133	0x3d967366	0.07346229
134	0x3e85a5a8	0.26102948
135	0xbf3d1c97	-0.7387175
136	0x3bf43a35	0.007453228
137	0x3cfdee98	0.03099756
138	0xbf2f7e58	-0.6855216
139	0x3e77ae71	0.24187638
140	0x3f1676c2	0.5877496
141	0xbe5e2336	-0.2169312
142	0x3e86b893	0.26312694
143	0xbf3e59e9	-0.7435594
144	0xbf02ff80	-0.5117111
145	0xbef179b4	-0.47163165
146	0xbe095c11	-0.13414027
147	0x3dbb3f15	0.09142891
148	0xbe523ba1	-0.20530559
149	0x3e96ef8d	0.29479638
150	0x3f01516b	0.5051486
151	0x3ebef99c	0.37299812
152	0x3eb749dc	0.35798538
153	0x3e58d133	0.21173553
154	0x3f1f8109	0.6230627
155	0x3d3eeb03	0.046610843
156	0x3e4382b1	0.19092824
157	0xbf426885	-0.75940734
158	0x3d119073	0.035538148
159	0x3e9d36b6	0.30705804
160	0xbf32979b	-0.6976258
161	0xbe8a270e	-0.2698292
162	0xbe70121a	-0.23444405
163	0x3dd17107	0.102266364
164	0x3e23f187	0.16010104
165	0x3e03c1da	0.12866917
166	0xbec8674c	-0.3914131
167	0xbf0cc830	-0.5499296
168	0xbec78b43	-0.38973436
169	0x3e19fe45	0.15038402
170	0x3f02e4a4	0.5113013
171	0x3df481be	0.11938809
172	0x3eb46760	0.3523512
173	0x3f10c71b	0.5655381
174	0x3e308a56	0.17240271
175	0xbedde573	-0.43339118
176	0xbebca531	-0.3684478
177	0x3de8dbe8	0.11370069
178	0xbea7b7f6	-0.3275754
179	0xbddb6637	-0.10712855
180	0xbe109f4e	-0.1412327
181	0xbdeb6feb	-0.11495956
182	0xbf4748a5	-0.7784522
183	0xbcb58874	-0.022159792
184	0x3ea3b432	0.31973416
185	0x3dfda4c8	0.12384945
186	0xbd9ee461	-0.077584036
187	0x3dab3aa6	0.08360796
188	0xbf066d59	-0.525106
189	0x3e27caaf	0.16385911
190	0xbee7e202	-0.45289618
191	0x3e45d224	0.19318444
192	0xbd14693f	-0.036233183
193	0x3e36851f	0.17824219
194	0xbc906972	-0.017628405
195	0x3e0a3396	0.13496241
196	0xbf1d40e8	-0.61427164
197	0x3e1a47c7	0.15066443
198	0x3a379e18	0.0007004454
199	0x3c1dd2f3	0.009632814
200	0xbe2054c8	-0.15657341
201	0x3e48083c	0.19534391
202	0xbf4451b8	-0.7668719
203	0x3e26024d	0.16211815
204	0xbec12ce2	-0.37729555
205	0x3e90b94f	0.2826638
206	0xbe722669	-0.23647465
207	0xbe512121	-0.20422794
208	0xbec0ea7e	-0.37678903
209	0x3e1fa9af	0.15592073
210	0x3e2a130d	0.1660883
211	0x3cfae33b	0.03062593
212	0x3e784a68	0.24247134
213	0x3e8309ff	0.25593564
214	0x3f3007ca	0.68761885
215	0x3e8324c0	0.25613976
216	0x3bd09016	0.0063648326
217	0xbedc0a5e	-0.4297666
218	0xbe3eb72e	-0.18624565
219	0xbdbf601a	-0.09344502
220	0x3e1434b1	0.14473225
221	0xbe08fb18	-0.13377035
222	0xbe85ac89	-0.26108196
223	0xbe389619	-0.18026008
224	0x3e659163	0.22418742
225	0x3d1f564c	0.03890066
226	0x3e336787	0.17519961
227	0x3ec3d634	0.38249362
228	0xbd684965	-0.05671062
229	0xbe93f65f	-0.28898904
230	0x3f2c59a0	0.67324257
231	0xbf837fee	-1.0273416
232	0x3e893b4a	0.26803046
233	0xbf060a4c	-0.5235946
234	0xbeb55a28	-0.35420346
235	0x3db232f6	0.08701126
236	0xbf262cc5	-0.6491206
237	0x3e5b51c9	0.21417917
238	0x3e8ea80f	0.27862594
239	0xbef1ea2f	-0.4724898
240	0xbde3fea4	-0.11132553
241	0xbe027a8d	-0.12742062
242	0x3f0db652	0.55356324
243	0xbe07b483	-0.13252454
244	0x3f1e3df3	0.61813277
245	0x3b651591	0.0034955482
246	0x3d2bce47	0.04194477
247	0x3e65899c	0.22415775
248	0xbf20c89f	-0.62806123
249	0xbe8ceae6	-0.27522963
250	0xbd2c62af	-0.0420863
251	0x3d497e95	0.049192984
252	0x3ef9d1ec	0.4879297
253	0xbf13286c	-0.57483554
254	0x3cd554a6	0.02604134
255	0xbf59a4f2	-0.8501731

predictor/l3/W f4 [2, 100]
0	0xbe4ca01f	-0.19982956
1	0x3e1cc349	0.1530887
2	0x3ec39da9	0.38206223
3	0xbdba5180	-0.09097576
4	0x3ca16207	0.019700063
5	0x3d002b79	0.03129146
6	0xbe6d2c96	-0.2316154
7	0xbe7c3ca3	-0.24632506
8	0xbe9a1b7c	-0.30099094
9	0xbd3336f9	-0.043753598
10	0x3debd9f5	0.115161814
11	0x3d25ef6e	0.04051154
12	0xbda5006a	-0.080567196
13	0xbde93a50	-0.11388075
14	0xbe55c7e0	-0.20877028
15	0xbe2047d1	-0.15652396
16	0xbe01872d	-0.12649222
17	0xbda03e49	-0.0782438
18	0xbea0a6fd	-0.31377402
19	0x3e106f92	0.1410506
20	0x3d9fab86	0.077963874
21	0xbd55efc7	-0.052230623
22	0x3d829fb4	0.06378117
23	0x3d424206	0.047426246
24	0xbcbfba05	-0.02340413
25	0x3eb414ae	0.35172027
26	0xbd7f23f9	-0.062290166
27	0x3e0bf73a	0.13668528
28	0x3d84709a	0.064667895
29	0x3e869560	0.2628584
30	0x3ec32c4d	0.38119736
31	0x3e5be503	0.2147408
32	0x3c177ddc	0.009246316
33	0xbd0cf4ef	-0.034413274
34	0x3e343b91	0.17600848
35	0x3e075cbb	0.13218968
36	0xbdf7d5cb	-0.12101325
37	0xbdb43cd7	-0.08800667
38	0xbe94d2ed	-0.29067174
39	0xbe8184a7	-0.25296518
40	0x3ca52b94	0.020162381
41	0x3e0a8ebf	0.13531016
42	0xbe32aa7a	-0.17447844
43	0x3e0c9b76	0.13731179
44	0x3e6cf5ba	0.23140612
45	0x3d8b1fab	0.067931496
46	0x3e8243c6	0.25442332
47	0x3e3561be	0.17713067
48	0xbda69301	-0.081335075
49	0x3e391aad	0.18076582
50	0x3e45429e	0.19263694
51	0xbec86adf	-0.39144036
52	0xbeb2706f	-0.34851405
53	0xbe8c43d2	-0.27395493
54	0xbe49fb06	-0.19724664
55	0x3d5595b1	0.05214471
56	0xbe187f7b	-0.1489238
57	0x3de2e92f	0.110796325
58	0x3e1b7ff5	0.1518553
59	0xbd0eb62c	-0.0348417
60	0xbdabbabe	-0.083852276
61	0x3e944983	0.28962335
62	0x3e9b3172	0.3031116
63	0x3e10a7c3	0.14126496
64	0x3da9f8a8	0.082993805
65	0x3e721cb8	0.23643768
66	0xbe0b1a17	-0.13584171
67	0x3da8281e	0.08210777
68	0xbda3ac68	-0.07991868
69	0x3d833f8a	0.064086035
70	0x3eac165d	0.33610812
71	0xbdb19a76	-0.08672039
72	0x3d68eaf8	0.05686471
73	0xbdc6f50a	-0.09714706
74	0x3e674ae6	0.22587165
75	0xbd9e75f6	-0.07737343
76	0x3e033c4f	0.12815975
77	0xbdb73e64	-0.08947447
78	0xbe8c206a	-0.2736848
79	0x3e047b25	0.12937601
80	0x3d43cbf6	0.047801934
81	0xbdc1161f	-0.094280474
82	0xbe410c34	-0.18852311
83	0x3dc3c087	0.09558206
84	0xbd9718b1	-0.073777564
85	0xbe24c17e	-0.16089436
86	0xbdf65380	-0.12027645
87	0xbd614ebf	-0.05500674
88	0xbda3121e	-0.0796244
89	0x3dddd375	0.10831348
90	0x3e29e92e	0.16592857
91	0xbbd0d23d	-0.0063727186
92	0xbcfe560f	-0.031046895
93	0xbd162167	-0.03665295
94	0xbebf8f7f	-0.37414166
95	0xbd74b670	-0.0597443
96	0xbe4079c0	-0.18796444
97	0x3ebe36ab	0.37151083
98	0xbd8bd6a7	-0.06828051
99	0x3e254894	0.16140968
100	0xbd53ba44	-0.05169131
101	0x3e24c588	0.16090977
102	0xbe800aef	-0.25008342
103	0x3e4858b1	0.19565083
104	0x3d293eb9	0.041319583
105	0x3e26b873	0.162813
106	0x3e82f202	0.25575262
107	0x3d882b88	0.06648928
108	0x3d02fdb4	0.03198023
109	0x39e27f02	0.00043200707
110	0xbd8a5b3b	-0.06755682
111	0xbe37556b	-0.17903678
112	0xbe806492	-0.2507673
113	0xbca2ac6b	-0.019857606
114	0x3d8141d6	0.06311385
115	0xbd0f2b37	-0.034953322
116	0x3e440885	0.19143875
117	0x3e0d96c6	0.13827047
118	0x3e67d7a1	0.2264085
119	0xbe78acb9	-0.24284638
120	0xbe4bac68	-0.19889987
121	0x3e304aeb	0.17216079
122	0x3dab5952	0.08366646
123	0xbba035f3	-0.0048892437
124	0xbdd777a4	-0.105208665
125	0xbe155895	-0.14584573
126	0x3de3f691	0.11131013
127	0x3e277176	0.16351876
128	0x3d1da002	0.038482673
129	0xbe7e5779	-0.24838056
130	0xbedf8f33	-0.4366394
131	0xbe35bde0	-0.17748213
132	0x3d88fd05	0.06688885
133	0x3e42db89	0.19029059
134	0xbe917c9a	-0.28415376
135	0xbc7c91e6	-0.015415644
136	0x3dc9305a	0.098236755
137	0xbcbd7d43	-0.023131019
138	0x3e926d91	0.28599218
139	0x3ebfd596	0.3746764
140	0xbbed6396	-0.0072445376
141	0x3d69b1ef	0.057054456
142	0xbcf38444	-0.029726155
143	0xbe4a4f1c	-0.1975674
144	0xbd9922d3	-0.07477345
145	0x3dae805a	0.08520575
146	0xbe28cce7	-0.16484414
147	0x3e64638f	0.22303604
148	0xbd0c1aaa	-0.034205116
149	0xbebce0ad	-0.36890164
150	0xbd99c12b	-0.07507547
151	0x3e925775	0.2858235
152	0x3ec9e453	0.3943201
153	0x3e5842bd	0.21119209
154	0xbd69fac1	-0.057123903
155	0xbd7ee437	-0.06222936
156	0x3dfe51f8	0.12417978
157	0xbe212482	-0.15736583
158	0xbe5e0c2f	-0.21684335
159	0x3d035867	0.03206673
160	0x3e9bdac7	0.3044035
161	0xbdb98c0f	-0.09059917
162	0xbe228602	-0.15871432
163	0xbe64b825	-0.2233587
164	0x3da661d9	0.08124132
165	0xbd8f0a59	-0.069843955
166	0xbd1f0bd8	-0.038829654
167	0xbdd17140	-0.10226679
168	0x3e0abd36	0.1354874
169	0xbda70d8c	-0.08156881
170	0xbd978876	-0.07399075
171	0x3e84596b	0.2584947
172	0xbd2cae30	-0.042158306
173	0x3dc59b09	0.09648711
174	0xbea82085	-0.3283731
175	0x3e0cbc0b	0.13743608
176	0xbe561fec	-0.20910615
177	0x3e159009	0.14605726
178	0x3e86d311	0.26332906
179	0xbd6dfb02	-0.058100708
180	0xbe193263	-0.14960627
181	0x3ca024fb	0.019548884
182	0x3e1c4f38	0.15264595
183	0xbdd0625b	-0.1017501
184	0x3b92b733	0.0044774055
185	0x3d3391b5	0.04384013
186	0x3e1751fc	0.14777368
187	0x3d37a8b3	0.04483862
188	0x3e19281a	0.14956704
189	0x3ce632c9	0.028100388
190	0xbce3ad3e	-0.02779257
191	0xbe3be038	-0.18347251
192	0xbd63304e	-0.05546599
193	0xbde720c6	-0.11285548
194	0x3e44fb42	0.19236472
195	0xbbf679ab	-0.007521828
196	0x3dcc9b6f	0.09990584
197	0xbe7a846e	-0.2446458
198	0x3bf5f25d	0.0075056986
199	0xbe89d365	-0.26919094

predictor/bn1/avg_mean f4 [1000]
0	0x40163caa	2.3474526
1	0x40200918	2.500555
2	0xc18c3271	-17.52463
3	0x3fd199ce	1.6375062
4	0xc01aaada	-2.416678
5	0x3f9a777f	1.2067717
6	0xc0b3c7cf	-5.6181407
7	0x420bb083	34.922375
8	0xc096af31	-4.7088857
9	0xc20ad3e7	-34.706936
10	0xc13db8a7	-11.857581
11	0x3f165bca	0.5873381
12	0x4067e18b	3.623141
13	0xc15c2834	-13.759815
14	0x40624b9a	3.5358644
15	0xc0d775e2	-6.73314
16	0xc03714a9	-2.860636
17	0xc10ec2ef	-8.922591
18	0xc1ccb3cb	-25.58779
19	0x41616132	14.086229
20	0x4083674d	4.10636
21	0x40f959c9	7.79221
22	0xbf743412	-0.95391953
23	0xc0963f4c	-4.6952267
24	0xc1ba97d8	-23.324142
25	0x4077a904	3.869691
26	0x416d45df	14.829558
27	0xc0c215d7	-6.065166
28	0xc100e0aa	-8.05485
29	0xc1a5cee3	-20.726019
30	0xc031795a	-2.7730317
31	0x40e6d43e	7.2134085
32	0xc1267b8e	-10.405165
33	0x4078690f	3.8814123
34	0xc036c2fe	-2.8556514
35	0x411f00ac	9.937664
36	0x3f15f0f8	0.58570814
37	0x40bdca05	5.9309106
38	0xbd855c5a	-0.06511755
39	0xc046e224	-3.1075525
40	0x3ff7eea5	1.9369704
41	0x4164fe4a	14.312082
42	0x41fb0841	31.37903
43	0x3f9a404f	1.2050875
44	0xc14246a9	-12.142251
45	0x41717922	15.092073
46	0x41194433	9.57915
47	0x40edde9d	7.4334245
48	0x412ea2e2	10.914766
49	0xc056858c	-3.351901
50	0xc03219c8	-2.7828236
51	0x41aa3aec	21.27877
52	0xc1203984	-10.014042
53	0x3fc901fd	1.5703732
54	0x3f6fe809	0.9371343
55	0xbfaa9565	-1.3326842
56	0xc1cf3c6c	-25.904503
57	0x418a346c	17.275597
58	0x400dae8a	2.213778
59	0x41a1afe0	20.210876
60	0x4078404f	3.878925
61	0xc0517f67	-3.273401
62	0x41076515	8.462178
63	0xc11ab20e	-9.66847
64	0x40f0e1f4	7.527582
65	0xc187ed61	-16.990908
66	0x3f14e65b	0.58163995
67	0x405ef002	3.483399
68	0x410ed028	8.925819
69	0x41cd7e3f	25.686644
70	0xc15baa90	-13.729141
71	0xbfd4d22a	-1.6626637
72	0x4068bdc8	3.6365833
73	0x4039e6bc	2.904708
74	0x40208b32	2.5084958
75	0xc0a6ac36	-5.208522
76	0xc13fa0d6	-11.976767
77	0xbfe8d4f9	-1.8189994
78	0x4126c513	10.423114
79	0xc0bea980	-5.958191
80	0x414e4042	12.890688
81	0x400407ef	2.0629842
82	0x411eda3a	9.928278
83	0x4111f5ca	9.122507
84	0xc121a99e	-10.10391
85	0xc1add89f	-21.730772
86	0x40e8d12d	7.275534
87	0x4123bab5	10.233083
88	0x41d1d12f	26.22714
89	0xc145afcc	-12.355419
90	0xc0e9dcc8	-7.308201
91	0xc125e93e	-10.369444
92	0x40484988	3.129488
93	0xc0bbc5dd	-5.867903
94	0xc156bf0a	-13.42164
95	0x4152341d	13.137723
96	0x40dcc312	6.8988123
97	0x414b7882	12.716921
98	0x3ed963db	0.42458996
99	0xc19fe276	-19.985577
100	0xc07ad492	-3.9192243
101	0x4046c19f	3.1055677
102	0xc1a7cef6	-20.976055
103	0x414306b6	12.189138
104	0xbfeb887f	-1.840103
105	0xc11e2040	-9.882874
106	0x4105f470	8.372177
107	0xbfac512c	-1.3462272
108	0xbfcdff66	-1.6093566
109	0x415502bc	13.313168
110	0x417f34e5	15.950414
111	0xc10f0e4c	-8.94099
112	0xbf24f22f	-0.6443204
113	0x40d3de25	6.6208673
114	0x40d1d7b9	6.5575833
115	0xc184394f	-16.527983
116	0x414a30f9	12.636956
117	0x3f48abae	0.7838696
118	0x41553008	13.324226
119	0xc0e97b3a	-7.2962923
120	0x412c3e68	10.765236
121	0xbf0e7f3c	-0.55662894
122	0xc09de3d2	-4.93406
123	0x41c6e2f6	24.86082
124	0xc0c53d1e	-6.1637106
125	0x41b17512	22.182163
126	0xc1047e99	-8.280908
127	0x415e08ca	13.877146
128	0x412a4c07	10.643561
129	0x4084468b	4.133611
130	0x4086a890	4.2080765
131	0xc169783b	-14.591853
132	0xc0f39539	-7.6119657
133	0x41679c41	14.475648
134	0xc0cb9bbf	-6.362762
135	0xc06d2a94	-3.7057238
136	0xc05deb11	-3.4674723
137	0xc0d84786	-6.758731
138	0x40be84c1	5.9537053
139	0xc16da2e6	-14.85227
140	0x3d333b12	0.043757506
141	0x41230e74	10.191029
142	0x40756af7	3.8346536
143	0xc18c7980	-17.559326
144	0xbdb3a65c	-0.08771965
145	0xc165c579	-14.360711
146	0x406f809f	3.7422254
147	0xc0d50869	-6.6572766
148	0x410a59d0	8.646927
149	0xc0339c73	-2.806424
150	0xc0d78262	-6.734666
151	0xc1cae91f	-25.363829
152	0x40698776	3.6488929
153	0x41800c48	16.005997
154	0xc0b6f6e4	-5.717638
155	0x40a7333e	5.225005
156	0x406364ed	3.553035
157	0xc0d2ab91	-6.583443
158	0xc12a050f	-10.626235
159	0xc066ee3a	-3.6082902
160	0x3ef9c90e	0.48786205
161	0xc12334e8	-10.200417
162	0x420004a1	32.00452
163	0x40316f58	2.772421
164	0xc177301d	-15.449246
165	0xc09f5b05	-4.979861
166	0xc1478663	-12.470309
167	0xc1c25e90	-24.296173
168	0x3fd5380c	1.6657729
169	0xc193c4e1	-18.471132
170	0x401c00fe	2.4375606
171	0x40f117ec	7.53417
172	0xc0712808	-3.7680683
173	0xc18543cb	-16.658102
174	0x4074dfc8	3.8261585
175	0xbe38c9fd	-0.18045802
176	0xc033d6a1	-2.809975
177	0xc0fde093	-7.933664
178	0xc1374ea7	-11.456702
179	0x419fb0fe	19.961422
180	0x40832f6f	4.09954
181	0xbf55d907	-0.8353428
182	0xbeeb505a	-0.4595974
183	0xc0b40b65	-5.626391
184	0xc083c53b	-4.117826
185	0x4122b3ab	10.168864
186	0x408c21ef	4.3791423
187	0x41c89623	25.073309
188	0x41abae7c	21.460197
189	0xc13d2097	-11.8204565
190	0xc11ae718	-9.681419
191	0x412664ce	10.3996105
192	0x40f1150f	7.5338206
193	0xc0d2e8f6	-6.5909376
194	0xc0e98076	-7.2969313
195	0x41843280	16.524658
196	0xc21ba1ae	-38.90789
197	0xc1be31ee	-23.77438
198	0xc0c6e084	-6.2149067
199	0xc1597221	-13.5903635
200	0xc179a17a	-15.601923
201	0x41b361b5	22.422709
202	0x418d494d	17.660791
203	0x41006e85	8.026982
204	0xc13c4070	-11.765732
205	0x418ff138	17.992783
206	0x3f2edb49	0.6830335
207	0x411b99d1	9.725053
208	0xc1d30e81	-26.382082
209	0xc05eefda	-3.4833894
210	0xc17a8d98	-15.659569
211	0x410e7246	8.902899
212	0xc137e445	-11.49323
213	0xc0c602ce	-6.1878424
214	0xbe8f866d	-0.28032246
215	0xc208a142	-34.15748
216	0x40fa5b8c	7.823675
217	0xc0984057	-4.757854
218	0x40b23243	5.5686355
219	0xc0fe25a6	-7.9420958
220	0xc15c0633	-13.7515135
221	0x421e1107	39.51663
222	0xc08796bc	-4.23715
223	0xc069c77f	-3.6528013
224	0x417986a0	15.595367
225	0x40a830c3	5.2559524
226	0x4153475e	13.204924
227	0xbfe6b4a4	-1.8023877
228	0x402e432a	2.7228494
229	0x40e35afc	7.1048565
230	0xbed7e431	-0.42166284
231	0x3ef6bb1d	0.4818963
232	0xc02d6881	-2.7095034
233	0x419d63c8	19.673721
234	0xbfd2393f	-1.642372
235	0xc188be64	-17.092964
236	0x41724e8f	15.144179
237	0x4066d703	3.6068733
238	0xc0a2c14c	-5.086096
239	0x4008dab4	2.1383486
240	0x402fc2be	2.7462611
241	0x41a72d64	20.897163
242	0x3ea9874b	0.33111033
243	0x408f9bb5	4.487757
244	0xc1a38ce2	-20.44379
245	0xc029e9e3	-2.6549003
246	0x41a0c42e	20.09579
247	0x3e4d6561	0.20058204
248	0xc13e17eb	-11.880839
249	0x400668c2	2.100144
250	0x3efab35d	0.48964968
251	0xbffc6b21	-1.9720193
252	0x410fc6ed	8.986066
253	0x41a92e13	21.147497
254	0x404614e5	3.0950253
255	0x40d1df25	6.5584893
