model/model_5.npz (npz, 89861 bytes, 20 tensors)

predictor/bn3/avg_var f4 [100]
000000 6f 51 aa 3f 46 ba 8f 3f fe c3 2c 3f d6 79 87 3f
       1.3306102 1.1228721 0.6748656 1.0584056
000010 31 47 98 3f 12 1b 5a 3f 08 44 1f 3f 8c 9f 95 3f
       1.1896726 0.85197556 0.6221318 1.1689315
000020 b9 af 83 3f 90 13 a4 3f 62 32 8e 3f e2 c4 a9 3f
       1.0288001 1.281847 1.1109126 1.3263209
000030 5f 8d 86 3f d0 7f 22 3f cd fc 98 3f 7b 79 53 3f
       1.0511893 0.63476276 1.1952149 0.8260724
000040 40 90 43 3f e7 07 9b 3f 37 fc 48 3f c5 74 a6 3f
       0.76391983 1.2111787 0.7850985 1.3004385
000050 66 81 1d 3f 95 e4 90 3f 16 24 a3 3f 29 78 91 3f
       0.6152557 1.1319758 1.2745388 1.1364795
000060 67 f5 80 3f 8d 91 78 3f be 23 54 3f a8 80 b0 3f
       1.0074891 0.9709709 0.8286704 1.3789263
000070 64 34 7a 3f b0 ff 44 3f d8 60 91 3f e2 ea 8e 3f
       0.9773619 0.7695265 1.1357679 1.116543
000080 47 3a 3a 3f fe 54 9c 3f 7b 3f a1 3f 07 0a 87 3f
       0.72745174 1.2213438 1.2597498 1.0549935
000090 89 5b 6c 3f 27 fd 99 3f 93 90 94 3f ee 01 8d 3f
       0.9232717 1.2030381 1.160662 1.1016214
0000a0 eb 3d a8 3f 55 bc 89 3f 45 74 9f 3f 14 0c c4 3f
       1.3143896 1.0760599 1.2457358 1.5316186
0000b0 5c 13 26 3f 61 29 9e 3f bf 23 a5 3f d1 a7 18 3f
       0.6487329 1.2356378 1.2901534 0.5963107
0000c0 59 ae 9b 3f 3d a8 a4 3f b6 17 62 3f f9 ab 90 3f
       1.2162582 1.2863842 0.8831743 1.1302482
0000d0 3c c3 88 3f f3 3e 84 3f 10 31 8f 3f ba 5c 44 3f
       1.0684581 1.033171 1.1186848 0.7670399
0000e0 ae cb 9e 3f 3e 6c c5 3f 60 b1 ad 3f be b3 42 3f
       1.2405908 1.5423658 1.3569756 0.76055515
0000f0 df ac 42 3f a4 a8 98 3f d7 b2 9c 3f 95 c1 93 3f
       0.7604503 1.1926465 1.2242078 1.1543452
000100 2d 2a 3f 3f 13 d4 80 3f dc dc 1b 3f 9b c5 21 3f
       0.7467373 1.006472 0.6088388 0.63192147
000110 28 18 9b 3f 46 12 cc 3e 9f 3f 81 3f c9 4b ba 3f
       1.2116747 0.39857692 1.0097541 1.4554378
000120 34 06 5c 3f 46 fc a8 3f 9b 40 5c 3f e3 16 9c 3f
       0.85946965 1.3201988 0.8603608 1.2194484
000130 91 08 8c 3f d2 ea 88 3f 6d a4 95 3f 4a 68 b0 3f
       1.0940114 1.0696661 1.1690804 1.3781826
000140 43 68 99 3f 85 17 81 3f ba 93 5c 3f 57 3d 71 3f
       1.1984943 1.0085303 0.8616291 0.9423422
000150 ca eb 64 3f 4f 24 56 3f ff 5a 83 3f a6 6f 95 3f
       0.89422286 0.8364915 1.0262145 1.1674697
000160 a2 11 91 3f d6 59 68 3f 40 3c 68 3f d1 e9 a6 3f
       1.1333506 0.9076208 0.90716934 1.3040105
000170 55 84 2c 3f 21 8d 8e 3f 9d 16 87 3f 19 bc 87 3f
       0.6738942 1.1136819 1.0553776 1.0604278
000180 d4 35 34 3f 1c 67 82 3f d1 56 26 3f b1 33 78 3f
       0.70394635 1.0187716 0.6497622 0.96953875

predictor/bn1/gamma f4 [100]
000000 56 f8 72 3f be 64 59 3f 18 a5 85 3f 5e 70 83 3f
       0.9491018 0.84919345 1.0441008 1.0268667
000010 e8 dd 05 3f 57 f1 6c 3f 5c 7a 58 3f 93 a7 7c 3f
       0.5229173 0.92555755 0.84561706 0.986932
000020 58 55 19 3f 62 81 88 3e c3 7f 4e 3f 49 1c 6b 3f
       0.5989585 0.2666121 0.806637 0.91840035
000030 0b 3e 76 3f 65 80 6b 3f 1b 4d 15 3f 4c cf 44 3f
       0.9618842 0.9199279 0.5832078 0.7687881
000040 74 e3 a3 3e 31 fb 4b 3f 5d fc 6b 3f a0 cc 8f 3e
       0.3200947 0.7968016 0.9218195 0.28085804
000050 a8 ae 59 3f 81 b4 82 3f 6e 14 84 3f 2c 77 28 3f
       0.8503213 1.0211335 1.0318735 0.6580684
000060 13 b4 75 3f fa 09 5e 3f 2f 03 47 3f 1f 4b 5f 3f
       0.95977896 0.86733973 0.7773923 0.87224
000070 6c 60 32 3f 7d 58 67 3f 07 75 6a 3f db c6 86 3f
       0.6967838 0.903694 0.9158482 1.0529436
000080 70 90 6d 3f 7c 1c 39 3f 23 bd 45 3f e3 42 91 3f
       0.9279852 0.7230909 0.77241725 1.1348537
000090 ee 84 89 3f b1 6b 2c 3f 56 b5 81 3f 19 bd 13 3f
       1.0743692 0.67351824 1.0133464 0.57710415
0000a0 92 bb 65 3f fc 2b a3 3e eb 6d 93 3e bc 73 9f 3f
       0.89739335 0.31869495 0.28794798 1.2457194
0000b0 75 5b 51 3f e6 54 5e 3f 6a fb 66 3f 62 30 7a 3f
       0.8178018 0.86848295 0.9022738 0.97730076
0000c0 6d a7 52 3f 14 8d 88 3f 69 fc 95 3f 01 40 34 3f
       0.8228672 1.0668054 1.1717654 0.7041016
0000d0 af d2 b7 3e ff 10 54 3f 6d d2 2a 3f 35 a7 25 3f
       0.35902926 0.82838434 0.66727334 0.6470826
0000e0 10 26 6d 3f bc 20 12 3f db 92 5a 3f d5 8b dd 3e
       0.92636204 0.570812 0.85380334 0.43270746
0000f0 3b 6d 8c 3f 50 90 d4 3e 10 ef 6f 3f 84 da 85 3f
       1.0970834 0.41516352 0.93724155 1.0457311
000100 94 16 88 3f 0d ab 50 3f 45 65 80 3f 77 5d 25 3f
       1.063189 0.81511 1.0030905 0.6459574
000110 93 67 80 3f d6 d5 27 3f a1 0e 31 3f 1d fc b1 3e
       1.0031608 0.6556066 0.69162947 0.3476266
000120 6f 0d 92 3e 4a cd 85 3f ee fd 74 3f 6e 03 96 3f
       0.28525874 1.0453274 0.95699966 1.1719797
000130 46 41 89 3f 39 8a 5a 3f cd e4 28 3f ae b5 70 3f
       1.0723045 0.8536716 0.6597412 0.9402722
000140 c6 61 1a 3f ca d8 75 3f ae 5b 51 3f 15 90 51 3f
       0.6030544 0.9603392 0.8178052 0.81860477
000150 13 a9 f9 3e 39 52 85 3f 0d 8f 3b 3f 5d 06 6f 3f
       0.48761806 1.0415717 0.73265153 0.93369085
000160 40 81 55 3e e5 1c 15 3f eb 81 29 3f f9 71 0a 3f
       0.20850086 0.58247215 0.66213864 0.5408016
000170 f2 9d 76 3f 95 e6 5f 3f bd 73 51 3f c8 2c a8 3e
       0.96334755 0.87461215 0.8181723 0.32846665
000180 b6 44 2e 3f 21 6c 1b 3f cb 47 25 3f d2 89 69 3f
       0.68073595 0.60711867 0.6456267 0.9122592

predictor/bn1/beta f4 [100]
000000 da d8 13 bf 59 a1 26 bf a3 33 2a bf a9 1e fe be
       -0.57752764 -0.65089947 -0.6648504 -0.49632767
000010 5c d6 95 be 7c 69 48 bf 3c 77 3b bf f6 52 bb be
       -0.29265106 -0.78285956 -0.7322881 -0.36586732
000020 bb e5 f0 be 2f 65 98 3c 48 49 f2 be 0c 94 0a bf
       -0.4705027 0.018602936 -0.47321534 -0.5413215
000030 dd 61 fb be b7 b0 9a be df 14 c8 be b0 11 21 bf
       -0.490981 -0.30212948 -0.39078423 -0.62917614
000040 ff 09 ae be f5 7e 0a bf d1 72 0a bf 9c 3e 9a be
       -0.33992 -0.5409997 -0.54081446 -0.30125892
000050 94 f6 fb be 23 dc ba be d6 90 f6 be 3f 25 30 bf
       -0.49211562 -0.36496076 -0.48157376 -0.68806833
000060 f5 aa 6f be cc 2f 6a be 56 2d 55 be 8b 57 e1 be
       -0.23405059 -0.22869796 -0.20818076 -0.44012102
000070 12 bc 26 be a8 a0 90 be 3e b5 be be 20 66 ad be
       -0.1628268 -0.2824757 -0.37247652 -0.33866978
000080 29 29 ef be 6c e7 14 bf d7 1f 88 bf 76 64 9e be
       -0.4671109 -0.5816562 -1.0634717 -0.3093602
000090 71 71 9d be f1 1c ab be 7e 67 b4 be 51 0f 13 bf
       -0.3075061 -0.33420518 -0.35235208 -0.57445246
0000a0 3f 0d 28 bf 9a 4a bc bd 48 87 44 bd d4 2e a8 be
       -0.6564521 -0.091939166 -0.047980577 -0.32848227
0000b0 32 ea ed be 4d b2 7f bf 74 00 a0 be cc e5 8e be
       -0.4646774 -0.9988144 -0.31250346 -0.27909696
0000c0 95 72 10 bf e4 9b b2 be 13 b4 df be 4d d0 4f bf
       -0.5642484 -0.3488456 -0.43692073 -0.81177217
0000d0 11 a3 df be 79 bb 2e be bd f5 30 bf 43 c9 00 bf
       -0.43679097 -0.17063703 -0.69124967 -0.503071
0000e0 24 96 d9 be db e5 7c be d2 16 5a bf d5 1c 54 be
       -0.4249736 -0.24697058 -0.8519107 -0.20714124
0000f0 3b 15 fd be cd 30 02 bf 13 ae 10 bf 24 c9 1f bf
       -0.4943026 -0.50855714 -0.56515616 -0.6241629
000100 e3 c5 c5 be 87 4b 91 be 4a 09 9b be a8 cf 27 bf
       -0.38627538 -0.28377935 -0.30280524 -0.65551233
000110 e4 d9 63 be 80 6e 5a bf 6f 76 24 bf eb 9c a3 be
       -0.22251087 -0.8532486 -0.64243215 -0.31955656
000120 92 95 b5 bb c9 cf 9a be b2 fd 01 bf a1 aa a6 be
       -0.005541512 -0.30236652 -0.50777733 -0.32552055
000130 90 7b 93 be 96 79 d6 be 2d 05 fb be a2 fe 19 bf
       -0.28805208 -0.41889638 -0.49027386 -0.60154164
000140 c2 4c 10 bf 5b ae 23 bf 8e 72 a9 be ad 1b df be
       -0.56367123 -0.6393792 -0.3309521 -0.43575802
000150 e2 ab 4b bf 5b 75 ff be 36 55 6a bf 02 1c dc be
       -0.7955915 -0.49894223 -0.9153627 -0.42990118
000160 c5 52 8d 3d bc 8b 23 bf b3 d8 08 bf e7 f3 ac be
       0.06900553 -0.6388509 -0.53455657 -0.33779833
000170 40 51 da be e3 95 05 bf f1 eb 91 be 99 71 9b be
       -0.42640114 -0.52181834 -0.28500322 -0.30360106
000180 f5 76 3e bf b2 8e 44 bc 49 c4 f6 bc 75 ad c0 be
       -0.74400264 -0.011996912 -0.030122893 -0.37632337

predictor/bn3/gamma f4 [100]
000000 15 4c 5b 3f 63 63 5f 3f b0 09 56 3f d4 f4 73 3f
       0.85662967 0.8726103 0.8360853 0.95295453
000010 77 20 58 3f 46 5c 51 3f 13 d6 51 3f 72 96 45 3f
       0.8442454 0.81781423 0.81967276 0.77182686
000020 a3 a5 5a 3f e6 af 54 3f da 1d 4d 3f 5d 80 5b 3f
       0.8540899 0.830809 0.80123675 0.8574274
000030 5d ac 63 3f 7f 07 5d 3f e5 81 59 3f 7b 8e 5c 3f
       0.8893488 0.86339563 0.8496383 0.8615491
000040 a7 c6 53 3f 64 1c 55 3f cb f5 59 3f 4e bc 5a 3f
       0.82724994 0.83246446 0.85140675 0.8544358
000050 4d 18 54 3f 0e 05 56 3f 97 fe 5a 3f b9 17 54 3f
       0.8284958 0.8360146 0.85544723 0.828487
000060 52 7a 4c 3f 1f 20 47 3f 7a bf 6b 3f a1 9d 5d 3f
       0.79874146 0.7778339 0.92089045 0.8656865
000070 28 e6 59 3f c9 ac 54 3f 5c 16 53 3f f3 e8 67 3f
       0.85116816 0.8307615 0.8245599 0.9058983
000080 a1 ff 61 3f 8f 7c 61 3f fd 6a 52 3f c9 bf 6c 3f
       0.88280684 0.88080686 0.821945 0.9248014
000090 b7 52 4e 3f a7 0d 5b 3f d8 3d 73 3f 92 b9 5d 3f
       0.8059496 0.85567707 0.9501624 0.8661128
0000a0 88 39 58 3f 71 54 53 3f a0 4c 57 3f ad fa 57 3f
       0.84462786 0.8255072 0.84101295 0.84366876
0000b0 44 27 53 3f 8b 99 65 3f 08 ad 61 3f 6b cc 4f 3f
       0.8248179 0.8968741 0.8815465 0.8117129
0000c0 7f 06 67 3f 48 8a 68 3f 96 c3 5f 3f 54 d4 5a 3f
       0.9024429 0.90836 0.87407815 0.85480237
0000d0 4f 4a 5a 3f 60 8c 50 3f ee 17 3f 3f 3a 44 57 3f
       0.85269636 0.81464195 0.7464589 0.8408848
0000e0 fe 07 69 3f 6d cd 4e 3f e6 2e 54 3f a6 1f 6c 3f
       0.9102782 0.80782205 0.8288406 0.9223579
0000f0 b9 fa 67 3f 2d 64 4e 3f c4 b6 55 3f d1 0e 6b 3f
       0.9061695 0.80621606 0.83482003 0.91819483
000100 9f 4a 53 3f 4c 42 63 3f 9e b7 60 3f 2d 6e 54 3f
       0.8253574 0.88773036 0.8778018 0.82980615
000110 99 82 5d 3f ef ff 18 3f e5 5b 57 3f 41 cd 51 3f
       0.865274 0.59765524 0.84124595 0.8195382
000120 86 cd 62 3f 1d fa 66 3f 1c bc 5c 3f ff 26 56 3f
       0.88594854 0.9022539 0.8622453 0.83653253
000130 d1 cc 5f 3f c4 89 56 3f bd d0 55 3f 20 dd 63 3f
       0.874219 0.83803964 0.83521634 0.89009285
000140 e7 18 59 3f c8 bd 65 3f a1 d5 57 3f 93 ff 4e 3f
       0.8480362 0.8974271 0.84310347 0.80858725
000150 be 41 64 3f 59 2f 65 3f 03 94 6c 3f 20 ad 4d 3f
       0.89162815 0.8952537 0.9241335 0.8034229
000160 00 69 52 3f 5e c1 59 3f 1b 8f 50 3f 61 4b 50 3f
       0.8219147 0.8506068 0.8146836 0.8136502
000170 88 7f 50 3f 35 28 55 3f 18 d6 5e 3f 35 c7 5b 3f
       0.814446 0.83264476 0.8704543 0.8585084
000180 67 ba 62 3f 71 90 61 3f b3 86 56 3f 8a 37 5f 3f
       0.8856568 0.88111025 0.83799285 0.8719412

predictor/bn2/avg_mean f4 [100]
000000 a7 f3 9c bf 4d 73 58 be 30 8a a7 bf 24 2d 8a bf
       -1.2261857 -0.21137734 -1.3089046 -1.0795026
000010 ec ca 44 bf 93 11 82 bf 8c 01 49 bf b2 4c 90 bf
       -0.76872134 -1.0161613 -0.78517985 -1.1273406
000020 5c b2 bd bf d1 85 14 3f 1d c7 a4 bf 2a a2 fc be
       -1.4820056 0.5801669 -1.2873265 -0.4934247
000030 b7 2b 8e bf 1e 6e a6 bf ed 18 a2 bf cc 6d 95 bf
       -1.1107091 -1.3002355 -1.2663857 -1.1674132
000040 de 13 85 bf 5a ee a7 bf 86 3a e5 be 19 d0 8f bf
       -1.0396688 -1.3119614 -0.44771212 -1.1235381
000050 4b 7b 89 bf 1c 51 9d bf fc 7e 86 bf 9a 70 b3 3e
       -1.0740751 -1.2290378 -1.0507503 0.35046846
000060 03 1d ae bf f6 24 9c bf bc c3 92 bf 0b 91 af bf
       -1.3602604 -1.219878 -1.1465983 -1.3716139
000070 5c 07 4a bf 6f d9 1b bf 71 3c 09 be e4 16 8a bf
       -0.7891748 -0.6087865 -0.13401963 -1.0788236
000080 5c 01 a0 bf 14 0b b3 bf 17 b3 4a bf 3c bc a2 bf
       -1.2500415 -1.3987756 -0.7917952 -1.2713695
000090 34 29 9d bf c9 02 88 bf 5e ef 41 3e 38 43 95 bf
       -1.2278199 -1.062585 0.18938968 -1.1661139
0000a0 35 08 a9 bf d6 eb a6 bf 6b 49 9c be a1 63 a7 bf
       -1.320563 -1.3040721 -0.30524763 -1.3077279
0000b0 ee 2e b1 3d a6 0f 8a bf 04 b0 41 bf d6 07 bb bf
       0.08651529 -1.0786026 -0.75659204 -1.4611766
0000c0 f7 19 4e 3f 87 3e 58 bf 80 b3 67 bf 5d 8e b2 bf
       0.8050837 -0.8447041 -0.9050827 -1.3949696
0000d0 2c ac 5e bf 4e 2d a8 bf 14 14 a1 bf a4 4e b3 bf
       -0.86981463 -1.3138826 -1.2584252 -1.4008374
0000e0 70 af 3c bf 81 dc f0 bd d1 88 7f bd b2 27 c6 be
       -0.73705196 -0.11760808 -0.062386338 -0.3870216
0000f0 7d 3a ae bf 07 38 96 3c e5 9d b9 bf 19 05 a9 bf
       -1.3611599 0.018337263 -1.450131 -1.3204681
000100 14 90 16 bf 91 5e 27 bf d9 bd 50 bf ac f1 8d bf
       -0.58813596 -0.6537867 -0.81539685 -1.1089377
000110 03 85 0d 3e 13 df a0 bf 8c 06 85 bf 4d a1 99 bf
       0.13820271 -1.2568077 -1.0392623 -1.200235
000120 db 35 a5 bf 21 59 29 bf e1 ac 91 bf 1d c2 7f bf
       -1.290706 -0.66151625 -1.1380883 -0.9990557
000130 cc da b9 bf 81 4e af bf 21 2b a4 bf c9 c7 9c bf
       -1.4519897 -1.3695832 -1.2825662 -1.224847
000140 b5 68 fd 3e 13 20 8a bf 0a b5 bd bf d2 94 a6 bf
       0.49493948 -1.0791038 -1.4820874 -1.3014166
000150 ba 67 7c bf c4 d6 85 bf 6b 0f 99 3d b0 80 99 bf
       -0.98595774 -1.0456166 0.07473644 -1.1992397
000160 3f e4 b4 bf 9f 68 24 bf fb b8 54 bf 83 6a a0 bf
       -1.4132155 -0.6422214 -0.8309476 -1.2532505
000170 91 db ab bf 08 67 7d bf bd e1 8e bf 59 ca 04 bf
       -1.3426381 -0.9898534 -1.116264 -0.5187126
000180 50 2e 61 bf f8 cd a8 bf 21 87 bf be 2d 7d 4d bf
       -0.8796129 -1.3187857 -0.37407783 -0.8026913

predictor/l4/W f4 [2, 100]
000000 da 20 fd 3d 51 38 cf 3d 02 d0 b1 3d b0 bd e3 bd
       0.123597816 0.101181634 0.086822525 -0.111201644
000010 b3 e9 b4 bd cc 2b 53 be c2 23 28 3e 1b 1c bc 3d
       -0.08833637 -0.20622176 0.1641989 0.09185048
000020 95 08 ef bd 5a 7c ac bc 07 46 3e 3d 21 03 46 be
       -0.11671559 -0.02105539 0.046453502 -0.19337131
000030 9b 98 60 bc e7 a8 62 3e f0 fb 8f 3d 83 e4 a1 bd
       -0.013708259 0.22134744 0.07030475 -0.07904913
000040 a6 9d 1f be c8 40 fe bb bb 35 b7 bc 2d 9b b0 3d
       -0.15587482 -0.0077591874 -0.022364488 0.086233474
000050 de 06 2d 3e 50 fc 1e 3d 48 b9 89 3d 86 9b 4a be
       0.16897151 0.038814843 0.06724793 -0.1978589
000060 8b 47 1f bc a4 81 1d bd db 5e 29 be c7 bd f9 bc
       -0.009721647 -0.038453713 -0.1654009 -0.030486
000070 70 15 21 be e4 f1 35 be 9b a8 87 bd 73 56 ef bd
       -0.15730834 -0.17768055 -0.06623956 -0.11686411
000080 5c b2 c7 3c d6 dd 21 3c 25 1f c7 bd cb a5 ab bd
       0.02437704 0.00987955 -0.09722737 -0.08381232
000090 94 ee e9 3c f6 98 a2 bd da 27 66 be 03 38 a3 bd
       0.028556146 -0.07939331 -0.2247614 -0.07969668
0000a0 86 f8 0f 3e a4 60 2a 3e b4 98 a4 bd 80 e8 a2 3d
       0.14059648 0.16638428 -0.08036938 0.07954502
0000b0 a2 85 6b 3e 3c eb 86 bd 0e b2 46 bd 6d 8e 36 3d
       0.23000196 -0.06587836 -0.04850965 0.04456942
0000c0 52 53 1d be 34 f9 90 3d 6c 45 0f be 55 16 c0 bd
       -0.15363815 0.07078782 -0.13991326 -0.093792595
0000d0 c3 32 14 3e 43 70 88 3d 03 77 46 3d f3 93 02 bd
       0.14472489 0.06662037 0.048453342 -0.031879377
0000e0 19 96 2f be b3 9f b5 bd 57 fc 02 bd 09 c2 5d 3d
       -0.17147101 -0.08868351 -0.03197893 0.054140124
0000f0 a1 5e 6e 3e a3 a9 58 3b aa dc d9 3d b4 ec fc bd
       0.23278286 0.0033060096 0.106377915 -0.12349835
000100 aa b5 2b bd d4 ae 40 3d 2b ac 0d 3e c9 93 ff 3d
       -0.041921295 0.04704173 0.13835208 0.1247936
000110 e7 9a 0e be c9 47 2b 3e 00 61 53 b7 63 e1 2f bc
       -0.13926278 0.16726603 -1.2599165e-05 -0.010734889
000120 bb 35 01 3d c4 a9 19 be 25 a1 4b bd 47 df 7a bd
       0.031545382 -0.15006167 -0.049714226 -0.06124809
000130 ec 7a 38 3d e0 be d5 3d 61 30 fa 3c 14 65 d6 3d
       0.045039102 0.10436797 0.030540647 0.10468498
000140 3b da 5d be ed 58 85 be 6a 8b 82 3d 39 13 89 3c
       -0.2166528 -0.26044407 0.06374247 0.016732799
000150 f0 5d 2f bd ef 9c 70 3d f4 2f 67 be 82 5c 95 3d
       -0.042814195 0.058743414 -0.22576886 0.07293035
000160 24 0e 27 3d 88 c6 c3 3d fe 64 39 be 84 b3 1c bd
       0.04078497 0.09559351 -0.18104932 -0.038257137
000170 23 2c fc 3d 59 d3 fa 3d 16 ee 05 be d9 26 df bd
       0.12313106 0.122473426 -0.13079104 -0.108960815
000180 86 b1 83 3d 60 26 44 bd 46 cf ca 3d 76 a9 e6 3d
       0.06430344 -0.04788816 0.099028155 0.11262791
000190 b2 35 6b 3d 10 3c 2a bd 33 54 0e bd 6f 7f 36 3e
       0.057424255 -0.041561186 -0.034748267 0.1782205
0001a0 05 6a 81 3a 67 2a 37 3d 9d 27 92 bd 08 fe 87 bc
       0.0009873515 0.044718172 -0.07136462 -0.016600624
0001b0 fb 41 ef 3d 53 0f 72 3d e2 e0 28 3e 81 a9 3a bd
       0.11682507 0.059096646 0.16492036 -0.045571808
0001c0 f4 21 1c 3e 5d d9 b0 bd 8a f8 21 bd 8f 6e c4 3d
       0.15247327 -0.08635209 -0.039543666 0.095914
0001d0 31 b7 1e bd 5d fe e5 3d 68 29 41 be 8b 02 03 bb
       -0.038748924 0.112301566 -0.18863451 -0.001999053
0001e0 9a ff 3e bd b9 bd 40 bd 1c 6b 0d bd 4a cc bb bd
       -0.04663048 -0.047055934 -0.034525976 -0.091698244
0001f0 87 be b3 bd fb 35 ec bd bd 88 60 3d dc ec a7 3d
       -0.087765746 -0.115337335 0.054817904 0.08199474
000200 38 43 32 3d 18 f3 13 3b 73 ff 19 3d 13 3f 61 3d
       0.043521136 0.0022575315 0.03759713 0.054991793
000210 3b ba 63 bd b5 be 0f 3e d8 46 9b 3d 95 47 0b 3e
       -0.055597525 0.14037593 0.07581872 0.13601525
000220 93 1e 5f bd a4 49 ec 3c 52 f2 71 3c 9a c9 1e be
       -0.054472517 0.028843708 0.014767246 -0.15506592
000230 89 86 bd 3c d9 10 16 3c b0 c1 17 3d a5 ee 57 3e
       0.02313544 0.00915929 0.03704995 0.2108713
000240 16 80 6c 3d 7d e8 ac 3d 1a b4 e2 3d 02 5f ea bd
       0.05773934 0.08442781 0.11069508 -0.114439026
000250 cd 92 6e 3d 78 23 46 bd d7 9e 71 3c 53 7d 7a 3e
       0.05824547 -0.04837367 0.014747343 0.2446187
000260 60 23 1f 3d 08 11 a7 bd ac 95 42 bd ba fe 1a be
       0.038852096 -0.08157545 -0.04750602 -0.15136233
000270 1c f4 4e bc 7a 2b 41 be c1 8c 1d be 7e 45 c5 bd
       -0.012631442 -0.18864241 -0.15385725 -0.09632395
000280 1e 9f 13 3d 97 ca 7c bd e6 47 9c 39 4a 4d 95 3d
       0.036040418 -0.061716642 0.00029808207 0.07290132
000290 a1 76 d1 3d 45 3a 50 bd 8d cc 87 bc 80 28 b5 3a
       0.10227705 -0.05083682 -0.01657703 0.0013821274
0002a0 d8 fd fd bc 2f 6c 68 be a8 8e b1 bd 6d 2b d4 3d
       -0.031004831 -0.22697519 -0.08669788 0.10359845
0002b0 4c 9c 17 3e ee 09 f1 bc f2 81 f2 3d 4b 28 41 3d
       0.14805716 -0.02942368 0.11841191 0.047157567
0002c0 42 5f 48 bd 2c 05 29 3d f6 12 a7 bc c0 8e f4 bb
       -0.04891897 0.041264698 -0.020394783 -0.007463306
0002d0 2f d5 81 bd 0c 5e b4 bd 24 2d 25 bd 37 97 0c 3c
       -0.0633949 -0.088070005 -0.040326253 0.008580974
0002e0 c0 49 6e 3e b1 33 62 bd ed 82 ef bb 87 b4 3b bc
       0.23270321 -0.055225078 -0.0073093087 -0.011456615
0002f0 1b 92 12 3e e4 c9 95 bd 68 94 20 3e 9f d7 19 be
       0.14313547 -0.07313898 0.15681612 -0.15023659
000300 b3 8c 96 bc 67 15 1d 3d 50 67 bb 3d 9a c4 10 bd
       -0.018377637 0.03835049 0.09150565 -0.035343744
000310 c6 74 77 bd 7e 60 2d be 6a 52 16 bd d6 ac 69 bd
       -0.0604141 -0.1693134 -0.03669969 -0.057049595

predictor/l3/W f4 [100, 100]
000000 35 33 a0 3d c6 a0 0c 3b 23 a1 2d be d4 c4 22 bc
       0.07822267 0.0021458133 -0.16956 -0.009934623
000010 31 43 25 bd ee 50 b8 bd 6e f9 f7 3d e5 41 0c be
       -0.04034728 -0.08999811 0.12108122 -0.13697012
000020 fd 18 c7 be b4 24 c2 3d 98 1b c3 be e6 96 f2 3d
       -0.38886252 0.09479657 -0.3810699 0.11845188
000030 7b c0 36 3d c1 1e 1c bf a5 b9 52 be 71 bc 47 bb
       0.044617157 -0.60984427 -0.2057863 -0.003047731
000040 48 d4 c3 3d 32 53 99 be 61 e0 a7 3d 59 5e 8c be
       0.09561974 -0.29946285 0.08197094 -0.27415732
000050 e6 a9 a3 bd 21 a3 ac 3e e5 f5 83 be 45 f0 39 be
       -0.0799139 0.33718207 -0.2577354 -0.18158062
000060 c3 f0 dc be 8a 58 53 be ba e9 25 bf 91 c1 ef be
       -0.43152437 -0.20639244 -0.64809763 -0.46827367
000070 3f 2a 14 3d 26 82 89 bd 31 bc 86 bd 1d 6e 19 3c
       0.0361731 -0.06714277 -0.065788634 0.009364632
000080 e7 c2 a9 be 4b 34 b2 3d 1b 89 6f 3c 06 1d c8 3d
       -0.3315651 0.0870138 0.014620091 0.09771161
000090 e8 5d 31 bf 2d 1e 83 3d 4d 47 a0 bd 6c 25 18 bc
       -0.69283915 0.0640224 -0.078260995 -0.009286266
0000a0 15 1f 06 bf 61 fc e7 3d 3e 29 e1 bd 46 95 36 bd
       -0.5239118 0.11327434 -0.109941944 -0.044575952
0000b0 e7 1c 48 be 37 73 ae be e8 89 fd 3b 19 3b 25 3e
       -0.19542275 -0.34072277 0.007737387 0.16135825
0000c0 af 5f 67 3e 64 eb 78 be 1a 4d 0a 3e a3 f9 80 be
       0.22595094 -0.24308544 0.13505974 -0.25190458
0000d0 e2 c7 40 be ba 37 ea 3c 8c bc 5c 3e 05 fc d1 be
       -0.18826249 0.028591026 0.215563 -0.41012588
0000e0 93 72 d6 3d 0b cf 53 be 50 a0 3a 3d 06 bc 6a be
       0.10471072 -0.2068445 0.045563042 -0.22923288
0000f0 24 16 cd 3c dc 1e b7 3d 90 5c 10 3e c3 97 22 3d
       0.025034972 0.08941433 0.1409781 0.039695513
000100 53 3c 91 bd cc e8 b8 bd 0e df be b9 b9 58 12 3e
       -0.07091584 -0.090287775 -0.00036405813 0.14291658
000110 8a ab b5 3d 8b c2 59 3d d8 20 1e 3e e1 5f 01 bf
       0.08870609 0.053164046 0.15442216 -0.50536925
000120 2e 6e dc bd ee af 98 be 44 8c 52 be c6 d0 8f bc
       -0.107632026 -0.29821724 -0.2056132 -0.017555606
000130 72 0b f1 be b5 41 88 3e a9 08 14 bf 3a 2c f5 be
       -0.47079045 0.2661263 -0.57825714 -0.47885305
000140 6e c7 30 be 73 de 2f 3e 5f 0b ad bd b1 39 a0 3d
       -0.17263576 0.17174701 -0.084494345 0.07823504
000150 b8 02 42 be 00 10 7f be 2f 10 5a 3e 21 6b aa 3d
       -0.1894635 -0.24908447 0.21295236 0.083212145
000160 12 e9 94 bd c4 b5 5a 3e b0 69 09 bd 34 a1 ff be
       -0.07271017 0.213584 -0.033548057 -0.49927676
000170 8a e7 a4 3e de a1 5d bd 80 52 a8 bd 00 fb 58 3e
       0.322079 -0.054109447 -0.082188606 0.21189499
000180 82 20 63 3e 54 b9 09 be 4d f4 37 be 0d 49 05 3e
       0.2218037 -0.13449603 -0.17964287 0.13016148
000190 05 e3 94 3d 1c 4a 2b bd 85 e2 37 be 3e 56 75 bd
       0.07269863 -0.041818723 -0.17957504 -0.0598967
0001a0 38 7b d8 bd fe f5 73 3e d1 2a 20 3e 2a 2b 33 bd
       -0.10570377 0.23824307 0.15641333 -0.043742336
0001b0 e1 7f b1 be ae 44 b6 3d 80 d0 96 be ae 37 d2 bd
       -0.34667876 0.08899818 -0.29455948 -0.10264526
0001c0 32 3c a0 bd 23 bd d8 be e7 49 23 be 48 75 66 be
       -0.07823981 -0.423318 -0.1594616 -0.22505677
0001d0 0d 5a 2a bd b5 f7 b6 be 74 44 bd bd 0f 2d bd be
       -0.041589785 -0.3573586 -0.09241572 -0.3694844
0001e0 a3 6d bb bd c7 c4 7d 3d 05 17 5f be 95 36 d3 bd
       -0.09151771 0.06195524 -0.21786125 -0.10313145
0001f0 64 2b ad be ac 5c 47 3d 59 51 de be 67 5b f1 be
       -0.33822167 0.048672363 -0.43421438 -0.47140047
000200 06 71 46 bd 4d ad b1 bd f0 ac 9d bd fa e5 3f 3d
       -0.04844763 -0.086756326 -0.07699001 0.046850182
000210 d3 61 12 bf aa 78 a8 bc 23 a5 0d 3d 0e 2d 80 bc
       -0.5718052 -0.02056535 0.034581315 -0.015646484
000220 a2 e1 02 bf fe e2 fd bd c1 f3 42 3d 97 0c e3 3d
       -0.5112554 -0.12396811 0.047595743 0.11086386
000230 21 37 d2 be 29 c5 91 bc aa 21 01 3d 9d e4 42 bc
       -0.41057685 -0.017794209 0.031526245 -0.011895326
000240 b2 e6 6f be 58 0e c3 bd 79 02 2b 3e f1 97 88 bb
       -0.23427847 -0.0952422 0.16700162 -0.0041685035
000250 95 ae 5d 3e 1a e7 1b be 41 d6 48 3e 66 64 b3 be
       0.21648629 -0.15224877 0.19612981 -0.35037535
000260 cf dd 44 be 0a 5c 82 3e 29 0e 3d 3e c9 fa f1 be
       -0.19225238 0.25460845 0.18462433 -0.47261646
000270 c2 5d 94 be d6 44 4c be 04 c7 19 bd d4 8b 47 be
       -0.28977782 -0.19948134 -0.03754331 -0.19486934
000280 fe 91 75 bb b6 f0 8e bd 82 5d 57 3e 9b 39 6d bd
       -0.0037471051 -0.06979506 0.21031764 -0.057916265
000290 40 84 79 3e 2c d7 a9 be aa 97 71 bd 95 95 a3 3d
       0.24366856 -0.33171976 -0.05898253 0.07987515
0002a0 28 54 0e 3e 73 ce ba 3c c5 fc 28 3e 93 75 85 be
       0.1389929 0.02280352 0.16502674 -0.26066265
0002b0 cf 9c 03 3d 47 21 c8 bd ce ce ed bd c4 65 3b 3d
       0.032131966 -0.09771972 -0.116117105 0.04575135
0002c0 8b 2e f1 be 51 83 8f 3d 82 fe e1 be d4 c0 0b bf
       -0.47105822 0.070074685 -0.44139487 -0.5459111
0002d0 c1 c4 45 be 68 b4 69 3e 63 ea a4 3d 3d 65 95 3a
       -0.19313337 0.22822726 0.08052518 0.0011397969
0002e0 eb 44 47 be a4 6b ac be a0 b5 86 3e ca f8 46 be
       -0.19459884 -0.33675873 0.26310444 -0.19430843
0002f0 a3 50 94 bd a3 a7 88 3d 07 0f ab bd cf be 9c be
       -0.07241943 0.06672599 -0.083524756 -0.30614325
000300 de 02 59 3e 0e 85 c5 3d 0d 65 a2 3d d9 ad c4 3d
       0.211925 0.09644519 0.0792943 0.09603471
000310 46 79 d6 bd a2 d8 9a be f0 6f 51 bd de 3b 08 be
       -0.1047235 -0.30243403 -0.051132143 -0.13304088
000320 fc e7 90 3e 0a 4a 08 bd 76 f5 59 3c 56 59 86 bd
       0.2830199 -0.033273734 0.013303151 -0.06560008
000330 26 20 8f be c9 ca 91 be d3 b2 b6 3d 3a 1e 11 3d
       -0.27954215 -0.28475025 0.08920827 0.035429217
000340 98 3e d5 3d e3 1d a5 3b 48 89 09 bd 36 f1 ae bb
       0.104123294 0.005038963 -0.033578187 -0.005338813
000350 f9 f0 a4 3d 7d 84 a9 be b5 74 e9 be 81 51 08 3d
       0.080537744 -0.33108893 -0.45596853 0.033280853
000360 ad f5 3b 3c 7d d6 fa bd a2 5a 92 3d dc 3a 42 3c
       0.011472148 -0.12247942 0.07146193 0.0118548535
000370 6f f0 95 bd 36 a5 54 3e 33 3f 50 3d 02 3a 78 be
       -0.0732125 0.20766148 0.05084152 -0.24240878
000380 fc b4 f2 bd ec 46 f2 be 7a 3e 2c bf 9e 76 58 be
       -0.11850926 -0.47319734 -0.6728283 -0.21138999
000390 38 12 a8 3d d7 84 b9 be 16 dc 28 3e 1c 79 bd 3d
       0.082066 -0.3623416 0.16490206 0.092516154
0003a0 cd f2 dd be 9b 21 e6 3d 33 2b 35 3c fe 47 6d 3e
       -0.43349305 0.112368785 0.011057663 0.23171994
0003b0 b7 c0 dd be b2 dd 5b 3d 2d cd aa bd a2 02 a0 3d
       -0.43311092 0.053678222 -0.083399154 0.07813002
0003c0 00 fb ab be 38 4e 4b bc ea 41 68 be a7 a2 56 bd
       -0.33589935 -0.0124087855 -0.22681394 -0.05240121
0003d0 1e 98 3d be ed bc b7 be af b1 d7 3c 34 58 b8 bd
       -0.1851506 -0.35886326 0.026329843 -0.090011984
0003e0 24 b8 0a 3e 56 a3 3e be 18 8b 44 3e 7e 76 a5 bc
       0.13546807 -0.18616995 0.19193685 -0.020198103
0003f0 9e a7 8a be 37 b2 08 be 7c 82 6c 3e 54 f6 6f be
       -0.27081007 -0.13349234 0.23096651 -0.2343381

predictor/bn2/beta f4 [100]
000000 1f 2c 19 bf 91 82 9a be 69 88 21 bf 42 d9 c3 be
       -0.5983295 -0.3017774 -0.6309877 -0.38251692
000010 0f 21 1b bf 04 5c c6 be f2 30 04 bf aa c8 09 bf
       -0.6059732 -0.38742077 -0.51637185 -0.53821814
000020 58 7a 35 bf e7 6b 05 bf 5c 0f 22 bf 75 89 31 bf
       -0.70889807 -0.5211777 -0.63304687 -0.6935037
000030 8c a1 22 bf 4f 63 0e bf 6e 94 01 bf b8 2a 19 bf
       -0.6352775 -0.5562028 -0.5061711 -0.5983081
000040 90 f3 23 bf 29 6c 27 bf 22 01 08 bf b6 2f 12 bf
       -0.6404352 -0.65399414 -0.5312673 -0.5710405
000050 29 b4 f7 be 10 fb f8 be e1 1c 24 bf 59 22 36 bf
       -0.4837964 -0.48629045 -0.64106566 -0.7114616
000060 46 f0 20 bf 59 90 dd be e3 28 d9 be e0 c3 32 bf
       -0.6286663 -0.4327419 -0.42414007 -0.6983013
000070 c0 a8 bc be 83 16 14 bf 20 4a 8e be 39 41 2e bf
       -0.36847496 -0.5784685 -0.27790928 -0.6806827
000080 90 23 0e bf b4 ab 1c bf f3 b2 e7 be d6 0e 1a bf
       -0.55523014 -0.611995 -0.45253715 -0.6017889
000090 59 f9 dc be 4b d1 ba be f4 1d 79 be 5c fb 07 bf
       -0.43158987 -0.36487803 -0.24327832 -0.5311792
0000a0 01 ff 04 bf 2b 5b 06 bf a3 46 01 bf 60 d4 13 bf
       -0.51951605 -0.5248286 -0.5049841 -0.57745934
0000b0 a5 64 35 bf ac 30 2c bf 40 53 cd be 07 29 12 bf
       -0.70856696 -0.6726177 -0.40102577 -0.5709385
0000c0 c8 07 20 bf 49 83 06 bf 82 21 0b bf 8c 3f fe be
       -0.62511873 -0.52544075 -0.54348004 -0.49657857
0000d0 c1 98 10 bf 6f 47 fc be 9d c9 2d bf b2 8f 09 bf
       -0.56483084 -0.4927325 -0.6788576 -0.53734887
0000e0 e4 78 0c bf ad a2 5b bf b2 10 03 bf 6d 32 5a bf
       -0.54871964 -0.857951 -0.5119735 -0.85233194
0000f0 ad 86 0d bf 32 1f 8f be 80 70 11 bf 08 51 04 bf
       -0.55283624 -0.27953488 -0.56812286 -0.51686144
000100 15 19 cd be b5 0f 31 bf f1 b1 7c be 5f 60 30 bf
       -0.400582 -0.6916459 -0.24677254 -0.6889705
000110 f2 f3 d6 be 4e 84 f5 be 91 77 c4 be eb ca eb be
       -0.4198299 -0.47952503 -0.38372472 -0.46053252
000120 74 f6 ef be 45 9b 08 bf 15 9b 20 bf 33 fe 2e bf
       -0.46867716 -0.5336192 -0.62736636 -0.6835663
000130 36 8b 0e bf 4c e6 38 bf 3e 28 2d bf c0 82 01 bf
       -0.5568117 -0.72226405 -0.6763953 -0.50590134
000140 1c 42 78 bf c1 9c d2 be 87 46 bc be b7 73 d5 be
       -0.96975875 -0.4113522 -0.36772558 -0.41689846
000150 26 92 00 bf 98 34 15 bf c9 19 2f bf 99 4f 1e bf
       -0.50223005 -0.58283377 -0.6839872 -0.61840206
000160 7b 2b 26 bf 03 e0 e2 be f5 45 0a bf 5f a2 e5 be
       -0.64910096 -0.44311532 -0.54012996 -0.44850442
000170 08 ec 18 bf cb b8 45 bf 28 50 05 bf 65 4a 07 bf
       -0.59735155 -0.77235097 -0.52075434 -0.5284789
000180 f8 56 ca be e5 d1 2b bf 08 87 0a bf 2c 5a af be
       -0.39519477 -0.6711715 -0.5411229 -0.34248483

predictor/bn3/beta f4 [100]
000000 b4 39 fd bd e3 67 74 bd d4 90 7a be 2a aa ab be
       -0.123645216 -0.059669387 -0.2446931 -0.33528262
000010 d9 de b1 bd 98 16 af be 9e 62 9f be b6 e3 b7 3d
       -0.08685083 -0.34196925 -0.31129926 0.08978979
000020 51 1c a3 be 69 b8 79 be a1 dd 82 be 21 37 14 be
       -0.3185754 -0.24386753 -0.25559714 -0.14474155
000030 bc ef 84 be 0c d4 9e be ab 10 32 be 7b 03 3f be
       -0.25964153 -0.31021154 -0.17389171 -0.18653671
000040 62 58 8f be 21 f0 11 be c4 ff 9c be b7 d4 37 bd
       -0.27997118 -0.14251758 -0.30663884 -0.044880595
000050 29 f5 96 be 93 99 8e bd 50 9b e3 bd 8c 8e eb bd
       -0.29483917 -0.06962886 -0.11113608 -0.11501798
000060 54 bd e0 bb 46 e6 f3 bd 2c cc 61 be 15 ad 92 bd
       -0.006858507 -0.119091555 -0.22050542 -0.07161919
000070 c1 9d b3 be b9 ca 81 be ff 08 37 be de 6d 16 be
       -0.35081294 -0.25349978 -0.17874525 -0.14690349
000080 c0 0f 42 be 4c 54 96 be fa 6f 3b be 36 5b 20 be
       -0.1895132 -0.29361188 -0.18304434 -0.15659794
000090 e3 35 5a 3d e5 6f 1b be fc 36 42 be 14 da c0 bd
       0.053274047 -0.15179403 -0.18966287 -0.09416595
0000a0 09 99 80 bc 8d 7b 29 be 9f 68 c9 bd 8c c9 56 be
       -0.015697973 -0.16551037 -0.09834408 -0.20975322
0000b0 d2 d1 79 be 90 b7 7c bd 1c 41 5c be 93 e7 8c be
       -0.24396446 -0.061698496 -0.21509212 -0.27520427
0000c0 ff a5 35 be fc d0 ee bc 1e 8a 3b be d4 25 c8 be
       -0.17739104 -0.029152386 -0.18314406 -0.3909136
0000d0 35 85 9d bd e8 67 cb bd a7 5e 19 3d 4c 68 6b be
       -0.07691423 -0.09931928 0.037443783 -0.22989005
0000e0 b5 d0 0a be 01 f0 9c bd 3d 37 98 bd 34 09 62 be
       -0.13556178 -0.076629646 -0.07432411 -0.22073823
0000f0 fa 07 97 be 8e 8e 95 bd 47 9c 43 bd a5 b9 7d be
       -0.29498273 -0.07302581 -0.04775646 -0.24777849
000100 6b 9c 26 be 2a 97 48 bd 56 e6 05 be c1 c4 83 be
       -0.16270606 -0.048972286 -0.13076147 -0.2573605
000110 95 02 9c bd ec b6 36 bf 8a 9d fd bd c7 79 b6 bd
       -0.0761768 -0.71372867 -0.12383564 -0.08909946
000120 e5 05 61 bd 7f f9 0d 3b f5 48 1f be b3 1c b0 3d
       -0.054937262 0.0021663604 -0.15555175 0.08599224
000130 02 e4 8d bd c0 ee 56 bd 5e 9c 1e be 89 c4 71 bc
       -0.06928255 -0.052473783 -0.15489337 -0.01475633
000140 37 58 0c be 2f f9 89 be 4c 9c 10 bd ce d6 38 be
       -0.13705526 -0.26947924 -0.035305306 -0.18050691
000150 37 81 87 be 79 57 39 be f9 81 45 be 45 08 7f 3c
       -0.2646577 -0.18099774 -0.19287862 0.015565936
000160 d1 f7 53 be f7 82 55 be 37 12 a6 be d8 e3 42 3c
       -0.20700003 -0.2085074 -0.32435772 0.0118951425
000170 e2 98 49 be bc 67 24 3b 46 69 8f be ce 06 e7 bd
       -0.19687226 0.0025086245 -0.28010005 -0.11280595
000180 27 b5 14 be e6 9e e2 bd 56 0f 9c be 2d d4 40 be
       -0.14522229 -0.11065464 -0.3048045 -0.18830939

predictor/l4/b f4 [2]
000000 7a 9f 62 3e e5 9f 62 be
       0.22131148 -0.22131307

predictor/l3/b f4 [100]
000000 1f 65 50 3b 7f 03 11 3c 17 e8 23 bb 33 09 a9 3c
       0.0031798554 0.008850931 -0.0025010162 0.02063427
000010 b5 63 8c 39 52 39 a2 3c 44 c6 ef bb 3f b3 d8 ba
       0.00026777168 0.019802723 -0.0073173363 -0.0016532912
000020 ae 6a 50 3c 8a fb 27 3c cc 2b 95 3c 0e 0c 85 3a
       0.012720747 0.010252843 0.01820936 0.0010150687
000030 ac 29 4d 3b 24 ea 24 3b 24 99 8b b8 85 66 a7 3c
       0.0031305356 0.0025163973 -6.656561e-05 0.020434627
000040 4f 18 b4 3b 87 eb 28 3c fb 68 9f 3b d7 0d 8a 3a
       0.005496062 0.01031006 0.0048648096 0.0010532689
000050 48 73 6e bb f9 56 c7 3b 5c 40 47 bb b7 c9 e6 3b
       -0.003638463 0.006083366 -0.0030403351 0.0070430893
000060 10 65 1d bb a3 db 5f 3b 9b 5f 4a 3c ea f8 32 3c
       -0.0024016537 0.0034158013 0.012351896 0.010923604
000070 b4 e8 b3 3b cd 74 3f 3c ae 69 1c 3c c0 f1 1e 3b
       0.005490387 0.011685562 0.00954668 0.002425298
000080 6b 57 69 bb 5c 1d 35 bb c5 c2 53 3c 24 d1 78 bb
       -0.0035605084 -0.0027635908 0.012924855 -0.0037966454
000090 54 bd 19 3c 2a ee 32 3c c1 3d 1b 3c 09 e0 b5 bb
       0.009383518 0.010921041 0.0094751725 -0.0055503887
0000a0 ce 37 73 3c cb 29 05 3c 15 6a 43 3c 75 12 96 b7
       0.014844848 0.00812764 0.011927147 -1.7889988e-05
0000b0 f3 80 23 3c fc af c1 3b a4 2e cf 3b e8 3b 3d 3a
       0.009979474 0.0059108716 0.0063226987 0.00072187046
0000c0 8e 3f 6d bb 1f 1f e7 bb fd 45 ae 3b 6b 25 49 bb
       -0.0036201212 -0.0070532705 0.005318402 -0.003069247
0000d0 d9 7f 35 bb aa 60 be bb 02 69 f5 ba ea 91 20 bc
       -0.0027694611 -0.005809863 -0.0018723311 -0.009800414
0000e0 57 c5 d7 bb 71 47 ff ba 12 63 03 3b ae 6b 10 3c
       -0.006584804 -0.0019476247 0.0020048064 0.008814735
0000f0 ea 7e 81 3b 5b 63 17 3c a1 fb ed ba 74 ee 2b 3c
       0.003951897 0.009239997 -0.0018156656 0.010493863
000100 82 5b 82 3c 75 6a 11 3b 81 3d b5 39 f3 e4 03 3c
       0.015912775 0.0022188697 0.00034568834 0.008050191
000110 a1 d0 e2 39 e0 f1 ce bc 5b 28 52 bb c6 66 1a 3c
       0.0004326152 -0.02526182 -0.003206751 0.009423917
000120 97 24 d1 39 02 59 20 3b 58 65 b6 3b 96 e0 28 3c
       0.00039890848 0.0024467115 0.0055662803 0.010307452
000130 1c ba b9 3a 2a e8 16 bb 5d 96 4a 3b 2b 0e 53 3b
       0.0014169845 -0.0023026564 0.0030912377 0.003220449
000140 27 98 cf 3b 43 71 c1 b8 42 57 06 3a 24 76 fb 3b
       0.0063352766 -9.224054e-05 0.0005124697 0.0076739956
000150 8b de fb ba 84 49 2f 3c 1d 5b 73 3c 1b 80 ac bb
       -0.0019216103 0.01069868 0.014853266 -0.005264295
000160 a8 5f 82 bb 94 5a 48 bc 55 de 2a 3c 50 bb 9c ba
       -0.0039786883 -0.012228627 0.010428985 -0.0011957679
000170 a8 47 11 bb 50 15 d7 b8 5c fe 88 bb 29 ce 86 3b
       -0.0022167955 -0.00010255969 -0.0041807126 0.0041139317
000180 42 9d 65 3c 67 01 3f bb 61 1c a7 bb dc 94 aa bb
       0.014014544 -0.0029145123 -0.0050998186 -0.0052057337

predictor/bn3/avg_mean f4 [100]
000000 d4 d2 1b bf be 0a 13 bf 14 83 fe be b2 8f a5 be
       -0.60868573 -0.57438266 -0.4970938 -0.32336193
000010 92 51 10 bf 0f d6 03 bf ce a1 f1 be 39 18 f6 be
       -0.56374466 -0.514985 -0.4719376 -0.48065355
000020 58 36 4d bf 42 8f 39 bf 24 ab 42 bf 1f 44 17 bf
       -0.80161047 -0.7248422 -0.7604239 -0.5908832
000030 b6 13 07 bf 78 6e bc be 3b 54 36 bf c2 c8 11 bf
       -0.5276445 -0.3680303 -0.71222275 -0.5694696
000040 05 60 2f bf 43 6a 09 bf b5 df 16 bf 1c 00 e9 be
       -0.6850589 -0.5367777 -0.589351 -0.45507896
000050 11 f9 d5 be c4 2d fb be b3 06 19 bf 42 43 a1 be
       -0.41791585 -0.49058354 -0.5977585 -0.31496626
000060 87 64 94 be a7 1e ce be e0 8c 0a be d7 f8 87 be
       -0.28982946 -0.4025776 -0.13530302 -0.26557037
000070 df 77 10 bf 36 68 d7 be 55 a4 1b bf ea 50 7b be
       -0.5643291 -0.42071694 -0.60797626 -0.24542585
000080 27 35 b2 be 3d 30 36 bf 1c 18 55 bf fd 98 9e be
       -0.34806177 -0.71167356 -0.83239913 -0.30976096
000090 f4 4d 92 be 6c 60 04 bf 8a e9 0f bf 12 e0 c1 be
       -0.285751 -0.5170963 -0.5621573 -0.37866265
0000a0 b6 de 02 bf 4c 52 2b bf 7d d2 00 bf e7 d2 42 bf
       -0.5112108 -0.6692245 -0.5032118 -0.7610306
0000b0 b4 bf db be 5f 04 b2 be 5a 0b 40 bf 24 31 cd be
       -0.42919695 -0.3476896 -0.7501732 -0.40076554
0000c0 c4 99 e8 be 1e 47 06 bf 2f 66 87 be 46 76 71 be
       -0.45429814 -0.52452266 -0.26445147 -0.23580274
0000d0 f8 15 01 bf 67 bb 20 bf 8c 03 9f be 7e c8 f6 be
       -0.50424147 -0.62785953 -0.31057394 -0.48199838
0000e0 8a d1 f1 be b0 61 25 bf 25 e3 28 bf b9 73 fe be
       -0.47230178 -0.64602184 -0.65971595 -0.49697664
0000f0 92 a2 04 bf 9f 90 16 bf b8 55 f4 be 8a 02 39 be
       -0.5181056 -0.58814424 -0.47721648 -0.18067375
000100 3d b5 e0 bd 44 68 9d be 05 c4 d0 bd 13 0c e0 be
       -0.109720685 -0.3074361 -0.10193638 -0.43759212
000110 c2 2a 02 bf 7a f6 ac 3e 0d 03 1c bf 62 96 a4 be
       -0.50846493 0.33781797 -0.60942155 -0.32145983
000120 7c fa 17 be e5 7f be bd 03 5f a8 be 5b 71 b5 3d
       -0.14841646 -0.09301738 -0.32884988 0.088595115
000130 e4 28 d0 be 86 4f 3e be 90 08 20 bf 5a 3a fa be
       -0.40656197 -0.18585023 -0.62513065 -0.48872644
000140 e1 a3 01 bf be 4a 16 bf 0e a8 b6 be b8 7a 06 bf
       -0.50640684 -0.587078 -0.3567509 -0.52531004
000150 66 7d 47 be 7c 6a fc be ba ad 03 be 4f 3f be be
       -0.1948143 -0.4929999 -0.1285924 -0.37157676
000160 90 b7 2c bf 41 76 20 bf 56 6f cc be a6 73 ca be
       -0.67467594 -0.6268044 -0.39928693 -0.39541358
000170 76 6e ec be 62 e6 b1 be 99 9b 56 be 56 8b 31 be
       -0.46178025 -0.3474608 -0.20957793 -0.17338309
000180 99 81 d7 be f6 26 04 bf 21 ad 95 be 58 78 19 bf
       -0.42091063 -0.5162195 -0.2923365 -0.59949255

predictor/l1/b f4 [100]
000000 7a d3 47 bd ca de 4b 3d b7 ad 81 bc 65 e1 91 bc
       -0.048785664 0.049773015 -0.015829904 -0.017807672
000010 46 c0 79 bb d1 cb 0b 3d 2c 33 5a 3b 6d 68 0c 3c
       -0.0038108989 0.03412992 0.003329466 0.008569819
000020 5e c3 8b 3a 93 9d d6 3a d2 8e 4b 3d 68 dc 12 ba
       0.0010663082 0.0016373865 0.04969675 -0.0005602301
000030 67 0b 9e 3d 4b 9c 2b 3b 56 cd d5 3b 93 40 bd bb
       0.077170186 0.0026185687 0.006524722 -0.00577552
000040 54 00 3c ba dc e0 3c 3d d5 b4 03 be 26 bc 91 3c
       -0.000717168 0.04611288 -0.1286195 0.017789911
000050 71 26 7f 3c a9 80 9c 3b 23 fd e0 bc 2e a5 b0 bb
       0.01557313 0.0047760797 -0.027464455 -0.0053907847
000060 1e 8f 19 39 7c 92 cf 3a db 90 10 bb a1 95 68 3c
       0.00014644532 0.0015836502 -0.0022058997 0.014195831
000070 d7 ca ad bb 58 2d ba 3a 20 a2 c9 ba 47 e3 ff bb
       -0.0053037214 0.0014204187 -0.00153834 -0.007809076
000080 fb 7e c3 b9 aa 2e f3 3a 88 11 f8 bc b6 02 78 bb
       -0.00037287906 0.0018553336 -0.030281797 -0.0037843413
000090 01 fc dc ba 8f 7a 16 3b cb c1 a8 3a 31 bc 67 bc
       -0.0016859771 0.0022961234 0.0012875138 -0.014143989
0000a0 bc 79 80 3c b6 dd 89 3a 3a 75 e1 3a e4 82 59 3c
       0.015683047 0.0010518346 0.0017201074 0.013275836
0000b0 e9 df 12 bc fe a3 4c 3c 46 7c 20 3c 3d 14 06 3c
       -0.008964517 0.012490271 0.009795254 0.008183536
0000c0 c1 eb 7a bb a7 f1 93 bb 13 f7 ad bc 5b c9 12 bb
       -0.0038287493 -0.004514891 -0.021235978 -0.002239785
0000d0 d2 36 c3 ba 1f e4 01 39 4c 39 9b 3c c2 1a 31 bc
       -0.0014893657 0.0001238738 0.01894822 -0.010809602
0000e0 73 70 61 3d 27 bc 20 3c c1 77 22 bd 1c 80 c6 39
       0.05503888 0.009810484 -0.039664987 0.00037860952
0000f0 9f 9a 5b bb d1 10 ad 3a fd f5 0c bc 28 30 49 bc
       -0.003350891 0.0013203864 -0.00860357 -0.012279548
000100 8c 1a 19 bc fa d5 ad bc e4 f9 d6 b9 3c 4b ca bb
       -0.009344708 -0.021220196 -0.00041003444 -0.0061735194
000110 bb c3 13 bd 06 45 7a bb be 59 23 3d 7c 62 c3 3b
       -0.036075335 -0.0038188114 0.039880507 0.005962668
000120 44 7a d3 39 df f3 8b 3a 7d bb 25 3d 9d 07 40 3c
       0.0004033615 0.0010677538 0.040462006 0.011720565
000130 e5 bb 88 3b 68 a2 fb 3b ee 4e 72 bb 11 90 5b bd
       0.0041727894 0.0076792724 -0.0036973315 -0.05360419
000140 eb fb 7d 3c 67 98 0e bb 3c 4d f7 bb ef b7 99 3b
       0.015501956 -0.002175832 -0.007547049 0.004691116
000150 03 45 08 3c a9 e2 90 3b 3a 2c b1 3b 13 14 2d 3e
       0.008317235 0.0044215512 0.0054068835 0.16902189
000160 06 89 88 bc a2 d4 97 3b 4c 71 d5 3c 27 a8 4e bb
       -0.0166669 0.004633502 0.026055 -0.0031533332
000170 51 10 c9 ba 11 21 b8 bb b7 f2 22 3a 93 98 51 3a
       -0.0015339946 -0.005619176 0.0006215977 0.00079954526
000180 51 38 d3 bb 93 74 15 3b b9 7d 2d bc 76 2b 7d bb
       -0.0064459224 0.002280508 -0.010589057 -0.003863064

predictor/l2/b f4 [100]
000000 0a 5b 6d 3b 98 2d b8 ba fd f9 5f bc 02 82 df 3c
       0.0036217594 -0.0014051674 -0.013670442 0.027283672
000010 60 86 f7 3b 8e 11 00 3c 54 ee e6 b9 fa 00 57 3c
       0.0075538605 0.007816685 -0.00044046587 0.013122791
000020 71 1e de bb 64 75 9e 3c 49 03 cc 3b 85 fe 5e bb
       -0.0067785312 0.019343086 0.0062259776 -0.0034026217
000030 32 c8 35 3c 7a 76 46 3c 64 86 ad 3c 86 f0 c4 bc
       0.011095094 0.012113208 0.021182247 -0.024040472
000040 8b 8f 59 3b 27 c9 0f 3d e4 38 48 bc 8d 3b a7 bb
       0.003319713 0.035103943 -0.012220595 -0.0051035346
000050 d7 e4 91 ba 24 c6 c1 3c ba f2 49 bc f9 f6 76 bb
       -0.0011130822 0.023654051 -0.012325937 -0.0037683828
000060 2a 13 08 bc 7b a6 51 bc 52 ae 34 bc e3 9f fc bc
       -0.00830535 -0.01279604 -0.011027889 -0.030837959
000070 a3 2c a3 3b 3f 89 95 3a b5 ba 12 bb e3 bb b9 3c
       0.0049796863 0.00114087 -0.0022389118 0.0226726
000080 33 84 c0 3c 68 52 c8 bc 64 52 0d 3b 0e 46 03 bb
       0.023500537 -0.024453357 0.0021564001 -0.002003077
000090 67 b4 c7 3c 07 07 bf bc 51 82 1b bc 53 95 08 3d
       0.024378015 -0.02331878 -0.009491519 0.03334553
0000a0 29 cd 1c bd 21 2f 8d 3b eb b3 4c bb b1 26 fb b9
       -0.038281593 0.0043085967 -0.003123517 -0.00047903278
0000b0 40 fc 16 b8 e4 8a c4 ba a5 68 8a bc 0e 41 97 3b
       -3.5997713e-05 -0.0014995006 -0.016895602 0.0046159094
0000c0 93 b9 23 3c 3a 4c fb bb aa 91 2e bd 3e fa 72 3a
       0.009992975 -0.007668999 -0.042619385 0.00092688564
0000d0 16 78 97 bc 71 c8 62 ba 9e 68 e7 bb 12 7f cc bc
       -0.018489879 -0.0008651084 -0.007062032 -0.024962936
0000e0 65 a3 95 bc 24 80 ee 3b 84 00 82 3b d6 88 52 ba
       -0.01826639 0.007278459 0.0039673466 -0.00080312544
0000f0 9e 8e 88 bc 81 f6 a4 3b d0 dd 1d 3b 6d 32 a6 3a
       -0.016669568 0.0050342684 0.002408851 0.0012679823
000100 05 e5 97 bc aa 0f 03 3b 45 de a7 3b 06 d4 85 3c
       -0.018541822 0.001999835 0.005122932 0.016336452
000110 44 67 b4 bc 2b b3 29 3c c2 38 e9 ba c8 84 3d 3c
       -0.022021897 0.010357658 -0.0017793404 0.011567302
000120 01 b8 8d bc db 8e d4 3a 63 d9 64 bb 6a 3d c0 bb
       -0.017299654 0.0016216891 -0.0034919612 -0.005866696
000130 8d c2 19 bd 69 3e 21 bc 21 36 b3 bc 41 61 db 3c
       -0.037539054 -0.00984154 -0.021876397 0.026779773
000140 f5 47 85 bb f9 b2 17 3c 3c 84 e5 bb f4 4c 2e 3c
       -0.004067416 0.009258979 -0.007004289 0.010638464
000150 90 76 f5 bb 96 43 6d bc ae 30 fc bc ee 8d 06 3c
       -0.0074909404 -0.014481446 -0.030784931 0.00821255
000160 3c cf 1a bc 86 f5 49 3b 20 67 0d 3c 5b 9b 92 3c
       -0.009448823 0.003081651 0.008630544 0.017896345
000170 f4 37 d1 bc 6b aa 01 3c d6 b6 73 3c 13 eb cc bb
       -0.025539376 0.007914166 0.014875134 -0.006253609
000180 71 f3 3d bc 52 10 a1 3c 04 7e 2a 3b 25 e6 58 3c
       -0.0115936855 0.019661102 0.0026015053 0.0132384645

predictor/bn2/gamma f4 [100]
000000 e0 02 5b 3f 35 14 7b 3f e0 a1 4e 3f 89 29 4c 3f
       0.8555126 0.9807771 0.8071575 0.7975088
000010 84 1e 3e 3f a7 8c 67 3f b5 95 55 3f ef 51 39 3f
       0.74265313 0.90448993 0.8343156 0.72390646
000020 6d 00 4e 3f c0 f5 85 3f b2 c2 5b 3f 81 33 2e 3f
       0.804694 1.0465622 0.85843956 0.6804734
000030 b4 68 44 3f 1b 80 62 3f 6b db 59 3f d3 75 36 3f
       0.76722264 0.88476723 0.8510043 0.71273535
000040 ca 62 45 3f fc 8a 56 3f c8 b3 4f 3f ef 74 55 3f
       0.77103865 0.83805823 0.811337 0.8338155
000050 df 9b 4c 3f 13 35 38 3f b5 82 58 3f 3a 07 1c 3f
       0.7992534 0.71955985 0.84574443 0.60948527
000060 ab d4 60 3f fb 8d 6a 3f 48 c0 63 3f 51 6c 59 3f
       0.87824506 0.91622895 0.8896527 0.849309
000070 60 e1 5b 3f c7 09 4c 3f 42 c0 28 3f 9a d8 49 3f
       0.8589077 0.7970242 0.6591836 0.7884613
000080 bc 36 4a 3f 18 9d 53 3f 9e e8 58 3f 0e f4 53 3f
       0.7898977 0.8266158 0.84729946 0.8279427
000090 2a 76 63 3f 1c ab 58 3f 60 4b 54 3f 81 16 5a 3f
       0.8885218 0.8463609 0.82927513 0.8519059
0000a0 a7 36 60 3f c6 fa 42 3f 77 52 3a 3f 83 59 50 3f
       0.8758339 0.761639 0.7278208 0.81386584
0000b0 00 f5 18 3f 64 9e 4e 3f 83 6d 55 3f b7 27 43 3f
       0.5974884 0.80710435 0.83370227 0.76232475
0000c0 f7 61 32 3f 75 68 39 3f 74 07 67 3f 5f 61 52 3f
       0.6968073 0.72425014 0.9024575 0.82179826
0000d0 ca 03 54 3f 0b 6e 52 3f 91 ac 47 3f eb 37 55 3f
       0.8281828 0.8219916 0.7799769 0.8328845
0000e0 76 f1 53 3f a0 98 34 3f 57 52 4d 3f a3 c9 33 3f
       0.82790315 0.7054539 0.80203766 0.7022955
0000f0 45 b4 68 3f ca d2 5b 3f 15 ff 57 3f 89 3d 4e 3f
       0.9090007 0.85868514 0.843736 0.80562645
000100 9c 0b 78 3f 2a 86 3b 3f 22 cf 53 3f f6 6d 60 3f
       0.96892715 0.73251593 0.82737935 0.8766779
000110 a7 db 23 3f f3 65 2e 3f c6 51 46 3f d0 0e 5f 3f
       0.6400704 0.6812431 0.77468526 0.8713198
000120 8c 92 59 3f c9 6b 34 3f 0e 1a 18 3f 03 4a 37 3f
       0.8498924 0.7047697 0.59414756 0.7159731
000130 31 18 32 3f 80 b5 52 3f b7 bc 5b 3f 67 24 56 3f
       0.69568163 0.823082 0.8583483 0.83649296
000140 ca 94 16 3f 6d 4e 2c 3f 6c 58 52 3f 87 e2 64 3f
       0.58820784 0.6730717 0.8216617 0.89408153
000150 1e bc 46 3f 19 26 52 3f d2 26 3c 3f 64 15 51 3f
       0.77630794 0.8208938 0.73496735 0.81673265
000160 06 84 71 3f a9 97 45 3f cf 70 41 3f 10 47 64 3f
       0.94342077 0.7718454 0.7556276 0.8917093
000170 2c 6d 40 3f 3d 69 4c 3f 19 8f 4b 3f 35 f6 28 3f
       0.75166583 0.7984808 0.79515225 0.6600068
000180 ea de 2f 3f a2 ac 43 3f 22 79 3b 3f db ff 57 3f
       0.68699515 0.7643529 0.7323171 0.8437478

predictor/bn1/avg_var f4 [100]
000000 64 c9 b6 40 ef 55 13 40 92 20 00 40 f5 27 9d 3f
       5.712084 2.30212 2.001988 1.2277819
000010 0b 4b ef 41 68 cf 6f 40 fe c9 2c 41 06 20 ce 40
       29.911642 3.747034 10.7993145 6.441409
000020 d0 eb 84 42 8e da 8c 40 9d f6 32 40 71 82 ea 40
       66.46057 4.401679 2.796302 7.328423
000030 53 f2 80 3f c6 dc a9 42 c1 8e 42 41 0c 37 08 42
       1.0073951 84.9312 12.159852 34.053757
000040 4c 78 64 43 d1 9c 2c 41 70 6d 9e 3f ae f4 1b 40
       228.46991 10.788285 1.2377148 2.436809
000050 f4 5a b8 40 5e 01 80 41 24 15 4a 41 c0 15 d5 40
       5.7611027 16.000668 12.630161 6.658905
000060 ef 73 f7 42 78 e6 6e 41 dc 33 6b 43 ed 47 d7 40
       123.72643 14.931267 235.20258 6.72753
000070 19 f5 56 41 23 e4 c1 43 17 69 09 43 88 61 2e 42
       13.434838 387.78232 137.4105 43.595245
000080 bb 57 42 40 21 bb 08 42 fe 67 67 40 bc cc 5c 42
       3.0366046 34.182743 3.6157222 55.199936
000090 59 d7 c5 42 2b 63 dc 40 fd e7 20 44 59 7b a5 40
       98.9206 6.8871055 643.6248 5.171307
0000a0 53 01 83 40 49 b8 97 40 7c fb 77 41 87 0b 23 42
       4.0939116 4.7412457 15.498898 40.761257
0000b0 2e 36 2d 41 4b c7 ee 3f 81 47 cb 41 ae c5 e6 41
       10.825727 1.8654569 25.409914 28.846523
0000c0 b2 cd 0a 41 24 46 51 41 9d 37 a9 40 27 ff 5f 41
       8.675219 13.079624 5.2880387 13.999793
0000d0 21 86 c8 42 ce 7d 26 42 a3 69 26 40 d5 34 cc 40
       100.26197 41.622856 2.6001976 6.381449
0000e0 46 47 9d 40 d7 2a 82 40 10 0a c2 40 3b 01 0b 40
       4.9149504 4.0677295 6.0637283 2.17195
0000f0 ec 82 11 41 64 7b 75 43 db 51 b9 40 1a cd 45 40
       9.094463 245.482 5.791242 3.0906434
000100 b0 2c d2 40 d7 3a 2a 41 df df c1 43 8f b4 66 42
       6.567955 10.639365 387.749 57.676327
000110 ac 7c 88 40 7b ed ca 40 d2 f3 1a 41 6f ef 93 40
       4.2652187 6.3414893 9.684526 4.6229777
000120 82 c2 90 41 bf fd 88 42 b9 a4 7c 3f 41 f1 fb 40
       18.094975 68.4956 0.98688847 7.8732
000130 62 39 b7 40 2b a6 40 40 9b ed 8b 40 36 06 c2 40
       5.7257547 3.010142 4.3727546 6.063258
000140 01 df e8 40 f4 af 90 40 43 1c 69 41 be 22 79 40
       7.277222 4.5214787 14.5694 3.8927455
000150 d6 1e c4 41 c3 74 b2 40 6b 74 8e 40 d9 70 b4 3f
       24.515057 5.576753 4.451711 1.4096938
000160 4e 25 1a 40 61 87 bc 40 94 ab 97 40 ff e0 ab 41
       2.408527 5.8915257 4.7396946 21.484861
000170 8d 1b f4 3f bf c6 d6 40 93 06 24 42 5c 26 6d 42
       1.9070908 6.711761 41.00642 59.28746
000180 a2 4f b0 40 b6 12 80 41 d7 23 27 41 c8 42 67 42
       5.509721 16.009136 10.44625 57.815216
