model/model_1.npz (npz, 5311 bytes, 18 tensors)

predictor/bn3/avg_var f4 [6]
0	0x3fac094e	1.344034
1	0x3f0e626a	0.5561892
2	0x3f80dd92	1.0067618
3	0x3f771b36	0.96525896
4	0x3f365d84	0.71236444
5	0x3f50b56a	0.81526816

predictor/bn1/gamma f4 [14]
0	0x3f800000	1.0
1	0x3f800000	1.0
2	0x3f800000	1.0
3	0x3f800000	1.0
4	0x3f800000	1.0
5	0x3f800000	1.0
6	0x3f800000	1.0
7	0x3f800000	1.0
8	0x3f800000	1.0
9	0x3f800000	1.0
10	0x3f800000	1.0
11	0x3f800000	1.0
12	0x3f800000	1.0
13	0x3f800000	1.0

predictor/bn3/avg_mean f4 [6]
0	0xbee2eca7	-0.44321176
1	0xbe563337	-0.20917974
2	0xbe3489a7	-0.17630635
3	0x3dedc910	0.11610615
4	0x3e6b91f5	0.23004897
5	0xbe6641a5	-0.22485979

predictor/bn3/beta f4 [6]
0	0xbdd443cf	-0.10364496
1	0xbdac5227	-0.08414107
2	0x3d4ec52c	0.050481007
3	0x3ea0d9b1	0.31416085
4	0x3f0105a3	0.50399226
5	0xbcabea99	-0.020985888

predictor/bn2/gamma f4 [10]
0	0x3f83d783	1.0300144
1	0x3f4e236b	0.80522794
2	0x3f3e6d5b	0.74385613
3	0x3f78d38b	0.9719779
4	0x3f67d0f1	0.90553194
5	0x3f184c38	0.594913
6	0x3f73a915	0.95179874
7	0x3f924bc8	1.1429377
8	0x3f6ef6b5	0.93345195
9	0x3f884832	1.0647032

predictor/bn2/avg_var f4 [10]
0	0x3fe57f2d	1.7929436
1	0x401bc070	2.4336205
2	0x40943781	4.6317754
3	0x40046c22	2.0691
4	0x3f8eec08	1.1165781
5	0x41303911	11.013932
6	0x3ffd4a36	1.9788272
7	0x3fe84dbb	1.8148721
8	0x4048771b	3.1322696
9	0x405c722f	3.4444692

predictor/l3/b f4 [2]
0	0x3efd9a43	0.49531755
1	0xbefd9a45	-0.4953176

predictor/bn3/gamma f4 [6]
0	0x3f70e645	0.94101363
1	0x3f9bbe28	1.2167406
2	0x3fa094c1	1.2545396
3	0x3f8787fd	1.0588375
4	0x3f8b20a6	1.0869339
5	0x3f8da976	1.106734

predictor/bn2/avg_mean f4 [10]
0	0x3d8f0251	0.06982864
1	0xc006a330	-2.1037102
2	0xc1087428	-8.528358
3	0x3f00c116	0.50294626
4	0xc00c7a6a	-2.1949716
5	0xbe871228	-0.2638104
6	0x3fc6e08b	1.5537275
7	0x3e3d1154	0.18463641
8	0xc07d95f8	-3.9622784
9	0x4044c894	3.0747423

predictor/l1/b f4 [10]
0	0xbba43950	-0.005011715
1	0x3aa7cd28	0.001280223
2	0xbc2cebaf	-0.010554238
3	0x3b2d23c4	0.0026419023
4	0x3d99bd46	0.07506804
5	0x39b87299	0.00035180597
6	0xbb2441af	-0.0025063565
7	0x3d062af5	0.03275581
8	0xbd4ca31f	-0.049960252
9	0xbae55990	-0.0017498005

predictor/l2/b f4 [6]
0	0xbcd0b58c	-0.025477193
1	0x3c89c59d	0.016817862
2	0x3caae6b1	0.020861955
3	0x3c3696a8	0.011144318
4	0xbc74c399	-0.014939212
5	0x3bb67f28	0.0055693574

predictor/bn2/beta f4 [10]
0	0xbe1e7359	-0.15473689
1	0xbf285da3	-0.6576788
2	0xbf2a3d8b	-0.6650016
3	0xbe230014	-0.15917999
4	0xbf148be6	-0.5802597
5	0xbdd843d7	-0.105598144
6	0xbe37733a	-0.17915049
7	0xbe4c6cd4	-0.1996339
8	0xbf13c2f8	-0.57719374
9	0xbd8a18ca	-0.067430094

predictor/l1/W f4 [10, 14]
0	0x3e4d03ce	0.20020983
1	0x3a13e2ea	0.0005641418
2	0x3ea0f303	0.31435403
3	0x3ec45e23	0.3835307
4	0xbc76decc	-0.015067767
5	0xbf2b4725	-0.6690543
6	0xbec4374f	-0.38323447
7	0xbfbd89a2	-1.4807627
8	0xbe3cd4e7	-0.18440591
9	0xbf4e9968	-0.8070283
10	0x3f345ffd	0.70458966
11	0xbe41e846	-0.18936262
12	0x3f63916a	0.8889376
13	0xbde7667e	-0.11298846
14	0xbf4734d2	-0.7781497
15	0x3c4052b1	0.011738465
16	0xbc13cb71	-0.009020672
17	0xbde024ef	-0.109445445
18	0x3b94e02f	0.0045433263
19	0x3ed6017e	0.41798013
20	0x3ee26de3	0.44224462
21	0xbe01fb57	-0.12693535
22	0xbed18b47	-0.40926573
23	0x3f375f34	0.71629643
24	0xbf80caeb	-1.0061926
25	0xbe829bb5	-0.2550942
26	0x3e966c8f	0.293797
27	0xbe96da40	-0.29463387
28	0xbfdb1721	-1.7116433
29	0xbdaf4a8f	-0.08559143
30	0xbeb128d6	-0.34601468
31	0x3e0d0820	0.1377263
32	0xbd09b866	-0.03362312
33	0xbef9c5f1	-0.4878383
34	0x3f99f54f	1.2027987
35	0x3ffeb369	1.9898502
36	0xbf494ed0	-0.78635883
37	0x3edab8cd	0.42719117
38	0xbf7c409b	-0.9853608
39	0x3ef2b33f	0.4740238
40	0xbed4521a	-0.4146889
41	0xbe5e97f6	-0.21737656
42	0x3e93c007	0.28857443
43	0x3c5b96ca	0.01340265
44	0x3b8cda8c	0.0042985138
45	0x3ee80578	0.45316672
46	0xbc8c5c42	-0.017133836
47	0xbf1279a4	-0.5721686
48	0xbe03e55b	-0.12880461
49	0xbfefc3f0	-1.873167
50	0xbe84806c	-0.25879228
51	0xbf52ca12	-0.82339585
52	0x3f473594	0.7781613
53	0x3e62d1a8	0.2215029
54	0x3f09a66a	0.5376955
55	0xbd9a5aa5	-0.0753682
56	0xbf3e7202	-0.7439271
57	0xba5bfd7b	-0.00083919585
58	0xbe89cafe	-0.26912683
59	0xbd034aa6	-0.032053612
60	0xbbd9703d	-0.0066356943
61	0x3ec65d1b	0.3874291
62	0x3f00a6e8	0.5025468
63	0x400ec079	2.2304976
64	0xbe919f41	-0.28441814
65	0x3edc1f23	0.42992505
66	0xbf2860de	-0.6577281
67	0x3d0418fd	0.032250393
68	0x3e3b7151	0.18304946
69	0xbcb4d0f5	-0.022072295
70	0x3eb27b66	0.3485977
71	0xbc0a92ee	-0.008457882
72	0xbf7cd221	-0.9875813
73	0xbf074288	-0.52835894
74	0x3d0b8275	0.03405996
75	0x3f74b50c	0.95588756
76	0x3fee80bc	1.8633037
77	0xbd0aecee	-0.03391736
78	0xbf956499	-1.1671325
79	0x3fbce299	1.4756652
80	0xc002886c	-2.0395765
81	0x3b75431f	0.003742404
82	0xbe594289	-0.21216787
83	0xbe83baf3	-0.25728568
84	0x3e959da8	0.29221845
85	0x3cc7e087	0.024399055
86	0x3eec12bd	0.46108046
87	0x3dd08b8c	0.101828665
88	0xbc8ba288	-0.017045274
89	0x3e75b05e	0.2399306
90	0xbf99fa46	-1.2029502
91	0xbec98300	-0.39357758
92	0x3ed02df2	0.40660053
93	0xbe2d8eb3	-0.16948967
94	0x3eb83930	0.3598113
95	0xbc0f781e	-0.0087566655
96	0xbf7501ab	-0.9570567
97	0x3ed41f0a	0.4142993
98	0x3e4ff5f5	0.20308669
99	0x3bc6fc02	0.006072522
100	0x3f06c0e4	0.5263808
101	0x3e088b39	0.13334359
102	0xbc815042	-0.01578534
103	0xbe2fbe38	-0.17162406
104	0xbf85bb58	-1.0447798
105	0xbfafb3dc	-1.3726764
106	0xbe17a1f8	-0.1480788
107	0xbf68b9ed	-0.909087
108	0x3f026e6b	0.50949734
109	0xbe7d48d1	-0.24734809
110	0x3e795d3b	0.24351971
111	0x3c28a79d	0.010293868
112	0xbf7aae3b	-0.97922105
113	0xbcb3fdf3	-0.021971678
114	0xbe80ee96	-0.25182027
115	0xbdc95e20	-0.09832406
116	0x3b27a123	0.0025578223
117	0x3ecda18f	0.40162322
118	0x3f2c4c35	0.6730378
119	0x40124675	2.2855504
120	0xbf6f145a	-0.9339043
121	0x3ebee7bb	0.3728617
122	0xbf875b68	-1.057477
123	0xbe4375b1	-0.19087864
124	0x3ead8f91	0.33898595
125	0xbe51559b	-0.20442812
126	0x3f4ed1d0	0.807889
127	0x3bd9502a	0.0066318708
128	0xbea0f355	-0.31435648
129	0x3d2ee15c	0.04269539
130	0x3c38906c	0.011264902
131	0xbef4bf50	-0.4780221
132	0xbd496147	-0.049165037
133	0xbfbc4293	-1.4707817
134	0x3e69e218	0.22840154
135	0xbf96f704	-1.1794133
136	0x3fe9f2a2	1.8277171
137	0xbec8336b	-0.3910173
138	0x3f161a64	0.5863402
139	0x3d80bd2e	0.06286083

predictor/bn1/beta f4 [14]
0	0x00000000	0.0
1	0x00000000	0.0
2	0x00000000	0.0
3	0x00000000	0.0
4	0x00000000	0.0
5	0x00000000	0.0
6	0x00000000	0.0
7	0x00000000	0.0
8	0x00000000	0.0
9	0x00000000	0.0
10	0x00000000	0.0
11	0x00000000	0.0
12	0x00000000	0.0
13	0x00000000	0.0

predictor/l3/W f4 [2, 6]
0	0xbf061e64	-0.5239012
1	0xbeddffd0	-0.43359232
2	0xbf258d56	-0.64668787
3	0x3dfd7941	0.12376643
4	0xbe6053e9	-0.21907009
5	0xbea52804	-0.32257092
6	0x3ebef785	0.37298217
7	0x3e858a2f	0.26081988
8	0xbd3eedb4	-0.04661341
9	0xbe829064	-0.25500786
10	0xbf0d8353	-0.5527851
11	0x3ed1dc7b	0.40988526

predictor/l2/W f4 [6, 10]
0	0xbeea6d5b	-0.45786557
1	0xbd5210d1	-0.05128557
2	0x3f2c3f5a	0.67284167
3	0xbef37494	-0.4754988
4	0x3f091cf1	0.53559786
5	0x3dd88ae3	0.105733655
6	0xbf034a1f	-0.51284975
7	0xbee65266	-0.4498474
8	0x3efe3c2f	0.4965529
9	0xbe88b0eb	-0.26697478
10	0xbe932d8a	-0.2874568
11	0x3ea7c3b2	0.3276649
12	0x3efc3ba0	0.4926424
13	0xbe8447ff	-0.2583618
14	0x3e8a517d	0.27015296
15	0x3d7be424	0.06149687
16	0xbeaa2868	-0.33233953
17	0xbe85c4c5	-0.26126686
18	0x3e4d1366	0.20026931
19	0xbe36cbc3	-0.17851166
20	0xbeb7eccc	-0.3592285
21	0x3f1231c9	0.57107216
22	0x3f269bab	0.6508128
23	0xbea21121	-0.31653693
24	0x3ee0ffe9	0.43945244
25	0x3db23e84	0.0870333
26	0xbeb667d8	-0.35626101
27	0xbea9ab0c	-0.3313831
28	0x3ea50ded	0.32237187
29	0xbe48675e	-0.19570681
30	0x3ec19df5	0.37815824
31	0xbecb115e	-0.39661688
32	0xbe87b2a5	-0.26503482
33	0x3e9b19b0	0.30293036
34	0xbeb8f162	-0.3612166
35	0xbee55018	-0.4478767
36	0x3e94cc5f	0.29062173
37	0x3ec0e704	0.3767625
38	0xbeee8982	-0.46589285
39	0x3d509b44	0.050929323
40	0x3ec51b8d	0.38497582
41	0xbe92c7eb	-0.2866815
42	0xbe708328	-0.23487532
43	0x3ea7b305	0.3275377
44	0xbe7453b8	-0.23860061
45	0xbe9c11a6	-0.30482215
46	0x3ea0daaf	0.31416842
47	0x3ec42ed1	0.38316968
48	0xbe81679d	-0.25274363
49	0x3dbe1543	0.09281399
50	0xbeacd7f4	-0.3375851
51	0x3eea622a	0.45778018
52	0x3f1ef9fe	0.6210021
53	0xbea41769	-0.3204911
54	0x3ea83414	0.32852232
55	0x3da2eb66	0.07955055
56	0xbeb47ef1	-0.352531
57	0xbe9d767d	-0.30754462
58	0x3e8c2548	0.27372193
59	0xbe417baf	-0.18894838

predictor/bn1/avg_mean f4 [14]
0	0x4013adfe	2.3074946
1	0x41ed8002	29.687504
2	0x3f040a97	0.5157866
3	0x3ec88976	0.39167374
4	0x4201fe8a	32.498573
5	0x3e50e4b7	0.20399748
6	0x3e13b399	0.1442398
7	0x3d33ea01	0.043924335
8	0x3f145a73	0.57950515
9	0x3eb55a58	0.3542049
10	0x3f2552d1	0.6457949
11	0x3e450cb4	0.19243127
12	0x3db6188e	0.08891402
13	0x3f375c40	0.7162514

predictor/bn1/avg_var f4 [14]
0	0x3f33c4f5	0.7022241
1	0x43277b5e	167.4819
2	0x3f9566a3	1.1671947
3	0x3f341d1a	0.70356905
4	0x45230544	2608.329
5	0x3e2751cf	0.16339801
6	0x3dfd7021	0.123749025
7	0x3d2ca4e7	0.04214945
8	0x3e7a0394	0.24415427
9	0x3e6a7934	0.22897798
10	0x3e6a7934	0.22897798
11	0x3e1f3252	0.1554654
12	0x3da6b6c9	0.08140332
13	0x3e4fca64	0.2029205
