model/model_2.npz (npz, 5312 bytes, 18 tensors)

predictor/bn3/avg_var f4 [6]
0	0x3fb301e2	1.398495
1	0x3f626eb5	0.88450176
2	0x3fa625e2	1.2980311
3	0x4007aa30	2.1197624
4	0x3fa19a04	1.2625127
5	0x3fa34dd3	1.2758125

predictor/bn1/gamma f4 [14]
0	0x3f800000	1.0
1	0x3f800000	1.0
2	0x3f800000	1.0
3	0x3f800000	1.0
4	0x3f800000	1.0
5	0x3f800000	1.0
6	0x3f800000	1.0
7	0x3f800000	1.0
8	0x3f800000	1.0
9	0x3f800000	1.0
10	0x3f800000	1.0
11	0x3f800000	1.0
12	0x3f800000	1.0
13	0x3f800000	1.0

predictor/bn3/avg_mean f4 [6]
0	0xbcae991f	-0.021313248
1	0x3e0b8dbe	0.13628289
2	0x3c9d7a5f	0.01922339
3	0xbdb70391	-0.08936227
4	0xbebbb44a	-0.36660987
5	0xbcfc0f2b	-0.030768951

predictor/bn3/beta f4 [6]
0	0x3d9100d7	0.07080238
1	0x3e8f6780	0.28008652
2	0x3e471380	0.19441032
3	0x3e60736a	0.21919027
4	0xbdcb4d83	-0.099268936
5	0x3df27eb3	0.11840572

predictor/bn2/gamma f4 [10]
0	0x3f8c72f1	1.0972577
1	0x3f8ec3a2	1.1153452
2	0x3f388be3	0.7208845
3	0x3f7accd7	0.9796881
4	0x3f636179	0.88820606
5	0x3f4e4e52	0.8058826
6	0x3f7e6001	0.9936524
7	0x3f819514	1.012362
8	0x3f43dbeb	0.76507443
9	0x3f785416	0.97003305

predictor/bn2/avg_var f4 [10]
0	0x412850fb	10.519771
1	0x3f81f4bd	1.0152813
2	0x40dee218	6.9650993
3	0x4006beb8	2.1053905
4	0x3f496c84	0.78681207
5	0x40e28d29	7.0797315
6	0x3ece4f56	0.40294904
7	0x3fc3834a	1.5274441
8	0x3fc4ff4a	1.5390408
9	0x3f880195	1.0625483

predictor/l3/b f4 [2]
0	0x3ef3f3e2	0.47647005
1	0xbef3f3e5	-0.47647014

predictor/bn3/gamma f4 [6]
0	0x3f5d32bb	0.86405534
1	0x3fa6cac1	1.3030626
2	0x3f8c0c27	1.0941209
3	0x3f7ec583	0.9952013
4	0x3f909357	1.1294965
5	0x3f824971	1.0178663

predictor/bn2/avg_mean f4 [10]
0	0x404cea3b	3.2017963
1	0xc0616c74	-3.5222445
2	0xbf4082da	-0.75199664
3	0x3f206af1	0.6266318
4	0xc024f9d3	-2.577748
5	0xc02b2938	-2.6743908
6	0xbfafbf1c	-1.3730197
7	0xc046aa21	-3.1041338
8	0xc01624fe	-2.3460078
9	0xbc8f8b47	-0.017522467

predictor/l1/b f4 [10]
0	0xbc66c567	-0.01408515
1	0x3c4d149a	0.012517119
2	0xbb22579a	-0.0024771453
3	0xbc30d744	-0.010793511
4	0x3cefd422	0.029275957
5	0x3be4e539	0.0069853333
6	0xbd6d99f2	-0.05800814
7	0x3c669781	0.014074207
8	0xbc0fac4d	-0.008769107
9	0xbcb34e33	-0.021887874

predictor/l2/b f4 [6]
0	0x3c81ec9a	0.01585989
1	0x3d60221a	0.05472002
2	0xbd3af33a	-0.045642115
3	0xbbb6f4cc	-0.0055833813
4	0xbc4174f0	-0.011807665
5	0x3c6c68ea	0.01442931

predictor/bn2/beta f4 [10]
0	0xbe4878e3	-0.19577365
1	0xbedac60c	-0.42729223
2	0xbe8882a4	-0.2666217
3	0xbea75afb	-0.326866
4	0xbe82d27e	-0.25551218
5	0xbecb8822	-0.397523
6	0xbf34606f	-0.70459646
7	0xbf060cc4	-0.5236323
8	0xbedf76b9	-0.43645266
9	0xbe55cb20	-0.20878267

predictor/l1/W f4 [10, 14]
0	0x3f3f6384	0.74761224
1	0x3dadb57f	0.08481883
2	0x3d9a1bbf	0.075248234
3	0x3f14ae1c	0.5807817
4	0xbd46aacc	-0.04850273
5	0xbf590643	-0.8477518
6	0xbeba032e	-0.3633055
7	0xbfd6b63e	-1.6774366
8	0x3f1f719f	0.6228275
9	0xbf2eda79	-0.6830211
10	0x3f08e95a	0.53481066
11	0xbecaed8d	-0.39634362
12	0x3f29d22f	0.6633634
13	0x3e200d42	0.15630057
14	0xbf5181bd	-0.8183859
15	0xbc77b29d	-0.015118268
16	0xbe59ba61	-0.21262504
17	0xbd39d12a	-0.04536549
18	0xbb9e01bf	-0.0048219855
19	0xbd54e2cf	-0.051974114
20	0x3e07a368	0.13245928
21	0x3fd55eed	1.6669594
22	0xbeaa0e30	-0.3321395
23	0x3e67e6a6	0.22646579
24	0xbf757d2e	-0.95894134
25	0xbe6dd13a	-0.23224345
26	0xbc38ab11	-0.011271254
27	0xbe95dec1	-0.2927151
28	0xbefc2157	-0.49244186
29	0xbd4c144f	-0.049824055
30	0xbed9b98f	-0.42524382
31	0xbf06f8ca	-0.5272337
32	0x3d363dc1	0.044492487
33	0xbf5365c2	-0.82577145
34	0xbef77654	-0.48332465
35	0xbd7d3b83	-0.061824333
36	0x3f860505	1.0470282
37	0xbf307303	-0.68925494
38	0x3f93cb30	1.1546383
39	0x3c4c2556	0.012460073
40	0xbd65ac1b	-0.056072336
41	0xbceeac87	-0.029135002
42	0x3e16c122	0.14722112
43	0x3c5224d3	0.012826162
44	0x3ed87367	0.42275545
45	0x3e9d509b	0.3072556
46	0xbc31b616	-0.010846635
47	0xbf700e08	-0.9377141
48	0xbeb98b8a	-0.36239272
49	0xbf721e5e	-0.94577587
50	0x3d5e7229	0.05430809
51	0xbf5ce6fb	-0.8628995
52	0x3f76f580	0.96468353
53	0xbedc7065	-0.430545
54	0x3ee04f30	0.43810415
55	0xbe283823	-0.16427664
56	0xbf486afa	-0.78288233
57	0xbbfac09b	-0.007652355
58	0x3ce1d8f5	0.027569273
59	0xbd6576ac	-0.056021377
60	0xbb42780a	-0.00296736
61	0x3e20b3aa	0.15693536
62	0x3ecf1c0a	0.4045108
63	0x3f4b7bec	0.79485965
64	0xbe2aa0ca	-0.16662899
65	0x3e8d65fa	0.27616864
66	0xbf0cab12	-0.5494853
67	0xbe16a8bf	-0.14712809
68	0x3c7a64ac	0.015282791
69	0xbe8c8b09	-0.27449825
70	0xbf2736dc	-0.65318084
71	0xbc321f91	-0.010871784
72	0xbd8558bb	-0.065110646
73	0xbf135a57	-0.5755972
74	0x3c3d2aca	0.011545846
75	0x3ef5ea03	0.480301
76	0x3f972edf	1.1811179
77	0x3f3bd4d9	0.73371655
78	0xbfaf76d4	-1.3708138
79	0x3fcfe709	1.6242381
80	0xbf8f0416	-1.1173122
81	0x3e914fba	0.2838114
82	0x3e940c23	0.2891551
83	0xbf0a30df	-0.5398082
84	0xbed5b6e8	-0.4174111
85	0xba68e683	-0.00088844466
86	0xbe43b0d3	-0.19110422
87	0xbcfb61f1	-0.03068635
88	0x38896f84	6.5534405e-05
89	0x3e0b6800	0.13613892
90	0x3e95cab8	0.29256225
91	0x3fbba03c	1.4658275
92	0xbdee2a83	-0.11629202
93	0x3ef0bf48	0.47020936
94	0xbe5bfe98	-0.21483839
95	0xbe201c5e	-0.15635821
96	0xbe1bd01e	-0.15216109
97	0xbe62a887	-0.221346
98	0xbf4bb326	-0.79570234
99	0xbca56587	-0.020190014
100	0xbe510190	-0.20410752
101	0xbcf6f7b6	-0.030147415
102	0xbb88ef66	-0.004178929
103	0xbd1d49a3	-0.038400304
104	0xba75f890	-0.0009383047
105	0x3fe2390b	1.7673658
106	0xbf23ce4a	-0.6398665
107	0x3f68a7dd	0.9088114
108	0xbf10c9a9	-0.5655771
109	0x3cd0f7f5	0.02550886
110	0x3e3e3f39	0.18578805
111	0xbe4c4724	-0.19949013
112	0xbf158fcb	-0.58422536
113	0xbbeeed96	-0.007291506
114	0xbe25cde8	-0.16191828
115	0xbdf62f81	-0.120207794
116	0x3aef2b2b	0.0018247118
117	0x3d11aec8	0.035567075
118	0x3e8235dc	0.25431716
119	0x3fcc9a1a	1.5984528
120	0xbf67ab24	-0.90495515
121	0x3eb9db4a	0.36300117
122	0xbf3d04ac	-0.73835254
123	0xbc4a1c43	-0.01233584
124	0x3e6f1ec8	0.23351586
125	0xbd429e61	-0.047514323
126	0x3e0d2ecb	0.13787381
127	0xbb8d5ed7	-0.0043142843
128	0x3ea958c7	0.33075544
129	0x3e1592e6	0.14606819
130	0xbc3db804	-0.011579517
131	0xbc9e9f24	-0.019362994
132	0xbf534c25	-0.8253806
133	0xbf8288b8	-1.0197973
134	0xbe257f25	-0.16161783
135	0xbf2d9942	-0.6781198
136	0x3ecd773e	0.40130037
137	0xbcba63fc	-0.022752754
138	0x3e145a58	0.14487588
139	0x3e7b6113	0.2454875

predictor/bn1/beta f4 [14]
0	0x00000000	0.0
1	0x00000000	0.0
2	0x00000000	0.0
3	0x00000000	0.0
4	0x00000000	0.0
5	0x00000000	0.0
6	0x00000000	0.0
7	0x00000000	0.0
8	0x00000000	0.0
9	0x00000000	0.0
10	0x00000000	0.0
11	0x00000000	0.0
12	0x00000000	0.0
13	0x00000000	0.0

predictor/l3/W f4 [2, 6]
0	0xbf35322a	-0.7077967
1	0xbe9d893c	-0.30768764
2	0xbe7d4c78	-0.24736202
3	0x3ee47e65	0.4462768
4	0x3e0e71e8	0.1391064
5	0xbf1b89c1	-0.6075707
6	0x3dc6923b	0.0969586
7	0x3e2f6b0a	0.17130676
8	0x3ea50a69	0.32234505
9	0x3d1afb74	0.03783746
10	0xbeff1401	-0.4981995
11	0xbd00db7e	-0.031459324

predictor/l2/W f4 [6, 10]
0	0xbf22dc9a	-0.6361786
1	0x3e48c3fc	0.19606012
2	0xbd44efce	-0.048080258
3	0xbf1b9c4d	-0.6078537
4	0x3e836cd8	0.2566898
5	0x3e33630b	0.1751825
6	0x3f17e727	0.59337085
7	0x3eab7fa2	0.33495814
8	0x3ef3239f	0.47488114
9	0xbedbe374	-0.4294697
10	0xbe9cb750	-0.30608606
11	0x3e317f70	0.1733377
12	0xbd31001a	-0.043212987
13	0xbed16766	-0.408992
14	0x3e580093	0.21093969
15	0x3e5cecbb	0.2157468
16	0x3ef6a94b	0.48176035
17	0x3e94cf24	0.29064286
18	0x3ef243b8	0.4731729
19	0xbebc182f	-0.367372
20	0xbe8ae110	-0.27124834
21	0x3e65ff0d	0.22460575
22	0xbd31c4f7	-0.04340073
23	0xbf269dfb	-0.6508481
24	0x3e63b39f	0.22236489
25	0x3e3e3b26	0.18577251
26	0x3f18e648	0.5972638
27	0x3eb3b11d	0.35096064
28	0x3f0e3747	0.55553097
29	0xbefffe38	-0.4999864
30	0x3ee03924	0.43793595
31	0xbeab776e	-0.33489555
32	0xbece0a0c	-0.4024204
33	0x3f38231d	0.7192858
34	0xbf05bf20	-0.5224476
35	0xbeb1ad3d	-0.34702483
36	0xbeca5da7	-0.39524576
37	0xbead0e1f	-0.33799836
38	0xbee3b00d	-0.44470254
39	0x3f3b0ad2	0.73063385
40	0x3e27b5c6	0.16377935
41	0xbeab0134	-0.33399355
42	0xbeec667b	-0.46171936
43	0x3e9829b5	0.2971932
44	0xbedb529d	-0.42836466
45	0xbea1ae80	-0.31578445
46	0xbebfe769	-0.3748124
47	0xbea7c7c6	-0.32769603
48	0xbefb296a	-0.49055034
49	0x3e964f83	0.29357538
50	0xbf15651e	-0.5835742
51	0x3ec436c1	0.38323024
52	0x3ccf19fe	0.025280949
53	0xbeea947d	-0.45816413
54	0x3ecb319c	0.39686286
55	0x3ea9c71f	0.3315973
56	0x3ea501e9	0.3222802
57	0x3e6789ee	0.2261121
58	0x3c8ca17f	0.017166851
59	0xbf151e50	-0.5824938

predictor/bn1/avg_mean f4 [14]
0	0x401330d5	2.2998555
1	0x41ed9cdb	29.70159
2	0x3f0af579	0.5428081
3	0x3ec2b56c	0.3802904
4	0x42031e62	32.77967
5	0x3e508c09	0.20365919
6	0x3e132aab	0.14371745
7	0x3d3ec18b	0.046571296
8	0x3f142018	0.5786147
9	0x3eb511f5	0.35365263
10	0x3f257702	0.64634717
11	0x3e3e84d8	0.18605363
12	0x3da5f04d	0.08102474
13	0x3f3b10b6	0.73072374

predictor/bn1/avg_var f4 [14]
0	0x3f350e38	0.7072482
1	0x432d9144	173.56744
2	0x3fa57d16	1.2928798
3	0x3f251586	0.6448597
4	0x451978ad	2455.5422
5	0x3e266e91	0.16253115
6	0x3dfd9c28	0.123833
7	0x3d36a1a7	0.044587757
8	0x3e79caa7	0.24393712
9	0x3e6a2832	0.22866896
10	0x3e6a2832	0.22866896
11	0x3e1b60c7	0.15173636
12	0x3d9817eb	0.07426437
13	0x3e493294	0.196482
