model/model_3.npz (npz, 5312 bytes, 18 tensors)

predictor/bn3/avg_var f4 [6]
0.57484245 1.6202841 1.0184323 0.87100023 0.79973346 0.31814048
00000000: e028 133f 7865 cf3f fd5b 823f dff9 5e3f
00000010: 55bb 4c3f 4fe3 a23e

predictor/bn1/gamma f4 [14]
1.0 1.0 1.0 1.0 1.0 1.0 1.0 1.0
1.0 1.0 1.0 1.0 1.0 1.0
00000000: 0000 803f 0000 803f 0000 803f 0000 803f
00000010: 0000 803f 0000 803f 0000 803f 0000 803f
00000020: 0000 803f 0000 803f 0000 803f 0000 803f
00000030: 0000 803f 0000 803f

predictor/bn3/avg_mean f4 [6]
-0.27555263 0.30301744 0.19361095 -0.27316624 -0.17707661 0.038102813
00000000: 3c15 8dbe 1a25 9b3e f341 463e 72dc 8bbe
00000010: 9253 35be b211 1c3d

predictor/bn3/beta f4 [6]
-0.12767848 0.32035735 0.26191205 -0.06831332 0.10315864 0.056770753
00000000: 26be 02be e105 a43e 5619 863e dbe7 8bbd
00000010: d644 d33d 7388 683d

predictor/bn2/gamma f4 [10]
0.82214886 0.7692233 0.9727906 1.0851189 0.39002007 0.7527338 0.8835396 1.0160904
0.9676112 1.0305452
00000000: 5978 523f d1eb 443f ce08 793f 2de5 8a3f
00000010: b6b0 c73e 2ab3 403f a72f 623f 400f 823f
00000020: 5eb5 773f e8e8 833f

predictor/bn2/avg_var f4 [10]
1.331445 2.1935809 2.056629 70.423004 89.27274 1.8332791 0.81519204 0.8965985
0.84137607 1.072102
00000000: ca6c aa3f a163 0c40 cf9f 0340 94d8 8c42
00000010: a58b b242 e4a8 ea3f 6db0 503f 7b87 653f
00000020: 6c64 573f a33a 893f

predictor/l3/b f4 [2]
0.2644395 -0.26443967
00000000: 9d64 873e a364 87be

predictor/bn3/gamma f4 [6]
0.99614614 1.2441696 1.3721101 1.1721184 1.2318853 1.0676472
00000000: 6f03 7f3f f340 9f3f 4ea1 af3f fa07 963f
00000010: 6bae 9d3f aaa8 883f

predictor/bn2/avg_mean f4 [10]
-3.669534 -3.8110383 -3.2005692 -1.7183392 18.86289 -0.19557859 -2.2134013 -2.2552943
0.08114243 -0.15617944
00000000: a5d9 6ac0 0de8 73c0 20d6 4cc0 8af2 dbbf
00000010: 33e7 9641 c145 48be 5ea8 0dc0 be56 10c0
00000020: 012e a63d 81ed 1fbe

predictor/l1/b f4 [10]
-0.030886317 0.054062188 -0.038651448 -0.0005498997 -0.00024855763 -0.010048296 -0.020502495 -0.09003138
-0.013660647 -0.007946232
00000000: 4d05 fdbc 5070 5d3d fb50 1ebd 2527 10ba
00000010: d750 82b9 9ca1 24bc d9f4 a7bc 5f62 b8bd
00000020: e8d0 5fbc ea30 02bc

predictor/l2/b f4 [6]
0.0150513565 0.00584067 0.03870398 0.035975244 0.02710333 0.017229015
00000000: f799 763c 1763 bf3b 1188 1e3d c75a 133d
00000010: cd07 de3c dd23 8d3c

predictor/bn2/beta f4 [10]
-0.20478708 -0.3874992 -0.371745 -0.31236628 -0.75133765 0.04133954 -0.59307855 -0.7003956
-0.2053464 -0.28564712
00000000: b4b3 51be 4c66 c6be 5c55 bebe 79ee 9fbe
00000010: aa57 40bf a653 293d ffd3 17bf 204d 33bf
00000020: 5446 52be 5740 92be

predictor/l1/W f4 [10, 14]
-1.0584353 -0.020140044 -0.15468593 -0.04920845 -0.0074321926 0.26136366 0.45493963 1.5330936
-0.39608854 0.50259584 -0.4980511 -0.0763406 0.3433367 -0.13773675 -0.9613896 -0.02553947
-0.24536285 -0.13498914 0.003840266 0.00068356626 0.4385533 1.6210843 -0.5126183 0.6761509
-0.9983703 -0.23856336 0.39244917 -0.19715694 -0.7329719 -0.025550263 -0.26230288 -0.19007796
0.0035016832 0.2615077 0.7672355 1.6483517 -0.6748126 0.65379256 -0.493424 0.053361908
0.011371074 -0.48117885 0.43773177 0.06409534 0.13423243 0.22277322 -0.15563938 -1.1249027
-0.46022475 -1.9181765 0.1512338 -1.0621428 1.0668294 -0.82216334 -0.042445958 0.49793482
-0.123650536 0.5477617 0.654154 -0.25789016 0.10528204 0.41052416 -0.0043134573 -0.382325
-0.898629 1.325248 -0.5894409 -0.26632544 -0.14522853 -0.5333323 0.29583055 -0.03185283
-0.47602725 -0.4012258 0.02228804 0.034262087 0.4544785 0.36959994 -0.5342216 0.49851915
-0.1109438 0.4108513 0.066161044 -0.27223763 -0.6380283 -0.014890795 -0.20260698 0.053570546
-0.0007573926 0.16825898 0.43123937 1.6398476 -0.14122985 0.46053916 -0.4277809 -0.0010399364
-0.21176092 -0.1711154 -0.57264465 -0.0115768025 -0.20528214 -0.019359622 -0.0030095377 0.18805262
0.4300846 1.462862 -0.5819697 0.28045017 -0.4619113 0.08318723 0.11011254 0.011325382
0.081165686 0.00058097666 0.19462807 0.25019348 -0.013063267 0.041481927 -0.55344087 -0.7830499
-0.10011907 -0.43774906 0.59041756 -0.0745627 0.40638223 0.033669095 0.10523278 0.008607457
0.29457116 0.22750711 -0.009560107 -1.1646497 -0.5830491 -1.1624451 -0.36995605 -0.6451128
0.5104721 -0.28408027 0.6648868 -0.15983841
00000000: cf7a 87bf bcfc a4bc fd65 1ebe cd8e 49bd
00000010: c089 f3bb 75d1 853e d9ed e83e 693c c43f
00000020: 1ecc cabe 1faa 003f 8e00 ffbe 7658 9cbd
00000030: d4c9 af3e dd0a 0dbe a11d 76bf 2738 d1bc
00000040: 6640 7bbe 983a 0abe f9ac 7b3b 5b31 333a
00000050: 0f8a e03e b17f cf3f f43a 03bf 3a18 2d3f
00000060: 3295 7fbf f449 74be 19ef c83e 82e3 49be
00000070: 0ca4 3bbf c94e d1bc 904c 86be cca3 42be
00000080: 7f7c 653b 56e4 853e 8c69 443f 30fd d23f
00000090: 85c0 2cbf f35e 273f 12a2 fcbe 0492 5a3d
000000a0: be4d 3a3c 135d f6be 611e e03e 6b44 833d
000000b0: 3a74 093e aa1e 643e ee5f 1fbe d0fc 8fbf
000000c0: 94a2 ebbe cf86 f5bf 09dd 1a3e 4cf4 87bf
000000d0: de8d 883f 4c79 52bf d0db 2dbd 50f1 fe3e
000000e0: 7e3c fdbd 1c3a 0c3f a376 273f 2e0a 84be
000000f0: 1c9e d73d 3930 d23e e757 8dbb 1ac0 c3be
00000100: 8d0c 66bf baa1 a93f 99e5 16bf cf5b 88be
00000110: cab6 14be 7788 08bf 1a77 973e 1d78 02bd
00000120: d8b9 f3be 786d cdbe 6895 b63c 6756 0c3d
00000130: 68b1 e83e 343c bd3e bfc2 08bf e73d ff3e
00000140: 8136 e3bd 1a5b d23e 717f 873d bb62 8bbe
00000150: d355 23bf 85f8 73bc 3478 4fbe ca6c 5b3d
00000160: c28b 46ba 154c 2c3e 68cb dc3e 87e6 d13f
00000170: 8f9e 10be cacb eb3e 1906 dbbe 7a4e 88ba
00000180: dbd7 58be e038 2fbe d798 12bf a1ac 3dbc
00000190: 7b35 52be 1298 9ebc aa3b 45bb de90 403e
000001a0: 0c34 dc3e 103f bb3f f7fb 14bf 2a97 8f3e
000001b0: a37f ecbe 115e aa3d af82 e13d 188e 393c
000001c0: 323a a63d af4c 183a 954c 473e 5c19 803e
000001d0: 5007 56bc f4e8 293d 4dae 0dbf f575 48bf
000001e0: 3a0b cdbd a520 e0be 9b25 173f 54b4 98bd
000001f0: 5511 d03e 9be8 093d 4984 d73d 4b06 0d3c
00000200: 08d2 963e a0f7 683e ffa1 1cbc 3e13 95bf
00000210: b542 15bf 00cb 94bf e16a bdbe 1d26 25bf
00000220: 4dae 023f f872 91be 0536 2a3f aeac 23be

predictor/bn1/beta f4 [14]
0.0 0.0 0.0 0.0 0.0 0.0 0.0 0.0
0.0 0.0 0.0 0.0 0.0 0.0
00000000: 0000 0000 0000 0000 0000 0000 0000 0000
00000010: 0000 0000 0000 0000 0000 0000 0000 0000
00000020: 0000 0000 0000 0000 0000 0000 0000 0000
00000030: 0000 0000 0000 0000

predictor/l3/W f4 [2, 6]
0.48118135 0.05522844 -0.0031556638 0.5690014 0.30797547 -0.3650003 -0.33218467 0.63975716
0.5706044 -0.05300026 -0.14612864 0.39614797
00000000: 675d f63e 3737 623d 41cf 4ebb 13aa 113f
00000010: f6ae 9d3e 52e1 babe 1c14 aabe 20c7 233f
00000020: 2113 123f cd16 59bd bfa2 15be e8d3 ca3e

predictor/l2/W f4 [6, 10]
-0.35080084 -0.3207818 -0.18409047 0.13835205 -0.08044806 -0.3385631 -0.24434946 -0.18249261
0.11950626 0.13950132 0.40455413 0.58737516 0.29696843 -0.28915837 0.018232847 0.04315565
0.83096826 0.53177166 -0.46193618 -0.37096423 0.28780755 0.45106488 0.2173872 -0.29290882
0.084375836 0.026027646 0.620317 0.40190542 -0.4103675 -0.4308961 -0.3201949 -0.35641524
-0.25240538 0.21098305 -0.06766072 -0.44865507 -0.27364558 -0.26539958 0.19242892 0.2370854
-0.26044995 -0.35078564 -0.2242625 0.32714003 -0.11047662 -0.38914427 -0.24229388 -0.2573514
0.27460888 0.3182342 0.14150333 0.20797639 0.1216437 -0.2528713 0.093348704 0.011292734
0.26974347 0.24077725 -0.29348627 -0.30405474
00000000: 2b9c b3be 833d a4be 3682 3cbe 29ac 0d3e
00000010: f4c1 a4bd 2558 adbe bf36 7abe 58df 3abe
00000020: b3bf f43d 6fd9 0e3e b821 cf3e 385e 163f
00000030: 3f0c 983e 910c 94be 0d5d 953c fbc3 303d
00000040: 56ba 543f 3022 083f e682 ecbe 06ef bdbe
00000050: 835b 933e faf1 e63e c09a 5e3e 25f8 95be
00000060: 3dcd ac3d ee37 d53c 18cd 1e3f 8cc6 cd3e
00000070: b01b d2be 6a9e dcbe 96f0 a3be 0f7c b6be
00000080: 473b 81be f10b 583e b491 8abd 1eb6 e5be
00000090: 461b 8cbe 74e2 87be 160c 453e 84c6 723e
000000a0: b259 85be 2d9a b3be 12a5 65be e67e a73e
000000b0: 9141 e2bd eb3d c7be e31b 78be 90c3 83be
000000c0: 8999 8c3e 98ef a23e 40e6 103e c3f7 543e
000000d0: 5520 f93d 5978 81be 9b2d bf3d 2905 393c
000000e0: d11b 8a3e 508e 763e d543 96be 10ad 9bbe

predictor/bn1/avg_mean f4 [14]
2.3058505 29.72377 0.526904 0.38693687 32.418495 0.20380592 0.14491013 0.044754762
0.579585 0.3541967 0.64580286 0.18726102 0.08196941 0.7284386
00000000: 0e93 1340 48ca ed41 2ee3 063f 971c c63e
00000010: 8aac 0142 80b2 503e 5263 143e c550 373d
00000020: af5f 143f 4559 b53e 5653 253f 5ac1 3f3e
00000030: 94df a73d f47a 3a3f

predictor/bn1/avg_var f4 [14]
0.69846606 169.82892 1.2428176 0.6653385 2468.0703 0.16113192 0.124416724 0.042575054
0.24324566 0.2271842 0.22718424 0.1517917 0.075485885 0.19766504
00000000: acce 323f 34d4 2943 a614 9f3f a053 2a3f
00000010: 2041 1a45 c4ff 243e 32ce fe3d 2e63 2e3d
00000020: 6415 793e faa2 683e fca2 683e 496f 1b3e
00000030: 5898 9a3d b468 4a3e
