model/model_8.npz (npz, 5311 bytes, 18 tensors)

predictor/bn3/avg_var f4 [6]
0	0x3f98f393	1.1949333
1	0x3fcdd1ee	1.607969
2	0x3f8acb9d	1.0843388
3	0x3fd92d4a	1.6966946
4	0x3fc2389c	1.5173526
5	0x3eb53f2b	0.35399756

predictor/bn1/gamma f4 [14]
0	0x3f800000	1.0
1	0x3f800000	1.0
2	0x3f800000	1.0
3	0x3f800000	1.0
4	0x3f800000	1.0
5	0x3f800000	1.0
6	0x3f800000	1.0
7	0x3f800000	1.0
8	0x3f800000	1.0
9	0x3f800000	1.0
10	0x3f800000	1.0
11	0x3f800000	1.0
12	0x3f800000	1.0
13	0x3f800000	1.0

predictor/bn3/avg_mean f4 [6]
0	0x3ebea033	0.37231597
1	0xbc7e2867	-0.015512562
2	0x3adeeec8	0.0017008418
3	0xbdeddb5b	-0.11614104
4	0x3df228ef	0.11824214
5	0xbe8804bf	-0.2656612

predictor/bn3/beta f4 [6]
0	0xbd9ba8b7	-0.07600539
1	0x3e049915	0.12949021
2	0x3d2dad45	0.04240157
3	0x3dcedd73	0.10100832
4	0x3e0958dd	0.13412805
5	0xbe3d869b	-0.18508379

predictor/bn2/gamma f4 [10]
0	0x3fa44f49	1.2836696
1	0x3f9c407d	1.220718
2	0x3f550496	0.8321012
3	0x3f5ea34b	0.86967915
4	0x3f875ac6	1.0574577
5	0x3f4c3ac6	0.7977718
6	0x3f88663f	1.0656203
7	0x3f439d17	0.76411575
8	0x3f7092a3	0.9397375
9	0x3f98f571	1.1949903

predictor/bn2/avg_var f4 [10]
0	0x3f21659c	0.6304567
1	0x3f13bbf3	0.5770866
2	0x41904e32	18.038181
3	0x3f477bce	0.77923286
4	0x44009fd5	514.4974
5	0x4443c30b	783.04755
6	0x435da535	221.64534
7	0x419276f6	18.308086
8	0x438332fc	262.39832
9	0x3f5df5e2	0.8670331

predictor/l3/b f4 [2]
0	0x3e2e6eb6	0.1703442
1	0xbe2e6eb6	-0.1703442

predictor/bn3/gamma f4 [6]
0	0x3f5d5a59	0.86465985
1	0x3f8fb15d	1.1226002
2	0x3f901f0f	1.1259478
3	0x3f8c3eea	1.09567
4	0x3f8ca0cd	1.0986573
5	0x3f5b8101	0.8574372

predictor/bn2/avg_mean f4 [10]
0	0x3eaa64f0	0.33280134
1	0xbfd82829	-1.6887256
2	0xbfe7125e	-1.805248
3	0xbfbd0e8a	-1.4770062
4	0x40695f3e	3.6464381
5	0x41f9ae4e	31.21011
6	0xbfbbc91e	-1.4670751
7	0xc0fb7f7a	-7.859311
8	0xc16d00b1	-14.812669
9	0x3f99b745	1.2009054

predictor/l1/b f4 [10]
0	0x3b1ff86c	0.0024409546
1	0x3b394eb5	0.0028275673
2	0x38d73a16	0.00010262818
3	0x3be77c67	0.0070643905
4	0x3884e29f	6.336462e-05
5	0x39b9bef2	0.00035428215
6	0x38ab3f04	8.165653e-05
7	0x38834369	6.259123e-05
8	0xb9744589	-0.00023295557
9	0x3be1bb05	0.0068887495

predictor/l2/b f4 [6]
0	0xba94a7eb	-0.0011341547
1	0xbac03605	-0.0014664537
2	0x3b896940	0.004193455
3	0xbb841526	-0.0040308414
4	0x3b1519c0	0.0022750944
5	0x3b1cf185	0.0023947668

predictor/bn2/beta f4 [10]
0	0x3e50919a	0.20368043
1	0x3e1acbc3	0.15116791
2	0xbe3049a6	-0.17215595
3	0xbd49b050	-0.04924041
4	0x3e1fab87	0.15592776
5	0xbd21f8fd	-0.039544094
6	0xbd9bc570	-0.076060176
7	0xbe753d29	-0.23949112
8	0xbcec69f8	-0.028859124
9	0x3e138719	0.14407004

predictor/l1/W f4 [10, 14]
0	0xbe4f935f	-0.20271061
1	0x3a0fc119	0.0005483791
2	0x3e81ff42	0.2539006
3	0x3e954942	0.29157454
4	0xbb408ad8	-0.0029379632
5	0x3da49e99	0.080380626
6	0xbe3f935a	-0.18708554
7	0xbf078c26	-0.52948225
8	0x3eeaf30c	0.45888555
9	0xbf10aa24	-0.56509614
10	0x3f2a2ee7	0.6647782
11	0xbce0deb9	-0.027449952
12	0x3e019d13	0.12657575
13	0x3be35e3c	0.006938724
14	0xbe99f4fb	-0.30069718
15	0xbca69f63	-0.020339673
16	0xbe78b26c	-0.24286813
17	0xbe3a710e	-0.1820719
18	0xba187e20	-0.0005817134
19	0xbd6c5167	-0.05769482
20	0x3ed2ed99	0.41196898
21	0x3f2ea017	0.6821303
22	0xbe7465fb	-0.23867027
23	0x3ee1db80	0.44112778
24	0xbee61cc2	-0.44943815
25	0x3e81b785	0.25335327
26	0x3d519181	0.051164154
27	0xbde549e0	-0.11195731
28	0xbd74c250	-0.059755623
29	0xbdfa7d21	-0.12230898
30	0xbddf0588	-0.10889727
31	0xbde7104b	-0.112824045
32	0x3d9dcc4c	0.07704982
33	0x3e2644e0	0.16237211
34	0xbf211929	-0.62929016
35	0x3e1f4564	0.15553814
36	0xbdc722d9	-0.097234435
37	0xbe18d6eb	-0.14925735
38	0xbdea7f62	-0.114500776
39	0x3ee9f399	0.45693663
40	0xbb2e9f3a	-0.00266452
41	0xbec9dc19	-0.39425734
42	0xbeee5214	-0.46546996
43	0xbcba566b	-0.022746285
44	0xbeaf23e1	-0.3420706
45	0xbc9e2c87	-0.019308342
46	0x3c0cc4ea	0.00859187
47	0xbcf9553d	-0.030436153
48	0x3ef998e9	0.48749474
49	0x3d5bfdb0	0.053708732
50	0x3e8335a2	0.25626856
51	0x3e93c2ad	0.28859463
52	0xbedb8b60	-0.42879772
53	0x3e5f9564	0.21834332
54	0xbe07bc62	-0.13255456
55	0x3e342757	0.17593132
56	0xbe9b0ae8	-0.30281758
57	0xbeade670	-0.33964872
58	0xbe2af59d	-0.16695257
59	0xbe96cc2f	-0.29452655
60	0x3eddaef6	0.43297547
61	0x3e60d87c	0.21957582
62	0x3e2fa88f	0.17154144
63	0xbe66b2ae	-0.22529098
64	0x3deb34ca	0.11484678
65	0xbde74281	-0.112919815
66	0x3ef16f44	0.471552
67	0xbcaca869	-0.021076398
68	0xbe700bb0	-0.23441958
69	0x3c2a74c6	0.0104038175
70	0xbe4e1a54	-0.20127231
71	0x3f0596a7	0.52183
72	0xbe83b353	-0.2572275
73	0xbd058d2b	-0.03260533
74	0x3f003d48	0.5009351
75	0x3f247c3a	0.64252055
76	0x3f14ae01	0.5807801
77	0xbe725007	-0.2366334
78	0xbf27b21a	-0.65506136
79	0x3eb7d545	0.359049
80	0xbea1ab4a	-0.31575996
81	0x3e882f33	0.2659851
82	0xbef818aa	-0.48456317
83	0x3d01196d	0.03151839
84	0x3f45b120	0.77223396
85	0x3e355028	0.17706358
86	0xbe8c0a23	-0.27351484
87	0xbe7ee36d	-0.24891444
88	0xbe883c13	-0.26608333
89	0xbf05a378	-0.5220256
90	0xbe421d7e	-0.18956563
91	0xbe7ee6e9	-0.24892773
92	0x3f7bd983	0.9837877
93	0xbec56e27	-0.38560602
94	0x3f07d463	0.5305845
95	0xbeca6d00	-0.39536285
96	0xbdea45cc	-0.11439094
97	0x3e284f43	0.16436486
98	0xbe197704	-0.14986807
99	0xbe25f35d	-0.16206117
100	0xbe3c1f30	-0.18371272
101	0x3ebe3e0f	0.37156722
102	0xbd8f515a	-0.069979385
103	0x3e87490e	0.26422924
104	0x3f6a0326	0.91411054
105	0x3d9de016	0.077087566
106	0x3d449380	0.04799223
107	0x3ea1eb52	0.31624848
108	0xbf11f19c	-0.5700929
109	0x3e509942	0.20370963
110	0xbdfde6e2	-0.12397553
111	0xbeee7721	-0.46575263
112	0x3e4de23b	0.20105831
113	0xbe53dd18	-0.2068981
114	0xbe8e2999	-0.27766111
115	0xbe90a08d	-0.2824749
116	0xbe96472e	-0.2935118
117	0x3dd28f72	0.10281266
118	0x3bd98aba	0.006638852
119	0x3eb95141	0.36194804
120	0x3f230086	0.63672674
121	0xbe89aa26	-0.26887625
122	0x3e9b38cc	0.3031677
123	0x3c03310d	0.0080073
124	0xbe03ebe5	-0.12882955
125	0x3ee1c468	0.4409516
126	0x3e8e3f07	0.2778246
127	0x3bca7198	0.006178092
128	0x3e793056	0.24334845
129	0x3e44d72c	0.19222707
130	0xbc0527f5	-0.008127202
131	0xbec54a28	-0.3853314
132	0xbe02ee89	-0.12786306
133	0xbdd9bbed	-0.10631547
134	0x3f16a8fc	0.588516
135	0x3df09ae6	0.117482945
136	0x3ef21800	0.47283936
137	0xbea79658	-0.3273189
138	0x3cfbd946	0.030743252
139	0xbdd0532d	-0.101721145

predictor/bn1/beta f4 [14]
0	0x00000000	0.0
1	0x00000000	0.0
2	0x00000000	0.0
3	0x00000000	0.0
4	0x00000000	0.0
5	0x00000000	0.0
6	0x00000000	0.0
7	0x00000000	0.0
8	0x00000000	0.0
9	0x00000000	0.0
10	0x00000000	0.0
11	0x00000000	0.0
12	0x00000000	0.0
13	0x00000000	0.0

predictor/l3/W f4 [2, 6]
0	0x3f339f8e	0.70165336
1	0x3ec73262	0.38905627
2	0x3d790ed3	0.060805153
3	0xbdfd9cc6	-0.12383418
4	0xbebefe25	-0.37303272
5	0x3d046aef	0.032328542
6	0x3e012bf2	0.1261442
7	0xbe4bf487	-0.19917499
8	0x3eb9ca14	0.36286986
9	0xbf196ec3	-0.59934634
10	0xbd69b30e	-0.057055525
11	0x3ede9828	0.4347546

predictor/l2/W f4 [6, 10]
0	0x3ea024f3	0.3127819
1	0xbd86304d	-0.065521814
2	0x3c0d3887	0.008619434
3	0x3e2f75b3	0.17134742
4	0xbf0c51eb	-0.54812497
5	0xbd87989f	-0.06620907
6	0x3f319bbf	0.69378275
7	0xbf3ff94d	-0.7498978
8	0x3f1b950f	0.6077432
9	0x3e0a08b6	0.13479885
10	0x3e2fc32e	0.17164299
11	0xbe23de06	-0.16002664
12	0xbe4df18a	-0.20111671
13	0xbf0c8526	-0.5489067
14	0xbd034cea	-0.032055773
15	0xbf0c0a00	-0.5470276
16	0x3e76a33d	0.24085708
17	0x3de0bce9	0.10973532
18	0x3c8fb2f9	0.017541396
19	0x3ecfde61	0.4059935
20	0xbeb0c732	-0.34526974
21	0x3ebf6309	0.37380245
22	0xbef31680	-0.47478104
23	0x3dff5ae5	0.12468509
24	0x3edfb4bf	0.43692586
25	0x3de3e9b8	0.11128563
26	0xbdd4b9a0	-0.10386968
27	0x3e58aae0	0.21158934
28	0xbc3ed4c2	-0.011647405
29	0xbdf49da5	-0.11944131
30	0x3ea708d9	0.32623938
31	0xbe9b4684	-0.30327237
32	0xbe271cc9	-0.16319574
33	0xbdf86ad2	-0.12129749
34	0xbf2f0b3a	-0.68376505
35	0x3e16e698	0.14736402
36	0xbe75c28d	-0.23999996
37	0xbcadd50e	-0.021219756
38	0x3df6f328	0.12058097
39	0x3e9077fd	0.28216544
40	0xbe777548	-0.24165833
41	0x3f159bba	0.58440745
42	0x3e058ce3	0.13042025
43	0x3e98289e	0.29718488
44	0xbe48b91c	-0.19601864
45	0x3eca57d7	0.3952014
46	0xbe9dd8b4	-0.30829394
47	0xbe0a56f0	-0.13509727
48	0x3e984a2f	0.29744098
49	0xbe95457b	-0.29154572
50	0xbe1a0b98	-0.15043485
51	0x3e0be99f	0.13663338
52	0xbe7d9baf	-0.2476642
53	0x3e244afc	0.1604423
54	0xbe892275	-0.267841
55	0x3d9d2914	0.07673851
56	0xbe8f31da	-0.2796772
57	0x3ec9f6ec	0.394462
58	0xbceddea6	-0.029036831
59	0xbe3f89f4	-0.18704969

predictor/bn1/avg_mean f4 [14]
0	0x40138b81	2.3053896
1	0x41ed7b7b	29.685293
2	0x3f056811	0.5211192
3	0x3ec03ea0	0.3754778
4	0x4204048d	33.004444
5	0x3e4c0e00	0.19927216
6	0x3e110fac	0.14166135
7	0x3d3b01cc	0.04565601
8	0x3f1694dc	0.5882089
9	0x3eb119e7	0.34590074
10	0x3f277309	0.65409905
11	0x3e3f2b2c	0.18668813
12	0x3db3463f	0.08753633
13	0x3f394a33	0.72378844

predictor/bn1/avg_var f4 [14]
0	0x3f33cc28	0.7023339
1	0x43246ceb	164.42546
2	0x3f9e90d8	1.2387953
3	0x3f1f2902	0.6217195
4	0x452c2298	2754.162
5	0x3e231473	0.1592577
6	0x3dfac5fb	0.12244793
7	0x3d32b6eb	0.043631475
8	0x3e7768b8	0.24161041
9	0x3e676280	0.22596169
10	0x3e67627f	0.22596167
11	0x3e1c830f	0.1528437
12	0x3da3e387	0.08002382
13	0x3e4dc5aa	0.20094934
