model/model_7.npz (npz, 5307 bytes, 18 tensors)

predictor/bn3/avg_var f4 [6]
0.31631434 1.0000091 0.34010077 1.3378365 0.94836205 0.38917828
00000000: f4f3 a13e 4c00 803f b021 ae3e 3a3e ab3f
00000010: dbc7 723f 6042 c73e

predictor/bn1/gamma f4 [14]
1.0 1.0 1.0 1.0 1.0 1.0 1.0 1.0
1.0 1.0 1.0 1.0 1.0 1.0
00000000: 0000 803f 0000 803f 0000 803f 0000 803f
00000010: 0000 803f 0000 803f 0000 803f 0000 803f
00000020: 0000 803f 0000 803f 0000 803f 0000 803f
00000030: 0000 803f 0000 803f

predictor/bn3/avg_mean f4 [6]
-0.06543633 -0.12471272 -0.12960115 0.53696144 -0.18812464 -0.05008606
00000000: 7c03 86bd 6269 ffbd 2ab6 04be 4e76 093f
00000010: bfa3 40be 0a27 4dbd

predictor/bn3/beta f4 [6]
0.098290555 0.065089256 0.087972604 0.34051898 0.021998713 0.032548726
00000000: 8f4c c93d 844d 853d fb2a b43d 8158 ae3e
00000010: a536 b43c d051 053d

predictor/bn2/gamma f4 [10]
1.022673 0.5824368 1.0380536 0.6898284 0.90081006 0.9989366 0.7496579 1.3648192
0.8219678 1.2458918
00000000: f3e6 823f 941a 153f f1de 843f 9898 303f
00000010: 7d9b 663f 4fba 7f3f 95e9 3f3f 65b2 ae3f
00000020: 7b6c 523f 6279 9f3f

predictor/bn2/avg_var f4 [10]
1.7103411 3.7084382 2.4034338 3.9926374 3.1120965 1.1012071 0.4834926 5.191478
0.7231653 2.997548
00000000: 75ec da3f 0d57 6d40 dcd1 1940 5f87 7f40
00000010: 972c 4740 5bf4 8c3f 588c f73e 9620 a640
00000020: 5c21 393f d4d7 3f40

predictor/l3/b f4 [2]
0.67336476 -0.6733649
00000000: a261 2c3f a461 2cbf

predictor/bn3/gamma f4 [6]
1.345445 1.0486095 1.3546284 0.6540225 1.2242597 1.0384858
00000000: 8b37 ac3f d638 863f 7764 ad3f 056e 273f
00000010: 8bb4 9c3f 1aed 843f

predictor/bn2/avg_mean f4 [10]
0.8016825 -0.78098 3.1003919 -8.640565 -4.2570696 -1.6794784 -1.7450157 0.9849189
-1.524878 0.64879113
00000000: 103b 4d3f 4eee 47bf d26c 4640 c13f 0ac1
00000010: ea39 88c0 26f9 d6bf ad5c dfbf a523 7c3f
00000020: 342f c3bf 2d17 263f

predictor/l1/b f4 [10]
0.008544055 0.0073258276 0.0012155034 0.0898562 0.0072235405 0.044123758 0.053621296 -0.0023604676
-0.020370541 0.029622998
00000000: 5dfc 0b3c 7f0d f03b 8751 9f3a 8706 b83d
00000010: 73b3 ec3b 1dbb 343d 01a2 5b3d 13b2 1abb
00000020: 1fe0 a6bc eeab f23c

predictor/l2/b f4 [6]
0.00017164914 0.0062744888 -0.037844975 -0.008745048 0.02032235 0.044546664
00000000: b7fc 3339 3a9a cd3b 5503 1bbd 6447 0fbc
00000010: 0f7b a63c 9076 363d

predictor/bn2/beta f4 [10]
-0.23850362 -0.6410367 -0.038985603 -0.72721356 -0.49267137 -0.7621087 -0.40637994 -0.24077916
-0.5020871 -0.22174904
00000000: 4b3a 74be fb1a 24bf 5eaf 1fbd ab2a 3abf
00000010: 6c3f fcbe 8e19 43bf 0811 d0be d08e 76be
00000020: c888 00bf 2e12 63be

predictor/l1/W f4 [10, 14]
0.29182327 0.019017546 0.019871294 0.4991339 -0.014003319 -0.36868796 -0.7408361 -1.3879441
0.19171196 -0.81671816 0.36367273 0.04443643 0.35040295 -0.042100072 -0.4457408 0.023895843
0.18911916 -1.0252521 0.010894187 0.5079319 0.77097005 0.22884358 -0.6867661 1.1813318
-0.815018 -0.34673992 0.36593494 -0.4546141 0.860447 0.028029345 -0.15578565 0.3792456
-0.0040037464 -0.77994776 -0.5163932 -1.3207941 0.5671095 -0.68878657 0.59618175 0.10971217
0.025072046 0.27001426 -1.4197116 -0.12404637 -0.43662262 0.26889193 -0.027596183 -0.4257597
1.1138275 0.46804965 -0.6440395 0.21029317 -0.35874155 0.3720073 0.18676522 -0.5887547
-1.1087922 -0.02953851 -0.16680299 -0.06354965 -0.0031763008 0.4198013 0.69983023 1.909142
-0.73033583 0.87108713 -0.8739996 -0.15176506 0.26550147 -0.33340204 -0.5505058 -0.005348658
-0.21248466 0.016561825 -0.0022050154 0.026693735 0.23105223 1.8037754 -0.69096524 0.7877112
-0.25515684 0.053783417 -0.014910073 -0.011167056 -0.58281976 -0.005318907 -0.24390192 -0.010653877
-0.0019359956 -0.049107105 0.27708766 1.8282417 0.121516235 0.2567889 -0.73419464 0.07286632
0.07161373 0.07629296 0.38715255 0.012066007 0.546011 0.73634267 -0.031430975 0.17449614
-1.2424383 -1.3277316 0.59142154 -1.0427117 0.61375296 -0.30316862 0.32967782 0.08832376
-0.5680652 -0.003403979 -0.19381367 -0.029837236 -0.0015395527 0.051320683 0.20074911 1.7203258
-0.22369057 0.6678312 -0.356955 0.10086001 0.17044911 0.016833173 0.29963052 0.013612885
0.3793861 0.24702364 -0.0266254 0.22639117 -0.69541687 -1.0589846 -0.1661202 -0.72999966
0.6099322 -0.20162098 0.09240604 0.29098192
00000000: dc69 953e afca 9b3c 20c9 a23c 7b8e ff3e
00000010: 2d6e 65bc abc4 bcbe 6fa7 3dbf 27a8 b1bf
00000020: 2450 443e 7114 51bf 5033 ba3e f902 363d
00000030: 0468 b33e 2071 2cbd 2338 e4be 37c1 c33c
00000040: 74a8 413e 763b 83bf 887d 323c d307 023f
00000050: 4b5e 453f f955 6a3e e7cf 2fbf e135 973f
00000060: 05a5 50bf e587 b1be d35b bb3e 2ec3 e8be
00000070: 4146 5c3f cc9d e53c 4686 1fbe 7b2c c23e
00000080: dc31 83bb a8aa 47bf 5832 04bf c80f a9bf
00000090: 172e 113f 5154 30bf 5e9f 183f c6b0 e03d
000000a0: e463 cd3c 4f3f 8a3e 1cb9 b5bf 060c febd
000000b0: 008d dfbe 34ac 893e 6411 e2bc 2dfd d9be
000000c0: e691 8e3f 34a4 ef3e c6df 24bf 1857 573e
000000d0: f9ac b7be be77 be3e 623f 3f3e a1b8 16bf
000000e0: e7ec 8dbf bffa f1bc 67ce 2abe 5226 82bd
000000f0: 7c29 50bb 32f0 d63e 1328 333f c45e f43f
00000100: 4af7 3abf 91ff 5e3f 70be 5fbf 4d68 1bbe
00000110: cfef 873e acb3 aabe f3ed 0cbf cc43 afbb
00000120: 9495 59be aaac 873c 0582 10bb d2ac da3c
00000130: f598 6c3e 1de2 e63f 19e3 30bf 71a7 493f
00000140: eba3 82be 004c 5c3d 6149 74bc 07f6 36bc
00000150: ad33 15bf 3a4a aebb 6dc1 79be 998d 2ebc
00000160: 3cc1 fdba 8824 49bd 6fde 8d3e d303 ea3f
00000170: 81dd f83d d679 833e 2ef4 3bbf f03a 953d
00000180: 38aa 923d 7c3f 9c3d dc38 c63e 80b0 453c
00000190: 60c7 0b3f f480 3c3f c4bd 00bd 1eaf 323e
000001a0: 3808 9fbf 1cf3 a9bf 6767 173f 9477 85bf
000001b0: ea1e 1d3f eb38 9bbe 88cb a83e 16e3 b43d
000001c0: b96c 11bf 4a15 5fbb 1777 46be 386d f4bc
000001d0: d1ca c9ba a335 523d 2d91 4d3e a333 dc3f
000001e0: 240f 65be fcf6 2a3f cec2 b6be b18f ce3d
000001f0: 368a 2e3e b9e5 893c 2c69 993e 9408 5f3c
00000200: e53e c23e c4f3 7c3e 831d dabc 16d3 673e
00000210: d706 32bf cf8c 87bf 6a1b 2abe 42e1 3abf
00000220: 8424 1c3f bb75 4ebe 613f bd3d 95fb 943e

predictor/bn1/beta f4 [14]
0.0 0.0 0.0 0.0 0.0 0.0 0.0 0.0
0.0 0.0 0.0 0.0 0.0 0.0
00000000: 0000 0000 0000 0000 0000 0000 0000 0000
00000010: 0000 0000 0000 0000 0000 0000 0000 0000
00000020: 0000 0000 0000 0000 0000 0000 0000 0000
00000030: 0000 0000 0000 0000

predictor/l3/W f4 [2, 6]
0.34865105 -0.22624792 0.03084111 0.10080716 -0.47242698 -0.45707822 0.9031712 0.47431594
0.5878696 -0.33607322 0.1818856 0.26325977
00000000: 6482 b23e 89ad 67be 7fa6 fc3c fc73 ce3d
00000010: f3e1 f1be 2806 eabe 3a36 673f 8ad9 f23e
00000020: 9f7e 163f ca11 acbe 3840 3a3e fcc9 863e

predictor/l2/W f4 [6, 10]
-0.2098398 0.4348193 -0.15526175 0.44452286 0.13445593 0.21780653 0.19701584 -0.14998306
0.18733145 -0.16527635 -0.32479814 0.7909715 -0.23175943 0.6904036 0.25910732 0.33556682
0.35420364 -0.38618955 0.32166287 -0.28576818 -0.2256828 0.40274626 -0.16209301 0.42312497
0.156831 0.18364358 0.19345845 -0.17519312 0.19496332 -0.19464359 0.77474254 -0.13738063
0.1552638 -0.15566735 -0.23230399 -0.1979916 -0.09227639 0.52234817 -0.2885555 0.72420454
-0.46626708 0.6289199 -0.3055812 0.4997127 0.21640216 0.3593581 0.30271304 -0.2717133
0.29102004 -0.32658628 -0.2284604 0.4028267 -0.19066069 0.45393682 0.15849116 0.23463365
0.2147792 -0.1779825 0.1986347 -0.1951344
00000000: 3fe0 56be a3a0 de3e f0fc 1ebe 8098 e33e
00000010: d1ae 093e ad08 5f3e 85be 493e 2995 19be
00000020: d1d3 3f3e 343e 29be f14b a6be 1c7d 4a3f
00000030: 5852 6dbe 4abe 303f b7a9 843e 6acf ab3e
00000040: 2e5a b53e a3ba c5be ffb0 a43e 3550 92be
00000050: 6419 67be c234 ce3e b6fb 25be d6a3 d83e
00000060: 4e98 203e 100d 3c3e f919 463e d365 33be
00000070: 77a4 473e a650 47be 8755 463f 82ad 0cbe
00000080: 79fd 1e3e 4367 1fbe 19e1 6dbe 4fbe 4abe
00000090: 67fb bcbd 9cb8 053f 8cbd 93be 7865 393f
000000a0: 8fba eebe e500 213f 2475 9cbe 58da ff3e
000000b0: 8798 5d3e c9fd b73e 34fd 9a3e 011e 8bbe
000000c0: 9400 953e 5136 a7be 86f1 69be 4d3f ce3e
000000d0: 8e3c 43be 686a e83e 824b 223e ce43 703e
000000e0: 14ef 5b3e 0b41 36be e566 4b3e 50d1 47be

predictor/bn1/avg_mean f4 [14]
2.3140247 29.730267 0.5154188 0.3772988 31.808096 0.20597203 0.14378116 0.042979166
0.5784142 0.35517752 0.6448223 0.1904379 0.089878395 0.7165893
00000000: fb18 1440 96d7 ed41 7df2 033f 4f2d c13e
00000010: fb76 fe41 55ea 523e 5e3b 133e ec0a 303d
00000020: f412 143f d4d9 b53e 1313 253f 2702 433e
00000030: 2a12 b83d 6572 373f

predictor/bn1/avg_var f4 [14]
0.69655204 168.73416 1.1783848 0.64386225 2371.4146 0.16324061 0.12307624 0.041367892
0.24396417 0.22920895 0.22920895 0.15463813 0.081446975 0.20351672
00000000: 3c51 323f f2bb 2843 50d5 963f 28d4 243f
00000010: a236 1445 8c28 273e 650f fc3d 6171 293d
00000020: bed1 793e c0b5 6a3e c0b5 6a3e 7559 1e3e
00000030: accd a63d b066 503e
