model/model_0.npz (npz, 5314 bytes, 18 tensors)

predictor/bn3/avg_var f4 [6]
0.69544446 0.7795883 0.19992314 0.33945155 0.27123615 0.60727286
00000000: a608 323f 1993 473f a7b8 4c3e 98cc ad3e
00000010: 77df 8a3e 3c76 1b3f

predictor/bn1/gamma f4 [14]
1.0 1.0 1.0 1.0 1.0 1.0 1.0 1.0
1.0 1.0 1.0 1.0 1.0 1.0
00000000: 0000 803f 0000 803f 0000 803f 0000 803f
00000010: 0000 803f 0000 803f 0000 803f 0000 803f
00000020: 0000 803f 0000 803f 0000 803f 0000 803f
00000030: 0000 803f 0000 803f

predictor/bn3/avg_mean f4 [6]
0.3366242 -0.43280825 0.21482581 0.23873675 0.16947302 -0.44894063
00000000: 025a ac3e 0b99 ddbe 4cfb 5b3e 6877 743e
00000010: 568a 2d3e 8cdb e5be

predictor/bn3/beta f4 [6]
0.40475893 -0.36475417 0.3430831 0.34055498 0.39092666 -0.2964963
00000000: 903c cf3e 0fc1 babe 97a8 af3e 395d ae3e
00000010: 8a27 c83e 5dce 97be

predictor/bn2/gamma f4 [10]
1.047444 0.9425186 0.9190849 0.7904398 0.7481897 1.0476193 0.91365635 0.6562984
0.86261445 0.66028327
00000000: a512 863f e648 713f 2649 6b3f 435a 4a3f
00000010: 5c89 3f3f 6418 863f 62e5 693f 2c03 283f
00000020: 4dd4 5c3f 5308 293f

predictor/bn2/avg_var f4 [10]
0.6420949 0.74613154 4.259597 3.396271 3.5169713 0.930601 0.45728487 7.522077
2.271851 2.0105157
00000000: 5560 243f 7a02 3f3f 9e4e 8840 815c 5940
00000010: 0f16 6140 de3b 6e3f 3e21 ea3e dbb4 f040
00000020: 0266 1140 4aac 0040

predictor/l3/b f4 [2]
0.4275619 -0.42756215
00000000: 65e9 da3e 6de9 dabe

predictor/bn3/gamma f4 [6]
1.0305978 1.2701094 1.095623 1.1591936 1.1242735 1.0354253
00000000: a1ea 833f f292 a23f 603d 8c3f 7560 943f
00000010: 32e8 8f3f d188 843f

predictor/bn2/avg_mean f4 [10]
-2.1230602 -1.1254631 0.914151 -4.373724 -0.5240234 -2.9194686 -0.7612904 -1.1853561
-3.4129074 -5.052141
00000000: 38e0 07c0 2d0f 90bf cd05 6a3f 8cf5 8bc0
00000010: 6626 06bf 93d8 3ac0 ede3 42bf c0b9 97bf
00000020: 136d 5ac0 24ab a1c0

predictor/l1/b f4 [10]
0.012786577 -0.0019081794 -0.009470536 0.0026651185 -0.0043451325 -0.035267726 0.025994558 -0.0050880318
-0.07453212 -0.022709506
00000000: cb7e 513c e01b faba 4f2a 1bbc 45a9 2e3b
00000010: 9d61 8ebb e474 10bd 8af2 d43c 81b9 a6bb
00000020: 4ca4 98bd 4909 babc

predictor/l2/b f4 [6]
0.01379791 0.022338374 0.07767232 0.075526446 -0.012355877 -0.050371274
00000000: a110 623c f7fe b63c aa12 9f3d 9cad 9a3d
00000010: 4e70 4abc 1c52 4ebd

predictor/bn2/beta f4 [10]
-0.18327841 -0.65313315 -0.26010874 -0.49201503 0.22092722 -0.043256648 -0.64750093 -0.6129656
-0.4894703 -0.7117139
00000000: 56ad 3bbe bc33 27bf f92c 85be 65e9 fbbe
00000010: bf3a 623e e22d 31bd 9fc2 25bf 50eb 1cbf
00000020: da9b fabe e232 36bf

predictor/l1/W f4 [10, 14]
-0.64249885 -0.008916941 -0.13879147 -0.02666296 -0.0017860583 0.076686196 0.07885159 1.1773155
-0.043565866 0.46052924 -0.5629201 -0.031324245 0.050291806 -0.18771404 -0.40565175 0.0008161772
-0.26027343 -0.04327596 -0.0021371995 0.007425422 0.16479144 1.5847119 -0.5742084 0.6303718
-0.19786973 0.10214027 0.31419998 0.100646 0.35388264 0.012032233 0.5671313 0.108811475
-0.027654009 -0.10997877 -1.2597837 -1.0555903 0.10081334 -1.054549 0.5281794 -0.1283559
0.5920143 0.60032594 -0.9212399 -0.060315814 -0.44657508 -0.0018459841 0.0051512355 0.28072298
1.2182671 1.4522243 -1.0266476 0.72018015 -0.322101 -0.11835008 -0.5882932 -0.11670834
-0.3501229 0.0012718227 -0.5790924 -0.47271195 0.024893058 0.35937417 0.85670084 -0.087155275
0.08880626 0.23435132 -0.93419987 0.31064305 -0.5044852 0.19048314 -0.84122103 -0.012332504
0.04067419 -0.11192529 -0.0042370306 0.034065142 0.36200404 0.3788375 0.012941769 0.33973598
-0.8744156 0.023860201 0.22845988 -0.14806451 -0.33378446 -0.0028653827 -0.3651011 -0.07407751
-0.0010874771 0.06332413 0.40279207 1.7595878 -0.19138087 0.54881704 -0.05364776 0.14505489
0.24987866 0.102420576 -0.4466188 0.026425414 0.024801837 -0.60752565 0.02056279 0.5555612
0.9810576 -0.038255367 -1.7129812 1.0827272 -1.3914081 -0.4822317 0.34090927 -0.13175708
-0.7147557 -0.025824558 -0.17522067 -0.13889967 0.0023148593 0.25769198 0.5308474 1.0935377
-0.8706539 0.3303101 -1.0658258 -0.012009906 0.51258093 0.008627254 -0.8683721 -0.06789656
-0.39997903 0.17043269 -0.01665615 -0.20083992 0.91311395 1.6982569 -0.5152778 0.49895486
-0.2570956 0.347489 -0.43347108 -0.36148256
00000000: ce7a 24bf 5c18 12bc 5a1f 0ebe 486c dabc
00000010: 2c1a eaba a70d 9d3d f17c a13d 46b2 963f
00000020: 1f72 32bd 7dca eb3e 881b 10bf da4d 00bd
00000030: c8fe 4d3d 1c38 40be 96b1 cfbe baf4 553a
00000040: 8f42 85be 2242 31bd 4210 0cbb f450 f33b
00000050: 16bf 283e d7d7 ca3f 52ff 12bf 0c60 213f
00000060: 5d9e 4abe eb2e d13d d2de a03e 7d1f ce3d
00000070: 1b30 b53e d822 453c 842f 113f 8dd8 de3d
00000080: a98a e2bc 8d3c e1bd 9840 a1bf 951d 87bf
00000090: 3977 ce3d 76fb 86bf c436 073f bb6f 03be
000000a0: 408e 173f f6ae 193f 61d6 6bbf b70d 77bd
000000b0: 7da5 e4be f3f4 f1ba b2cb a83b ecba 8f3e
000000c0: 2df0 9b3f 7ce2 b93f 3069 83bf ba5d 383f
000000d0: 6cea a4be 8761 f2bd 629a 16bf c804 efbd
000000e0: 4f43 b3be 4ab3 a63a 663f 14bf 4d07 f2be
000000f0: 87ec cb3c e4ff b73e bf50 5b3f 777e b2bd
00000100: 0ee0 b53d cbf9 6f3e b927 6fbf 9b0c 9f3e
00000110: f125 01bf 030e 433e 435a 57bf 450e 4abc
00000120: fb99 263d 1639 e5bd cad6 8abb e487 0b3d
00000130: 9858 b93e fdf6 c13e b709 543c e0f1 ad3e
00000140: b3d9 5fbf 7876 c33c 63f1 693e 399e 17be
00000150: cce5 aabe 25c9 3bbb 88ee babe f3b5 97bd
00000160: ad89 8eba 15b0 813d c33a ce3e 2c3a e13f
00000170: 59f9 43be 467f 0c3f c1bd 5bbd 4589 143e
00000180: 31e0 7f3e e1c1 d13d 38ab e4be 1c7a d83c
00000190: 392d cb3c cd86 1bbf 4c73 a83c 4239 0e3f
000001a0: 9726 7b3f a9b1 1cbd f842 dbbf ce96 8a3f
000001b0: a919 b2bf 13e7 f6be a98b ae3e 54eb 06be
000001c0: 3bfa 36bf 068e d3bc 0c6d 33be b73b 0ebe
000001d0: e5b4 173b 34f0 833e 9de5 073f 0bf9 8b3f
000001e0: 2de3 5ebf 681e a93e fb6c 88bf 32c5 44bc
000001f0: 8138 033f 5359 0d3c a24d 5ebf 5a0d 8bbd
00000200: 0dca ccbe e885 2e3e 7a72 88bc fba8 4dbe
00000210: d6c1 693f 7b60 d93f 3fe9 03bf 0377 ff3e
00000220: 09a2 83be 14ea b13e ecef ddbe 3e14 b9be

predictor/bn1/beta f4 [14]
0.0 0.0 0.0 0.0 0.0 0.0 0.0 0.0
0.0 0.0 0.0 0.0 0.0 0.0
00000000: 0000 0000 0000 0000 0000 0000 0000 0000
00000010: 0000 0000 0000 0000 0000 0000 0000 0000
00000020: 0000 0000 0000 0000 0000 0000 0000 0000
00000030: 0000 0000 0000 0000

predictor/l3/W f4 [2, 6]
-0.25514185 0.6599173 -0.68436325 -0.0055587115 -0.73977256 0.48054272 0.3388984 -0.3208927
-0.06830419 0.56130147 -0.17780156 -0.628117
00000000: f4a1 82be 57f0 283f 6e32 2fbf da25 b6bb
00000010: bc61 3dbf b209 f63e 1784 ad3e 0c4c a4be
00000020: 11e3 8bbd 74b1 0f3f 9d11 36be 47cc 20bf

predictor/l2/W f4 [6, 10]
0.1282924 0.3166123 -0.39459887 0.32015607 0.042210776 0.14689262 0.40645605 0.3103774
0.27779195 0.8335653 -0.24541229 -0.21070285 0.16395423 -0.21889105 -0.27525827 -0.2672362
-0.14155059 -0.23230457 -0.33353272 -0.23197396 0.060693663 0.17254305 -0.305997 0.16957013
0.004656488 0.059666425 0.17939427 0.21208274 0.15901953 0.48069212 0.08853685 0.23944706
-0.43331596 0.22330892 -0.0030786616 0.05880617 0.2594745 0.30754846 0.18437468 0.55247366
0.0635512 0.19464727 -0.29390028 0.21344784 0.0071239546 0.08831867 0.23464154 0.2904938
0.14688355 0.5743136 -0.2028795 -0.17874756 0.14999655 -0.20904993 -0.2485705 -0.23916915
-0.15416588 -0.19177626 -0.28204197 -0.20421715
00000000: 155f 033e 021b a23e dd08 cabe 7feb a33e
00000010: 35e5 2c3d 056b 163e 021b d03e c9e9 9e3e
00000020: bf3a 8e3e 8964 553f 5c4d 7bbe 7dc2 57be
00000030: 9ee3 273e fa24 60be a7ee 8cbe 2fd3 88be
00000040: a3f2 10be 40e1 6dbe cdc4 aabe 958a 6dbe
00000050: eb99 783d 20af 303e a4ab 9cbe cba3 2d3e
00000060: 7495 983b c864 743d 22b3 373e 382c 593e
00000070: 04d6 223e 471d f63e cf52 b53d 9c31 753e
00000080: 97db ddbe 18ab 643e 5fc3 49bb bdde 703d
00000090: d7d9 843e fe76 9d3e b7cc 3c3e ea6e 0d3f
000000a0: 2227 823d 9d51 473e 197a 96be 1292 5a3e
000000b0: 1070 e93b 6be0 b43d df45 703e 9abb 943e
000000c0: a468 163e 3706 133f a5bf 4fbe 9a09 37be
000000d0: b298 193e 2f11 56be 4489 7ebe c2e8 74be
000000e0: a9dd 1dbe ff60 44be ce67 90be 4d1e 51be

predictor/bn1/avg_mean f4 [14]
2.3107104 29.756693 0.53355724 0.38070318 32.305313 0.2062245 0.1434106 0.043567438
0.5811801 0.3548434 0.6451564 0.18778256 0.08674899 0.7233904
00000000: aee2 1340 b50d ee41 3597 083f 87eb c23e
00000010: a438 0142 842c 533e 3ada 123e c573 323d
00000020: 38c8 143f 09ae b53e f828 253f 124a 403e
00000030: 74a9 b13d 1d30 393f

predictor/bn1/avg_var f4 [14]
0.7029502 168.56874 1.2440155 0.6476938 2394.6426 0.16416846 0.12307833 0.04176151
0.24328803 0.22932057 0.22932051 0.15293382 0.07960185 0.20019603
00000000: 8bf4 333f 9991 2843 e63b 9f3f 43cf 253f
00000010: 48aa 1545 c71b 283e 7e10 fc3d 1e0e 2b3d
00000020: 7f20 793e 03d3 6a3e ffd2 6a3e af9a 1c3e
00000030: 4b06 a33d 3000 4d3e
