model/model_5.npz (npz, 5308 bytes, 18 tensors)

predictor/bn3/avg_var f4 [6]
00000000: 9119 1340 b388 ef3f 56a5 433f 843b 483f
00000010: f1ba 693f 78ee a63f
2.2984354 1.8713592 0.7642416 0.78215814 0.91300875 1.3041525

predictor/bn1/gamma f4 [14]
00000000: 0000 803f 0000 803f 0000 803f 0000 803f
00000010: 0000 803f 0000 803f 0000 803f 0000 803f
00000020: 0000 803f 0000 803f 0000 803f 0000 803f
00000030: 0000 803f 0000 803f
1.0 1.0 1.0 1.0 1.0 1.0 1.0 1.0
1.0 1.0 1.0 1.0 1.0 1.0

predictor/bn3/avg_mean f4 [6]
00000000: 8063 46be 331d b1be d690 0f3d 447c df3b
00000010: 1b80 b1be 9d47 6c3d
-0.19373894 -0.3459259 0.035050236 0.0068202335 -0.3466805 0.057685483

predictor/bn3/beta f4 [6]
00000000: be97 4b3e 7412 983d 87dc f83d cb34 b13d
00000010: fb13 38bd 5b84 183e
0.19882104 0.07425395 0.12151437 0.086526476 -0.04494093 0.1489424

predictor/bn2/gamma f4 [10]
00000000: cce9 773f 787e 733f e760 4d3f 7359 973f
00000010: fa68 e83e e30c 843f cf92 8e3f 5568 843f
00000020: 5cb3 823f 9eff 8d3f
0.9684112 0.9511485 0.80225986 1.1824173 0.4539259 1.0316433 1.1138552 1.034434
1.0210986 1.1093633

predictor/bn2/avg_var f4 [10]
00000000: 3223 b33f 76e6 3b40 692b 4b41 e4fe 593f
00000010: 3518 3241 96ef 1d40 4ef8 043f fc14 d43f
00000020: e3b3 023f 27a9 0940
1.3995116 2.9359412 12.698098 0.8515456 11.13091 2.4677482 0.5194138 1.6568904
0.51055735 2.1509492

predictor/l3/b f4 [2]
00000000: 853b 8d3e 883b 8dbe
0.27584472 -0.2758448

predictor/bn3/gamma f4 [6]
00000000: 3d88 5b3f a47f 983f 46e6 9c3f 736e 823f
00000010: f29f 813f 8241 a33f
0.8575476 1.1913953 1.2257774 1.0189956 1.0126936 1.2754366

predictor/bn2/avg_mean f4 [10]
00000000: 54ab 44c0 c6c7 5fc0 05be 993d 512e a13f
00000010: 88e6 3040 971d b23e b8d3 7ebe 6630 4ec0
00000020: 4037 09c0 70cc 21c0
-3.072957 -3.4965682 0.075069465 1.259226 2.7640705 0.347882 -0.24885452 -3.221704
-2.1439972 -2.5281029

predictor/l1/b f4 [10]
00000000: 1384 763d 6779 093d 33df c338 37f7 ecbc
00000010: de04 69b8 4642 30bb 6519 713c 0e62 9d3c
00000020: f129 303c cfd9 74bc
0.06018455 0.033563044 9.339899e-05 -0.028926475 -5.5556062e-05 -0.002689497 0.014715527 0.019211795
0.010752187 -0.014944508

predictor/l2/b f4 [6]
00000000: 1b8c 2c3c 8f37 743c 2a5b 60bc e150 37bc
00000010: 03c8 c9bb eb04 2dbc
0.010531451 0.014905824 -0.01369361 -0.011188717 -0.0061578765 -0.010560255

predictor/bn2/beta f4 [10]
00000000: 5fea a8be e52c 0ebf dc63 443c 264a 46be
00000010: 0243 363e ca39 3bbe db78 69be 8ab8 11bf
00000020: cb08 f6be 6bb7 8fbe
-0.3299131 -0.55537254 0.011986699 -0.19364223 0.17798999 -0.18283764 -0.22800009 -0.5692221
-0.48053584 -0.28069624

predictor/l1/W f4 [10, 14]
00000000: a4ff 70bf 4625 a5bc 8cce 07be 0111 4f3d
00000010: 0dad bdbb 00ca b03d f93c d03d 3d64 b03f
00000020: 5616 23bf 736b 283f 7587 c2be a2e6 d23e
00000030: fa12 f03e 4616 883d 0644 56bf 6496 cbbc
00000040: bcd8 87be 855d 63bd 0e17 043a 8255 243d
00000050: 801c a73e e42c fe3f 6e09 97bf be58 7f3f
00000060: 1bf5 28bf 6327 c7bc b0d9 bc3e f88a 4bbe
00000070: 1e5e 3abf 1b48 58bb ce21 66bf 4a17 00bf
00000080: e91d 813d 4491 92be 0d10 2b3e 0533 a03e
00000090: f4cb dd3e 1c20 67be d7df 1ebd 338c aa3e
000000a0: d0d5 13be 0479 a53e c528 523e d66a c73c
000000b0: 8c22 9e3e 63e9 c63e a909 fabb d375 4cbb
000000c0: dbf6 0bbf c6ec ccbe e126 133f 63b9 16bf
000000d0: 9aaa 42bd d144 62be b627 493e 539a 2a3d
000000e0: d62f e1be 9515 023e 35b6 6bbd 216e 81bf
000000f0: e424 fb3c 1d00 cf3e 6d51 563f 8def 9d3d
00000100: 37f0 1fbf e5a5 613f 4919 b1bf 2d52 fd3e
00000110: 1899 dcbe f5f8 9cbe 274b 753e b1a0 0b3c
00000120: 1076 cb3e 7839 213f 88b8 a1bc f727 13be
00000130: 5374 a2bf 35dd 9cbf 9144 193e 1980 69bf
00000140: fb7f a13e 5e8e 9cbe 758f b03e 248b 903b
00000150: 6938 a83d 3a33 063b d0e4 103e 19e0 7d3e
00000160: b128 2bbc a200 a63c 2f13 d4be e566 6fbf
00000170: 1bad a4be 30d7 1ebf 396c ae3e 243f 50be
00000180: 7d36 043e 1470 09bd 239c 19bf e400 9abc
00000190: c8c5 65be 57df 42bd 7d1a e8ba 6930 b93e
000001a0: a243 2a3f 06c3 dc3f 0269 64bf cf60 363e
000001b0: a416 41bf baf1 a0be 85dd 91bc fc3b d0be
000001c0: 169d 1cbf dd47 1cbc 3867 8dbe b9e0 0bbd
000001d0: 5866 94bb 9800 7f3d d63f ac3e 9518 e93f
000001e0: 98d7 bc3d 9afb 913e 1a69 16bf 3b81 0cbe
000001f0: 4f7b 623d af02 04be d50b 5fbf 349c f5bb
00000200: d7f9 29bd 35f0 04be b4b2 0a3b c890 403e
00000210: 344a 3a3f c011 ca3f 72d6 25bf 37eb 3d3f
00000220: f641 ecbe df32 003f 5e0c 693e 23bb 5fbe
-0.94140077 -0.020159375 -0.13262385 0.050553326 -0.0057884515 0.086322784 0.101678796 1.378059
-0.63705957 0.65788954 -0.3799397 0.41191584 0.46889478 0.06644873 -0.83697546 -0.024851985
-0.26532543 -0.05550911 0.0005038836 0.04012061 0.3263893 1.985745 -1.1799753 0.99744785
-0.65999 -0.024310773 0.36884832 -0.19877231 -0.7279986 -0.0033001963 -0.8989533 -0.50035536
0.06304533 -0.28626454 0.16705342 0.31288925 0.43319666 -0.22570843 -0.03878769 0.3331009
-0.14437032 0.3231889 0.20523365 0.024342936 0.30885732 0.38849935 -0.007630546 -0.0031198158
-0.54673547 -0.40024394 0.574812 -0.5887663 -0.04752598 -0.22096564 0.19644055 0.04165108
-0.43981808 0.12703545 -0.057546813 -1.0111734 0.03065724 0.40429774 0.83717996 0.07711706
-0.62475914 0.8814376 -1.3835841 0.49476758 -0.4308555 -0.3065869 0.2395445 0.008522199
0.39738512 0.62978315 -0.019741312 -0.14370714 -1.2691749 -1.2255007 0.14967562 -0.91211087
0.31542954 -0.30577368 0.3448445 0.004411118 0.082138844 0.002047731 0.14149785 0.24792518
-0.010446713 0.020263974 -0.41420886 -0.9351638 -0.3216332 -0.620471 0.34066942 -0.20336586
0.1291141 -0.03355415 -0.6000387 -0.018799253 -0.22438729 -0.047576275 -0.001770809 0.36169747
0.6650945 1.7247016 -0.8922273 0.17810367 -0.7542517 -0.31434423 -0.017805824 -0.40670764
-0.61177194 -0.009538618 -0.27617812 -0.03414986 -0.004528802 0.062256426 0.33642453 1.8210627
0.09220809 0.2851227 -0.5875412 -0.13721173 0.055293377 -0.12891649 -0.8712743 -0.0074954275
-0.04149803 -0.12982257 0.0021163644 0.1880523 0.72769475 1.5786667 -0.6478034 0.74187034
-0.46144074 0.50077623 0.22758624 -0.2184873

predictor/bn1/beta f4 [14]
00000000: 0000 0000 0000 0000 0000 0000 0000 0000
00000010: 0000 0000 0000 0000 0000 0000 0000 0000
00000020: 0000 0000 0000 0000 0000 0000 0000 0000
00000030: 0000 0000 0000 0000
0.0 0.0 0.0 0.0 0.0 0.0 0.0 0.0
0.0 0.0 0.0 0.0 0.0 0.0

predictor/l3/W f4 [2, 6]
00000000: c172 883e b2ef a83e f018 86be d622 05be
00000010: c2c4 423e 1b0d 2f3e 8c36 83be b6b4 19be
00000020: 9e72 a73e 4f5f 193f 5c04 febe 9df1 383f
0.2665005 0.32995373 -0.261909 -0.1300157 0.1902037 0.17094843 -0.25627553 -0.15010342
0.32704633 0.59911054 -0.496127 0.7224367

predictor/l2/W f4 [6, 10]
00000000: 88e3 e0be f948 04bf 0e03 0cbd 31ee 8a3e
00000010: 741a 46bd 4d60 143f 0b8a 0f3f 7dd1 edbe
00000020: 88f0 f0be 202b e0be 5b2a babe 5d0b ecbe
00000030: 2e65 c1be 16c7 a43e f76b bfbe a325 8e3e
00000040: ae98 c43e d2ec b2be 399b b3be 6890 a5be
00000050: 9f40 6c3e f409 a63e b6b4 65bc 8c51 81be
00000060: 05ea 6e3d 5439 92be 2f33 c5be 88ef 943e
00000070: b4e6 913e 44da 173e 4f0f 753e efd8 a73e
00000080: b9dd 13bc 7365 93be 55ef fe3c b0ca 9abe
00000090: 42a1 c7be 344c 8d3e 69c6 973e 23c2 f53d
000000a0: db76 91be 76db adbe 130a 9ebe fc6e 2d3e
000000b0: 3f4b 5cbd 5624 ec3d ffc9 2d3e f9d2 a1be
000000c0: a586 b8be da29 6ebe 6edb 9a3e 8374 da3e
000000d0: de09 d5bc 2a60 abbe fb97 5b3d c1db d5be
000000e0: c82f dbbe 3a93 c03e 8356 d73e 7447 393e
-0.43923593 -0.5167385 -0.0341826 0.2713485 -0.04836507 0.57959443 0.5607001 -0.4644889
-0.4705851 -0.43782902 -0.3636044 -0.4610242 -0.37772506 0.3218314 -0.37387058 0.2776309
0.38397735 -0.34946305 -0.35079363 -0.32336736 0.23071526 0.3242947 -0.014020136 -0.25257528
0.058328647 -0.28559363 -0.38515612 0.29088998 0.28496325 0.14829355 0.23931621 0.32782695
-0.009025031 -0.28788337 0.031119982 -0.30232763 -0.38990217 0.275972 0.29643562 0.11999919
-0.28410992 -0.33956498 -0.3086706 0.16936868 -0.053782698 0.11530368 0.16971587 -0.31606272
-0.36040226 -0.23258153 0.30245537 0.42667016 -0.026005682 -0.33471805 0.053611737 -0.4176922
-0.42809892 0.37612325 0.4205819 0.18093663

predictor/bn1/avg_mean f4 [14]
00000000: eda5 1340 a42f ef41 5b5b 083f 4be4 c73e
00000010: 5e7a 0042 2bb8 513e 7534 123e 9643 363d
00000020: 6bcb 143f bb98 b43e a0b3 253f 9b66 443e
00000030: a7fd b73d 9f1b 373f
2.3070023 29.898262 0.532644 0.3904136 32.1195 0.20480411 0.14277823 0.04449805
0.5812289 0.35272774 0.6472721 0.19179766 0.08983927 0.7152652

predictor/bn1/avg_var f4 [14]
00000000: 36e8 343f aa15 2d43 ca76 a13f 9d93 293f
00000010: 2c4f 1645 5669 263e 85cf fa3d a890 2e3d
00000020: 84ad 793e 4511 6a3e 4511 6a3e b825 1f3e
00000030: 1d39 a83d 4f44 503e
0.70666826 173.08463 1.2614377 0.66240865 2404.9482 0.1625112 0.122466125 0.042618424
0.24382597 0.2285815 0.2285815 0.15541732 0.082140185 0.20338558
