model/model_9.npz (npz, 5310 bytes, 18 tensors)

predictor/bn3/avg_var f4 [6]
000000 15 6d c8 3f 7f 30 20 40 d4 09 36 3f 0a 14 88 40
       1.5658289 2.50296 0.71108747 4.252446
000010 c7 88 bf 3f 10 a1 82 3f
       1.4963616 1.0205402

predictor/bn1/gamma f4 [14]
000000 00 00 80 3f 00 00 80 3f 00 00 80 3f 00 00 80 3f
       1.0 1.0 1.0 1.0
000010 00 00 80 3f 00 00 80 3f 00 00 80 3f 00 00 80 3f
       1.0 1.0 1.0 1.0
000020 00 00 80 3f 00 00 80 3f 00 00 80 3f 00 00 80 3f
       1.0 1.0 1.0 1.0
000030 00 00 80 3f 00 00 80 3f
       1.0 1.0

predictor/bn3/avg_mean f4 [6]
000000 79 45 37 be 1b 87 1d 3f eb 9f 59 be 39 6c 82 bd
       -0.17897595 0.6153428 -0.2125241 -0.06368298
000010 32 99 10 bf b1 0e ef 3d
       -0.5648376 0.11672724

predictor/bn3/beta f4 [6]
000000 55 bf 31 be b3 d7 90 bc 68 14 10 3e a8 5c 14 3c
       -0.17358144 -0.017680978 0.14070284 0.009055294
000010 73 db e4 3d 7e bc 86 bc
       0.11174669 -0.016447302

predictor/bn2/gamma f4 [10]
000000 d2 5b 56 3f 18 36 82 3f 3f 11 b4 3f 9a e0 8e 3f
       0.83733857 1.0172758 1.4067763 1.1162293
000010 7f 68 71 3f 59 8d 5d 3f 75 d5 76 3f dd af 93 3f
       0.94300073 0.86543804 0.9641946 1.1538044
000020 c3 c0 90 3f 3c 38 7c 3f
       1.1308826 0.98523307

predictor/bn2/avg_var f4 [10]
000000 12 59 c0 42 9a e2 04 3f da f2 f3 3e b3 66 6b 40
       96.173965 0.51908267 0.4764622 3.6781433
000010 0f bf 7f 42 ec c6 a9 40 32 4e 00 43 c1 5a 3f 40
       63.93658 5.3055325 128.30545 2.9899142
000020 2a f1 5b 40 c2 77 2d 41
       3.4365945 10.841738

predictor/l3/b f4 [2]
000000 b6 1c 39 3e b6 1c 39 be
       0.18077359 -0.18077359

predictor/bn3/gamma f4 [6]
000000 18 01 46 3f 6c e1 59 3f 65 ea 8a 3f bc e7 80 3f
       0.7734542 0.8510959 1.0852782 1.007072
000010 c1 05 84 3f e0 31 72 3f
       1.0314256 0.94607353

predictor/bn2/avg_mean f4 [10]
000000 62 75 ab 40 39 e0 82 bf 56 eb e1 3f fb e8 2e 3f
       5.358079 -1.0224677 1.7649944 0.6832425
000010 00 86 8a bf b3 34 b9 c0 e9 10 42 c1 68 b5 68 40
       -1.0822144 -5.787683 -12.129128 3.6360722
000020 2f 0e 23 bf 4e 12 af 3f
       -0.6369352 1.3677461

predictor/l1/b f4 [10]
000000 09 f9 6a 39 36 13 4d bb 6d 92 8e 3a d4 25 2e ba
       0.00022408752 -0.0031291968 0.0010877379 -0.000664321
000010 d5 07 24 3a ce 75 dd ba f6 c2 58 ba 7e c1 ba ba
       0.00062572706 -0.001689607 -0.00082687975 -0.0014248339
000020 c3 df 63 3b 36 2a 85 3a
       0.0034770824 0.0010159675

predictor/l2/b f4 [6]
000000 77 81 b9 3b c3 22 e1 3b 4c e3 9f 3b a9 89 bc ba
       0.0056611854 0.006870599 0.004879391 -0.0014384288
000010 6b de 74 ba 64 5c 49 3c
       -0.0009341004 0.012290094

predictor/bn2/beta f4 [10]
000000 09 0d ad bd ca da 42 bd ac 1f 91 3e c2 53 cc 3d
       -0.08449752 -0.047571935 0.28344476 0.09976913
000010 e0 c9 b9 3d cf 91 d8 bd ea 87 78 bd c2 97 00 3d
       0.09071708 -0.10574686 -0.060676493 0.031394728
000020 1e 6d ee 3a 5d 3e 56 bd
       0.0018190478 -0.052305568

predictor/l1/W f4 [10, 14]
000000 af e6 3f 3e 12 9b 51 bd 3d 12 3f be cb 9c ae be
       0.18740343 -0.051173277 -0.18659301 -0.34104
000010 35 09 55 3e 5e 6f f4 3e 6a f4 85 3e ef 9c fc bc
       0.20804293 0.47741216 0.26163036 -0.03083655
000020 69 e5 95 3e fb b2 37 3c 35 69 b1 3d 01 fd a6 3d
       0.2927659 0.011212106 0.08662645 0.081537254
000030 03 bd d0 bd 9c ad 9b be eb 94 89 be ef fa 8f bc
       -0.10192301 -0.3040589 -0.26871428 -0.01757571
000040 42 0d 49 be f7 7b cb bd ab ba 8b 3b cd 22 99 3e
       -0.19633964 -0.09935754 0.004264196 0.29909363
000050 e0 3d 20 3f ef b0 e6 3e b4 a4 9a be 6e 96 eb 3e
       0.62594414 0.45056865 -0.30203784 0.46013206
000060 23 64 ab bc 98 42 68 3d e0 2c 0a 3d ce 8e b5 bd
       -0.020921772 0.056704134 0.033734202 -0.088651285
000070 f5 03 97 3e 68 41 c5 3a 33 33 a4 3e 34 a5 9f bd
       0.29495206 0.00150494 0.32070312 -0.07795182
000080 53 2b 3b bb 17 61 e7 3d 49 dc f5 bd 49 1b 28 3d
       -0.0028559759 0.11297815 -0.12004907 0.041041646
000090 7e 8b 17 3f 64 70 7e bd 49 4b a3 3e e4 11 94 3e
       0.59197223 -0.062118903 0.31893376 0.289199
0000a0 3b ca c9 3e 56 38 08 3f 05 13 88 3d 9d d3 e0 3c
       0.39412102 0.5321096 0.06644253 0.027444655
0000b0 08 bf b1 be 0b f4 79 be c5 4f 72 bc 24 fa 0a bf
       -0.34716058 -0.24409501 -0.014789526 -0.54287934
0000c0 48 57 49 be 3d 82 5d bd a7 80 41 3f b2 fa 4a bf
       -0.19662201 -0.054079283 0.7558693 -0.7928878
0000d0 92 99 31 3f 9e 18 ce 3d e1 eb ad bd 57 13 3b 3d
       0.69374955 0.10063289 -0.08492256 0.04567274
0000e0 d8 4a c4 be c9 b5 2d be a5 64 5e be 0f 7a 41 be
       -0.3833835 -0.16963877 -0.2171808 -0.18894218
0000f0 8d f5 23 3e 3d 0b 20 3d 51 76 0b 3f 0a 46 89 3e
       0.16011639 0.039073218 0.5447741 0.26811248
000100 be ee 21 bd 00 63 bd bc 9e fd d9 bd af 21 b4 3e
       -0.039534323 -0.023118496 -0.10644077 0.3518195
000110 7f 9c 77 be 1d 8d c4 bd 3c 51 5e bf 3c 80 14 be
       -0.24180792 -0.09597228 -0.86842704 -0.14502043
000120 3a 92 8b bc 21 15 bd be 84 87 b5 3c 1d 68 86 3e
       -0.0170375 -0.36930183 0.022159345 0.26251307
000130 f3 a0 12 3f 06 9e 2c 3d f3 47 fa be 60 b9 79 be
       0.5727684 0.04214289 -0.48883018 -0.24387121
000140 b0 c6 6d be 0f 5b a5 3e f3 ac 43 be e8 77 d9 3e
       -0.23220325 0.32296035 -0.19108944 0.42474294
000150 a9 66 0e bf 1b c1 e3 bd 08 cb d0 be eb 3a 1f be
       -0.55625397 -0.11120816 -0.407799 -0.15549819
000160 ed 46 6f be 1e f3 30 be dd ee f0 bd 3d 80 22 bf
       -0.233669 -0.17280242 -0.117643096 -0.63476926
000170 fc 2f 1a be 0d dd bf be 18 b6 09 3f bb af 3f 3a
       -0.15057367 -0.37473336 0.5379348 0.00073122577
000180 0e 0c 66 be b8 50 40 3d 2b c3 d1 3e c1 68 d4 3d
       -0.22465536 0.04695198 0.40969214 0.10371543
000190 30 9f 8e 3e 22 73 70 3e a4 e5 be bc f7 01 e2 bd
       0.27855825 0.2348142 -0.02330286 -0.11035531
0001a0 28 d8 37 be 83 3f 89 3e 6b 81 bb 3e be 39 5b be
       -0.17953551 0.26806268 0.36622176 -0.21408746
0001b0 21 ee b2 be 5f 1a 14 be 2e e0 93 be c7 85 a0 3e
       -0.34947303 -0.14463185 -0.28881973 0.31352064
0001c0 9d be d5 bd f8 b1 60 3b 0f 9d 14 3f 94 2d 9e be
       -0.10436747 0.0034285765 0.5805215 -0.30894148
0001d0 8d 30 fd bc c3 c5 da bd a0 5e 0a bf c7 69 38 bf
       -0.03090694 -0.10682251 -0.54050636 -0.72036403
0001e0 c4 b7 39 3e 3d cb 2e bf f8 ac e3 3e c2 6b 3b 3d
       0.18136507 -0.68278867 0.44467902 0.045757063
0001f0 80 f5 cd bd 1b bb f8 3e fa 7b 09 3f 77 b5 63 3d
       -0.10056591 0.4858025 0.537048 0.05559298
000200 04 e8 25 be b8 d0 f2 3e 95 8e 64 bd 61 21 33 bf
       -0.16201788 0.47424865 -0.05580004 -0.6997281
000210 c3 85 a6 bd dd 8d e6 be 3f 83 10 3e d9 cf 0d be
       -0.08130982 -0.45030108 0.14112566 -0.13848819
000220 b3 4b 80 3f d0 22 dd be a4 c6 4d bf 24 32 35 be
       1.0023102 -0.43190622 -0.80381227 -0.17694908

predictor/bn1/beta f4 [14]
000000 00 00 00 00 00 00 00 00 00 00 00 00 00 00 00 00
       0.0 0.0 0.0 0.0
000010 00 00 00 00 00 00 00 00 00 00 00 00 00 00 00 00
       0.0 0.0 0.0 0.0
000020 00 00 00 00 00 00 00 00 00 00 00 00 00 00 00 00
       0.0 0.0 0.0 0.0
000030 00 00 00 00 00 00 00 00
       0.0 0.0

predictor/l3/W f4 [2, 6]
000000 d2 e3 ad be 28 68 f8 3e 60 0b 73 be 0d 47 95 3e
       -0.33962876 0.48516965 -0.23734808 0.2915577
000010 79 0e 35 3e cb fa a7 3d 20 81 f6 3e 4a c4 28 be
       0.17681302 0.08202132 0.4814539 -0.16481128
000020 09 30 c2 3c d4 e0 f7 be ee fa 00 3f fc 54 1c bf
       0.023704546 -0.48413718 0.5038289 -0.61067176

predictor/l2/W f4 [6, 10]
000000 11 ab 57 be 69 9b 18 3f ee 03 49 be 29 dd 11 be
       -0.2106135 0.5961214 -0.19630405 -0.14244522
000010 9e 46 ae 3d 9b 0a ca 3e 2c fb 01 3e cd 62 39 bf
       0.08509563 0.39461216 0.1269347 -0.72416383
000020 60 f6 02 3c f0 fb 3c bd 36 e9 b0 3e 17 4a 12 be
       0.007993311 -0.046138704 0.34552926 -0.14286076
000030 ec c2 86 3e 40 29 a8 3e 62 ce bd be e5 36 55 bf
       0.2632059 0.3284397 -0.3707152 -0.8328689
000040 fa 6b 3f 3f 9d a7 58 be fd a8 28 3f be a4 2f 3f
       0.74774134 -0.2115769 0.65882856 0.6861075
000050 8d 13 6f 3e 38 31 97 3e 4d af 3e be 5c 33 1f be
       0.23347302 0.29529738 -0.1862156 -0.15546936
000060 e3 0d 99 bd 6a 2d 98 3e d3 bb fc bd b9 a8 bd 3c
       -0.07473352 0.29722148 -0.12340512 0.023151742
000070 18 da bf be b1 59 15 be 18 2a 32 bf f0 56 08 bf
       -0.3747108 -0.14584996 -0.6959548 -0.53257656
000080 91 57 90 3e 0e 8b ae 3e af 0e 13 bf 1d 0a f2 be
       0.28191808 0.34090465 -0.5744428 -0.4727334
000090 a6 05 33 3c 95 4f 1f 3e 70 f7 24 3e 8a c1 d3 3e
       0.01092664 0.15557702 0.16110015 0.41358596
0000a0 ce dd 29 3e 7c dc db 3e be 74 5f be fb 6f 9f be
       0.16588518 0.42941654 -0.21821877 -0.31140122
0000b0 44 4c 4c 3e 8a 10 6f be 84 f1 e9 bd 8e ef 22 bd
       0.19950968 -0.23346153 -0.114230186 -0.03977924
0000c0 03 a8 2b bf d3 7e f1 be 93 5d 2f be 30 4a ee 3c
       -0.6705324 -0.47167072 -0.1712554 0.02908811
0000d0 ea 59 81 3e 40 41 95 bc 47 38 fb be d4 1b 30 be
       0.2526391 -0.01821959 -0.49066374 -0.17198116
0000e0 8a ba 06 3d 10 09 c0 3b 93 8b b6 3e 32 47 08 3d
       0.03289274 0.0058604553 0.35653362 0.033271022

predictor/bn1/avg_mean f4 [14]
000000 75 6c 14 40 91 73 ec 41 1f 95 03 3f ea 8a c0 3e
       2.3191197 29.556429 0.51399416 0.37605983
000010 54 14 fa 41 64 9e 50 3e 51 77 0f 3e 1d fc 31 3d
       31.259926 0.20372921 0.1401036 0.043453325
000020 0d e2 15 3f 02 14 b3 3e fc 75 26 3f 86 24 3c 3e
       0.5854805 0.34976202 0.6502378 0.18373308
000030 12 63 b0 3d a4 4a 3a 3f
       0.08612646 0.7277014

predictor/bn1/avg_var f4 [14]
000000 09 86 30 3f d2 9c 25 43 80 03 99 3f 53 d4 22 3f
       0.6895452 165.61258 1.1954193 0.6360523
000010 a4 c8 0f 45 4b d3 26 3e 98 0f f6 3d 24 78 2a 3d
       2300.54 0.1629154 0.12014693 0.04161848
000020 fe be 76 3e 12 2e 68 3e 12 2e 68 3e 8c 6f 19 3e
       0.24096295 0.22673824 0.22673824 0.14983958
000030 8e 58 a2 3d a1 f4 4a 3e
       0.07927047 0.19819881
