model/model_4.npz (npz, 5312 bytes, 18 tensors)

predictor/bn3/avg_var f4 [6]
0	0x3fd52d01	1.6654359
1	0x3f678e40	0.9045143
2	0x4000139b	2.0011966
3	0x3ee37a96	0.44429463
4	0x3f331bfc	0.69964576
5	0x3f1b9d59	0.6078697

predictor/bn1/gamma f4 [14]
0	0x3f800000	1.0
1	0x3f800000	1.0
2	0x3f800000	1.0
3	0x3f800000	1.0
4	0x3f800000	1.0
5	0x3f800000	1.0
6	0x3f800000	1.0
7	0x3f800000	1.0
8	0x3f800000	1.0
9	0x3f800000	1.0
10	0x3f800000	1.0
11	0x3f800000	1.0
12	0x3f800000	1.0
13	0x3f800000	1.0

predictor/bn3/avg_mean f4 [6]
0	0xbe6ffcca	-0.23436275
1	0xbe7d2235	-0.2472008
2	0xbe67ad7a	-0.2262477
3	0x3ca8bfde	0.020599302
4	0x3d398284	0.045290485
5	0x3d5af484	0.053455845

predictor/bn3/beta f4 [6]
0	0x3d5c694f	0.053811368
1	0xba1aaa1c	-0.0005899982
2	0x3df4d75d	0.1195514
3	0x3e248514	0.1606639
4	0x3e83af1d	0.25719538
5	0x3e531e19	0.2061695

predictor/bn2/gamma f4 [10]
0	0x3f8264fc	1.0187068
1	0x3f890ab9	1.0706397
2	0x3f7c8fa2	0.98656666
3	0x3f533bc6	0.8251308
4	0x3f8106d7	1.0080212
5	0x3f467fdb	0.7753884
6	0x3f74d99c	0.95644546
7	0x3f721989	0.94570214
8	0x3f48833f	0.78325266
9	0x3f83faf0	1.0310955

predictor/bn2/avg_var f4 [10]
0	0x3f568a4a	0.8380476
1	0x3f8dbe50	1.1073704
2	0x3fdb33bb	1.7125162
3	0x4041156f	3.0169332
4	0x3efc4ca4	0.49277222
5	0x401c5dc8	2.443224
6	0x3fa521f2	1.2900984
7	0x3f8c26fc	1.0949397
8	0x3fbf328f	1.4937304
9	0x403e953a	2.977858

predictor/l3/b f4 [2]
0	0x3e94c9d8	0.29060245
1	0xbe94c9df	-0.29060265

predictor/bn3/gamma f4 [6]
0	0x3f86bcf7	1.0526417
1	0x3f9dd63d	1.2331005
2	0x3f8bbd68	1.0917177
3	0x3f910f31	1.1332761
4	0x3f9ae646	1.2101524
5	0x3f90e5ec	1.1320167

predictor/bn2/avg_mean f4 [10]
0	0xc00ccc6c	-2.199977
1	0x3f234fff	0.6379394
2	0x3f6ac3ba	0.91704905
3	0x3e32edcc	0.17473525
4	0xc00362d8	-2.052908
5	0x3e4019e1	0.18759872
6	0xc01ef788	-2.483858
7	0xc0353c50	-2.8318062
8	0xc0152efc	-2.3309927
9	0xc04e86b0	-3.2269707

predictor/l1/b f4 [10]
0	0x3c89faee	0.016843285
1	0xbd2b06f9	-0.041754697
2	0xbc97d998	-0.018536374
3	0xbb9d7a77	-0.0048058587
4	0xb94dcca7	-0.00019626562
5	0x3bbaad51	0.0056969305
6	0x3c62f907	0.013853318
7	0x3c5c03d1	0.013428644
8	0x3d44d579	0.048055146
9	0xbc951ae5	-0.0182013

predictor/l2/b f4 [6]
0	0xb99bb92f	-0.00029701876
1	0xbc844fff	-0.016151426
2	0x3c3b673e	0.011438189
3	0x3cb071e0	0.021538675
4	0xbd20bf22	-0.03924478
5	0x3c2becef	0.010493501

predictor/bn2/beta f4 [10]
0	0xbf0975ae	-0.5369519
1	0xbe3721d1	-0.17883994
2	0xbe809793	-0.25115642
3	0xbe221628	-0.15828764
4	0xbf5476b0	-0.829936
5	0xbe9d402a	-0.30713016
6	0xbe67101c	-0.22564739
7	0xbee7c47a	-0.45267087
8	0xbf0526aa	-0.5201212
9	0xbee1b16c	-0.44080675

predictor/l1/W f4 [10, 14]
0	0xbf04bfc9	-0.5185514
1	0xbc643b39	-0.013930135
2	0xbe509638	-0.20369804
3	0xbd54d436	-0.051960193
4	0x39daf0bc	0.0004175956
5	0x3d95b520	0.073099375
6	0x3e33958a	0.17537513
7	0x3fbb8b1e	1.465183
8	0xbeab0da3	-0.33408841
9	0x3e826678	0.25468802
10	0xbf55d48f	-0.83527464
11	0x3de0b7df	0.10972571
12	0x3e5ec8b4	0.2175625
13	0x3d0b7acb	0.03405265
14	0x3e3cab2d	0.18424673
15	0x3bebc2e5	0.007194864
16	0x3e1c869b	0.15285723
17	0x3ed017d9	0.40643194
18	0xbc5f1312	-0.013615387
19	0x3e4b767d	0.19869418
20	0xbf201bf5	-0.6254266
21	0xbf7b52b3	-0.98173064
22	0xbdbdd97b	-0.09269997
23	0xbef4cfe6	-0.47814864
24	0x3f22386b	0.63367337
25	0x3d8bf0f0	0.068330646
26	0x3eb1e443	0.34744462
27	0x3e45587a	0.19272032
28	0x3e814da6	0.25254554
29	0xbad907f2	-0.0016558154
30	0x3eff1dff	0.49827573
31	0x3e4922c8	0.19642174
32	0xbc336116	-0.01094844
33	0x3e065504	0.13118368
34	0xbf3aaaa9	-0.72916657
35	0xbf0ccad3	-0.54996985
36	0x3f55851a	0.8340622
37	0xbf29c440	-0.6631508
38	0x3ea2bc2d	0.31784192
39	0xbd7ef03a	-0.062240817
40	0x3df0cbf5	0.11757652
41	0x3dfb3121	0.1226523
42	0x3e8f3f9b	0.27978215
43	0xbc7f5783	-0.015584829
44	0x3ef593cd	0.47964326
45	0x3e959a6b	0.29219374
46	0xbc9ec14b	-0.019379279
47	0xbf24e9a8	-0.6441903
48	0xbf026f3a	-0.5095097
49	0xbf75408b	-0.9580161
50	0x3f653bc7	0.8954434
51	0xbefe874e	-0.49712604
52	0x3ec79a2a	0.38984805
53	0xbeaf1a0b	-0.34199557
54	0x3f24de96	0.6440214
55	0xbe0e4762	-0.13894418
56	0xbee2e11c	-0.4431237
57	0x3ade9df0	0.0016984325
58	0xbe9f7006	-0.31140155
59	0xbcdb1244	-0.026742108
60	0xba8330f6	-0.0010009098
61	0xbdcfc218	-0.10144442
62	0x3d9c8a96	0.07643621
63	0x3fd7d237	1.6861027
64	0xbe5a50a8	-0.2131983
65	0xbd97862f	-0.0739864
66	0xbf720f57	-0.94554657
67	0x3d1b6145	0.03793456
68	0x3d820ff7	0.06350701
69	0xbdd0cfb0	-0.10195863
70	0x3e3ac868	0.18240511
71	0x3c0ab42f	0.008465811
72	0x3eb06227	0.34449884
73	0x3e34c6ff	0.17654036
74	0xbc998d4a	-0.01874413
75	0xbf17f157	-0.5935263
76	0xbebddf5e	-0.37084478
77	0xbf8e6326	-1.1124008
78	0xbe1dacfd	-0.15398021
79	0xbf7b7456	-0.9822439
80	0x3f625f07	0.8842625
81	0xbdd707ad	-0.10499511
82	0xbe5cbb6c	-0.21555871
83	0x3b7487ee	0.0037312466
84	0xbeeb73aa	-0.45986682
85	0xbc840143	-0.016113883
86	0xbe330489	-0.17482199
87	0xbe60ca54	-0.21952182
88	0xbb52f150	-0.003218729
89	0xbe49a603	-0.19692235
90	0x3eece405	0.46267715
91	0x3f941681	1.1569368
92	0xbf44342d	-0.76642114
93	0x3f0eecf0	0.5583029
94	0xbf1442c6	-0.5791439
95	0x3f033d4f	0.51265424
96	0xbd1c8479	-0.038212273
97	0xbeba77f2	-0.36419636
98	0xbf51e52f	-0.8199033
99	0xbc88724c	-0.016656063
100	0xbe0e015d	-0.13867708
101	0x3db4afda	0.088226035
102	0xbb1707a1	-0.0023045319
103	0x3e2d72d8	0.1693834
104	0x3e9daeab	0.30797324
105	0x3fcae727	1.5851792
106	0xbe91cb3b	-0.28475365
107	0x3f12b6a4	0.5730994
108	0xbec81bf9	-0.3908384
109	0xbe3407d8	-0.17581117
110	0xbf032b16	-0.5123762
111	0xbe888667	-0.2666504
112	0xbf6a6e19	-0.91574246
113	0xbb9d60d9	-0.004802805
114	0x3d94ed28	0.072717965
115	0x3c89e9f0	0.016835183
116	0xbbca5dea	-0.006175746
117	0x3f0eb15c	0.5573938
118	0x3eaaf425	0.33389392
119	0x3fcb5bec	1.5887427
120	0xbd7ccc65	-0.061718363
121	0x3f40d9dd	0.75332433
122	0xbf3e34a5	-0.7429908
123	0x3e91ff5d	0.2851514
124	0x3f08eaec	0.5348346
125	0xbd5bef05	-0.053694744
126	0xbf93c85b	-1.1545519
127	0xbc01bf6c	-0.007919174
128	0xbcc6c707	-0.024264826
129	0xbe165554	-0.14680988
130	0xba9b4058	-0.0011844737
131	0x3f18e3ac	0.597224
132	0x3f845c90	1.0340748
133	0x3fe217b0	1.7663479
134	0xbebe325d	-0.371478
135	0x3f649cfa	0.8930203
136	0xbf53a3ff	-0.82672113
137	0x3e5338be	0.20627114
138	0x3ebabb22	0.36470896
139	0xbe45a942	-0.19302848

predictor/bn1/beta f4 [14]
0	0x00000000	0.0
1	0x00000000	0.0
2	0x00000000	0.0
3	0x00000000	0.0
4	0x00000000	0.0
5	0x00000000	0.0
6	0x00000000	0.0
7	0x00000000	0.0
8	0x00000000	0.0
9	0x00000000	0.0
10	0x00000000	0.0
11	0x00000000	0.0
12	0x00000000	0.0
13	0x00000000	0.0

predictor/l3/W f4 [2, 6]
0	0x3f2a2d3b	0.66475266
1	0x3e8256d3	0.25456867
2	0x3ea61183	0.32435235
3	0xbf1519ab	-0.5824229
4	0x3cb1ed70	0.021719664
5	0xbef40540	-0.47660255
6	0x3dbe59b7	0.092944555
7	0xbe983042	-0.29724318
8	0xbe137c58	-0.14402902
9	0x3dc91814	0.09819046
10	0x3f21f0df	0.63258165
11	0x3e310a77	0.17289148

predictor/l2/W f4 [6, 10]
0	0xbeeabb8a	-0.45846206
1	0x3e8f4f1d	0.27990046
2	0x3eba6f5c	0.36413085
3	0x3e9eae0b	0.3099216
4	0xbed2acec	-0.41147554
5	0x3ee00f55	0.43761697
6	0xbebf50c7	-0.37366316
7	0xbeac6ea7	-0.3367817
8	0xbeff38c6	-0.49848002
9	0xbed86c30	-0.4227004
10	0xbea378d0	-0.3192811
11	0x3e217008	0.15765393
12	0x3e237c3c	0.1596536
13	0x3e4d1a49	0.20029558
14	0xbe9ab6d1	-0.30217603
15	0x3ecf1fd9	0.40453985
16	0xbe89105f	-0.26770303
17	0xbe6d9726	-0.2320219
18	0xbefc4973	-0.49274787
19	0xbebceebe	-0.36900896
20	0xbedf0418	-0.4355781
21	0x3eaf4c57	0.3423793
22	0x3eaddb65	0.33956447
23	0x3e918b48	0.28426576
24	0xbf0eb51d	-0.55745107
25	0x3f39e4a9	0.7261453
26	0xbecb7fa3	-0.39745817
27	0xbea611fe	-0.32435602
28	0xbf12e12a	-0.57374823
29	0xbefd6326	-0.49489707
30	0x3e419b75	0.18906958
31	0xbe7a8ea8	-0.24468482
32	0xbe9c20fd	-0.30493918
33	0xbe380f2c	-0.17974538
34	0x3ea422b6	0.32057732
35	0xbe8c9f61	-0.27465346
36	0x3d839bb3	0.06426182
37	0x3e503f01	0.20336534
38	0x3e98c03d	0.29834166
39	0x3e072e4b	0.13201253
40	0x3e61773e	0.22018144
41	0xbea39243	-0.31947526
42	0xbe5b4006	-0.21411142
43	0xbe455d85	-0.19273956
44	0x3f002e50	0.5007067
45	0xbe9f8205	-0.31153885
46	0x3d70eff6	0.058822595
47	0x3e9389f0	0.28816175
48	0x3f000526	0.50007856
49	0x3e3e3564	0.18575054
50	0x3e5b1b1b	0.21397059
51	0xbe5bb432	-0.21455458
52	0xbebabae2	-0.36470705
53	0xbe427e1f	-0.18993424
54	0x3ee775af	0.45206973
55	0xbe9412db	-0.28920636
56	0x3d9b09fd	0.075702645
57	0x3e69c585	0.22829254
58	0x3ed5eba9	0.41781357
59	0x3e13d7d0	0.14437795

predictor/bn1/avg_mean f4 [14]
0	0x4014755a	2.3196626
1	0x41ed77e0	29.683533
2	0x3f038036	0.5136751
3	0x3ebdaf0d	0.37047616
4	0x41fd2283	31.641851
5	0x3e4c2597	0.19936214
6	0x3e14a3ba	0.14515582
7	0x3d30ae3a	0.043134905
8	0x3f158059	0.5839897
9	0x3eb3493d	0.35016814
10	0x3f265b5c	0.64983153
11	0x3e3fca00	0.187294
12	0x3db58fd4	0.08865324
13	0x3f38eb0c	0.72233653

predictor/bn1/avg_var f4 [14]
0	0x3f309d56	0.68990076
1	0x4326cd13	166.80107
2	0x3f95048b	1.1642011
3	0x3f1f6d75	0.62276393
4	0x451cddde	2509.8667
5	0x3e23fad8	0.16013658
6	0x3dff59f2	0.124683276
7	0x3d285f7c	0.041106686
8	0x3e79e51f	0.24403809
9	0x3e6a049c	0.22853321
10	0x3e6a049b	0.2285332
11	0x3e1c2f7f	0.15252493
12	0x3da55e42	0.08074619
13	0x3e4dead4	0.20109111
