model/model_4.npz (npz, 89821 bytes, 20 tensors)

predictor/bn3/avg_var f4 [100]
000000 b2 cc a3 40 24 dc a8 40 d1 77 7a 40 dc 1c 4e 40
       5.118737 5.2768726 3.913563 3.2205114
000010 8f f1 d8 3f da 58 fa 3f 43 33 30 40 2a 5d 64 40
       1.6948718 1.9558365 2.7531288 3.5681863
000020 01 23 b1 3f 09 88 fb 3f 1b e6 42 40 ab 1b 09 40
       1.3838807 1.965089 3.0452945 2.1423137
000030 06 74 25 40 86 de 77 40 38 5a 68 40 3c 4f a5 3f
       2.5852065 3.8729568 3.6305065 1.2914805
000040 69 91 a8 3f 0f f2 03 40 c2 cb 96 40 f8 3c 9f 40
       1.3169376 2.061649 4.712373 4.9761925
000050 61 fb b6 3f e5 c1 9f 40 b6 b1 9a 40 56 36 2d 40
       1.4295465 4.992419 4.834193 2.7064414
000060 fc e2 80 40 cd 79 fe 3f 4a 22 01 40 4c 81 13 40
       4.027708 1.9880921 2.0177178 2.3047667
000070 7b e8 06 40 6c 0e 1f 40 05 69 c4 3f 4d bc 49 40
       2.1079395 2.4852552 1.534455 3.152118
000080 7b 1d 82 40 8b 5c d0 3f 54 ff e5 3f 8f 9d a7 3f
       4.0660987 1.6278242 1.7968545 1.3094958
000090 7b be 36 40 34 bc f2 3f 75 ab 28 40 48 31 6e 40
       2.855376 1.8963685 2.635465 3.721758
0000a0 af b4 64 40 ff 3e 7d 40 98 57 25 40 eb 51 0e 40
       3.573528 3.95697 2.5834713 2.2237499
0000b0 3d 59 4a 40 b3 c6 2a 40 a8 4a 29 40 fd 21 fd 3f
       3.1616967 2.6683776 2.6451817 1.9775997
0000c0 83 bc 13 40 a1 fe b5 40 b0 ec e2 3f af a6 c0 3f
       2.3083808 5.6873326 1.7728481 1.5050868
0000d0 b4 bd 5c 40 b1 6f 83 40 bb b1 66 40 26 40 84 40
       3.4490786 4.107384 3.6045978 4.1328306
0000e0 dd 51 17 40 6f 0f 72 40 8d 1f 73 40 3d 3b 90 40
       2.3643715 3.782192 3.7988007 4.507231
0000f0 06 4f d2 40 c0 c5 5d 40 f7 ae 84 40 0b b2 21 40
       6.5721464 3.4651947 4.146358 2.5264919
000100 f8 52 9f 3f e7 1b 83 40 1b db 81 40 ee f1 6f 40
       1.2447195 4.097156 4.0579963 3.7491412
000110 87 72 45 40 07 73 94 3f 37 1c 8c 40 da 4c 4e 40
       3.0851152 1.1597604 4.378444 3.2234406
000120 eb 48 32 40 db 65 22 40 6f cd dd 3f 5f 2a 3a 40
       2.7857006 2.5374668 1.7328318 2.9088361
000130 f5 98 89 40 5f 75 8c 40 a4 52 89 40 20 53 c1 40
       4.2999215 4.3893275 4.291338 6.041397
000140 b6 54 17 40 0f 80 2a 40 8f b9 a0 40 d3 15 63 40
       2.3645453 2.664066 5.022651 3.548207
000150 bc a1 c5 3f a3 36 b5 40 3e 51 d2 3f bc 5c 88 40
       1.5439982 5.6629195 1.6431043 4.26132
000160 3d 15 17 40 24 5c 7b 40 9a 9a fe 3f 18 10 66 40
       2.3606713 3.9274988 1.9890931 3.5947323
000170 79 57 5c 40 29 0d 70 40 a2 c9 06 40 5c 82 1c 40
       3.442839 3.7508032 2.1060567 2.4454565
000180 ec f4 d5 40 8c 45 a8 40 1a 3b 8c 40 78 d7 57 40
       6.6861477 5.2584896 4.3822145 3.3725262

predictor/bn1/gamma f4 [100]
000000 7f d7 65 3f a9 4e 7f 3f 98 34 61 3f c2 12 9d 3f
       0.89781946 0.997294 0.87970877 1.227135
000010 60 7c 05 3f 96 40 88 3f 90 d4 65 3f db ff 95 3f
       0.52142906 1.064471 0.8977747 1.1718706
000020 e1 96 05 3f f9 b7 27 3f 5f 2f 6c 3f 05 63 5c 3f
       0.5218335 0.65515095 0.9225978 0.8608859
000030 b1 c6 8c 3f 74 58 46 3f c1 b8 37 3f 35 7b 66 3f
       1.0998136 0.7747872 0.7176629 0.9003175
000040 3b 43 15 3f 30 ea 52 3f 3c 18 93 3f 1d c0 04 3f
       0.5830571 0.8238859 1.1491771 0.5185564
000050 17 74 79 3f 40 e5 77 3f af 40 70 3f 9e a4 1a 3f
       0.97442764 0.9683418 0.938487 0.60407436
000060 f5 ba 59 3f 65 5e 6e 3f d2 f3 4a 3f 9c 0c 7d 3f
       0.850509 0.93112785 0.7927829 0.98847365
000070 1a f1 66 3f 4a 08 65 3f b0 bf 71 3f 0b 6b 61 3f
       0.9021164 0.89465773 0.94433117 0.8805396
000080 35 b3 54 3f 2c a9 42 3f e6 53 87 3f b2 21 93 3f
       0.8308595 0.76039386 1.0572479 1.1494658
000090 ba e4 80 3f 90 da 1c 3f f7 c6 6f 3f 15 60 0a 3f
       1.0069802 0.61271 0.9366297 0.5405286
0000a0 83 24 7f 3f 9d cf 35 3f 39 7c 0a 3f 4a a9 85 3f
       0.9966509 0.7101992 0.540958 1.0442288
0000b0 0b 19 56 3f 85 38 61 3f 72 9d 87 3f 1b 08 82 3f
       0.8363196 0.87976867 1.0594923 1.0158724
0000c0 3e 26 22 3f ea 91 62 3f 54 d8 a8 3f 30 84 2b 3f
       0.633396 0.885039 1.3191018 0.6699858
0000d0 cc f2 27 3f be 57 46 3f 5e 0a 2d 3f 25 2e 09 3f
       0.65604854 0.77477634 0.67593944 0.53586036
0000e0 cb 5d 84 3f b9 f7 2a 3f c9 9d 6a 3f 1d 58 09 3f
       1.0341123 0.66784245 0.9164701 0.53650075
0000f0 93 af 7f 3f bb 4a 0e 3f 4c a2 82 3f ba 6b 94 3f
       0.9987728 0.5558278 1.0205779 1.1595376
000100 76 c6 8b 3f 63 50 43 3f dd 46 67 3f 46 7e 31 3f
       1.091994 0.76294535 0.90342504 0.693333
000110 e3 7d 80 3f 64 fc 37 3f 8a c9 18 3f 6a ec 06 3f
       1.0038418 0.7186949 0.59682524 0.5270449
000120 74 7d f9 3e 8e 46 67 3f d6 65 90 3f 58 f8 97 3f
       0.48728526 0.9034203 1.1281078 1.1872663
000130 e6 e6 92 3f 70 fa 7e 3f 36 ba 47 3f 31 89 66 3f
       1.1476715 0.9960089 0.7801851 0.9005309
000140 c0 7d 2b 3f cd 46 94 3f ca 13 68 3f 76 8b 63 3f
       0.66988754 1.1584107 0.90655196 0.88884676
000150 3b b9 20 3f 31 65 74 3f 70 9c 4f 3f 7d 44 8a 3f
       0.6278264 0.95466906 0.8109808 1.0802151
000160 72 97 10 3f 45 0a 1e 3f 33 be fb 3e 45 8c 0d 3f
       0.5648109 0.6173442 0.49168548 0.5529216
000170 03 82 7b 3f bb 84 87 3f 6b 04 4c 3f dc bc 0f 3f
       0.9824526 1.0587381 0.7969424 0.5614755
000180 48 39 20 3f 12 23 6a 3f 3a 92 58 3f 9c 96 77 3f
       0.62587404 0.91459763 0.84598124 0.96714187

predictor/bn1/beta f4 [100]
000000 13 85 25 bf e0 db 10 bf 9b f0 12 bf 53 2d 09 bf
       -0.6465618 -0.565855 -0.57398385 -0.53584784
000010 f5 64 8a be 5c 3a 43 bf 19 db 05 bf cf 7e 0d be
       -0.2703015 -0.76260924 -0.5228744 -0.13817905
000020 37 b2 bf be 0d fe 0d 3e e1 49 cc be 8b 9e f3 be
       -0.37440655 0.13866444 -0.39900115 -0.47581896
000030 7b 0e f1 be 5b 56 b5 be 6d 94 93 be 74 a0 27 bf
       -0.4708136 -0.35417446 -0.28824177 -0.6547921
000040 80 1b af be 9f 09 e5 be 4a ab eb be 96 1b 97 be
       -0.34200668 -0.44733903 -0.4602912 -0.29513234
000050 44 ed e0 be db d1 8b be da 58 ad be 39 ad 9d be
       -0.4393102 -0.27308545 -0.3385685 -0.3079622
000060 c1 9f 44 be d6 07 20 3d 3b 8f 6f bd 3c 57 36 be
       -0.19201566 0.039069973 -0.058486205 -0.17806715
000070 b3 f8 3d be ef 16 19 be 64 39 90 be 0b 29 b6 bd
       -0.18551902 -0.14950155 -0.28168786 -0.08894547
000080 29 67 86 be 7f 44 26 bf fb 1f 3d bf 58 7c 67 be
       -0.2625058 -0.64948267 -0.73876923 -0.22606027
000090 77 50 69 be a5 98 95 be b8 24 37 be 86 af 89 be
       -0.22784601 -0.2921802 -0.17885101 -0.26891726
0000a0 65 4b f9 be 79 f3 24 be 6d 5f 50 be 9b 5c 8e be
       -0.48690334 -0.16108502 -0.20348902 -0.27805027
0000b0 00 87 e0 be f1 3e 44 bf 3c 83 1c be b8 23 84 be
       -0.43852997 -0.7665854 -0.15284437 -0.258085
0000c0 df 2e 90 be d9 f5 5e be de 62 90 be 0e 99 1c bf
       -0.2816076 -0.21773471 -0.2820043 -0.6117104
0000d0 86 3f 57 be e7 5d 61 bd 8c 25 a7 be 87 c7 cb be
       -0.21020326 -0.055021193 -0.32645833 -0.39800665
0000e0 dc 51 e1 be 8e 0b 84 be 44 44 21 bf b8 79 19 be
       -0.44007766 -0.25790066 -0.6299479 -0.14987838
0000f0 cc f0 fe be b6 fb b4 be 4b 3c 06 bf a6 8d 90 be
       -0.49793088 -0.3534829 -0.5243575 -0.2823307
000100 d3 02 84 be 44 c6 47 bd cb 10 3d be 9c e4 a0 be
       -0.25783405 -0.048773065 -0.18463437 -0.31424415
000110 bf ec 44 be 87 22 25 bf 2e 44 c1 be 33 3b a1 be
       -0.19230936 -0.6450581 -0.3774733 -0.31490478
000120 34 00 ee bd 2b 81 46 be 4b 08 04 bf 94 ff ac be
       -0.116211325 -0.19385211 -0.51575154 -0.3378874
000130 71 b1 32 be 25 ef fd be 92 29 78 be 42 56 1c bf
       -0.17450501 -0.49596515 -0.24234608 -0.6106912
000140 f1 90 b0 be 0d 5e b2 be 57 8d 83 be ab 69 e9 be
       -0.34485582 -0.3483738 -0.2569377 -0.4558843
000150 e5 80 d5 be d8 e5 bb be de 81 13 bf 90 00 b9 be
       -0.416999 -0.36698794 -0.57620037 -0.36133242
000160 f6 8e c6 3d 38 cb b0 be 18 12 ba be 20 20 36 be
       0.096952364 -0.34530044 -0.3634193 -0.17785692
000170 d7 17 1d 3d bc e2 77 be 96 1b 78 be a1 0c 1f be
       0.038352814 -0.24207586 -0.24229273 -0.15532161
000180 85 f7 07 bf 61 45 86 3d 23 f1 92 bd ad 57 bc be
       -0.5311206 0.06556202 -0.071748994 -0.3678564

predictor/bn3/gamma f4 [100]
000000 bc ed 74 3f 56 3c 6a 3f 89 68 6d 3f 41 5e 7f 3f
       0.95675254 0.91498315 0.92737633 0.99753195
000010 f1 66 68 3f e9 3e 5e 3f 78 b1 63 3f 70 c1 6a 3f
       0.90782076 0.86814743 0.8894267 0.9170141
000020 48 62 63 3f 01 2b 6e 3f 4a 7d 6c 3f a1 8a 63 3f
       0.8882184 0.9303437 0.92378676 0.88883406
000030 ab 5e 76 3f 22 86 6c 3f a0 9d 6d 3f ac 90 6b 3f
       0.962382 0.9239217 0.9281864 0.92017627
000040 5d 4b 6a 3f 42 69 69 3f c4 4a 77 3f 06 ea 73 3f
       0.91521245 0.91176236 0.9659846 0.95278966
000050 3a 53 72 3f 4f 91 77 3f 54 75 6d 3f 0a d1 6c 3f
       0.94658244 0.967061 0.92757154 0.9250647
000060 9c df 6a 3f c1 17 65 3f f4 18 7a 3f d2 90 74 3f
       0.9174745 0.8948937 0.97694325 0.9553348
000070 72 3f 79 3f c9 72 68 3f f6 27 6e 3f 4a d4 75 3f
       0.97362435 0.9080015 0.93029726 0.9602705
000080 d5 50 7c 3f 92 c6 76 3f 67 68 65 3f 73 0f 77 3f
       0.9856084 0.96396744 0.8961243 0.9650795
000090 aa 01 72 3f ae ed 69 3f 5e 4d 71 3f c9 fa 73 3f
       0.9453379 0.91378295 0.9425868 0.9530454
0000a0 78 2a 65 3f 17 8f 6b 3f 27 7d 72 3f 5c f9 6c 3f
       0.8951793 0.9201521 0.9472222 0.9256799
0000b0 34 0a 71 3f 4e 79 78 3f ca c0 71 3f 92 e4 6a 3f
       0.94156194 0.97060096 0.944348 0.9175502
0000c0 1c 7a 68 3f 69 1e 7a 3f bf da 72 3f 38 7d 62 3f
       0.90811324 0.9770265 0.9486503 0.8847232
0000d0 3f 6c 6f 3f 7b ca 62 3f 00 c5 63 3f 71 42 70 3f
       0.93524545 0.8859021 0.88972473 0.9385138
0000e0 5f a1 72 3f de 91 63 3f ed 5f 61 3f c4 c4 80 3f
       0.9477748 0.8889445 0.88036996 1.0060048
0000f0 ce 11 7c 3f 0a 69 65 3f 13 4d 6e 3f ae 5b 6e 3f
       0.9846467 0.896134 0.93086356 0.9310864
000100 0e d6 4d 3f 72 7e 76 3f a6 53 72 3f 36 c6 69 3f
       0.80404747 0.9628669 0.9465889 0.9131807
000110 a9 8d 73 3f ba 5d 3c 3f b4 19 71 3f 1d a8 60 3f
       0.9513803 0.73580515 0.94179845 0.8775652
000120 57 08 7a 3f 3f 5c 70 3f 51 10 6b 3f 15 c1 6c 3f
       0.97668976 0.93890756 0.9182177 0.9248212
000130 bc 58 6e 3f 9b 7f 79 3f b6 df 6e 3f 31 b9 7b 3f
       0.9310415 0.97460335 0.93310106 0.98329455
000140 31 a4 66 3f d6 5d 7b 3f b7 9a 72 3f d4 42 6b 3f
       0.90094286 0.9819006 0.94767326 0.91898847
000150 44 0d 6a 3f 4c 1e 7f 3f 49 1e 73 3f da d4 6e 3f
       0.9142649 0.99655604 0.94968086 0.93293536
000160 a9 e9 6a 3f cd 2d 69 3f b9 79 56 3f 29 8b 6c 3f
       0.9176279 0.9108551 0.83779484 0.9239984
000170 8d 13 61 3f d8 50 74 3f 45 9c 73 3f 46 83 74 3f
       0.8792046 0.9543586 0.95160323 0.9551281
000180 f4 fb 76 3f 0e 26 70 3f fd fe 78 3f 3a 07 70 3f
       0.964782 0.93808067 0.9726408 0.93761027

predictor/bn2/avg_mean f4 [100]
000000 1e 09 78 bf 62 0c 9d 3e e0 3f e2 be 7b f8 36 bf
       -0.9688891 0.3067351 -0.44189358 -0.714729
000010 25 0e db be 2a 60 b1 be e5 99 3a 3e 7b d4 1e bf
       -0.4278423 -0.3464368 0.18222769 -0.6204297
000020 a3 82 8b bf c6 af 3b 3f 0e ce 3f bf e0 e4 b4 be
       -1.0899242 0.73315084 -0.7492379 -0.35330868
000030 b6 c9 0c bf e1 9a 31 bf 2d b2 1f bf aa f5 20 bf
       -0.54995286 -0.6937695 -0.6238125 -0.62874854
000040 90 d4 e5 be d8 54 57 bf bc 23 cb be 91 51 05 bf
       -0.44888735 -0.84113836 -0.396757 -0.52077585
000050 60 48 1e bf b6 62 d5 be 70 12 c7 be af c0 52 3f
       -0.61829185 -0.41676873 -0.38881254 0.8232526
000060 2a 55 52 bf 4a 60 36 bf a9 f6 07 bf 18 61 9d be
       -0.821612 -0.71240675 -0.5311075 -0.3073814
000070 bb 70 d4 be f7 68 9a be 95 f5 cb bd 0f 76 52 bf
       -0.41492257 -0.30158207 -0.099589504 -0.82211393
000080 5e 81 cf be 7a 49 4a bf 5b ac 19 bf ee f3 84 bf
       -0.40528387 -0.79018366 -0.6002862 -1.0386941
000090 70 41 57 bf af 21 f7 be e0 d6 ae 3e 40 ce 3c bf
       -0.84084225 -0.48267886 0.34148312 -0.7375221
0000a0 75 5a 29 bf 23 cc 49 bf 30 c8 59 3c 56 63 52 bf
       -0.6615365 -0.7882711 0.013292357 -0.82182825
0000b0 91 d1 c3 3e 26 df 03 be ea f1 b4 be ea 5b 38 bf
       0.38245824 -0.12878093 -0.35340816 -0.7201525
0000c0 83 35 b4 bd bc 3e a6 be 94 34 66 bf 72 5b 0b bf
       -0.08799269 -0.32469738 -0.8992398 -0.5443641
0000d0 49 32 ca be 4d 43 32 bf 8c df 51 bf c4 c3 51 bf
       -0.3949149 -0.6963394 -0.8198173 -0.8193934
0000e0 c9 d6 18 be 78 c0 e6 3d 2c f1 06 3f d1 81 a6 3e
       -0.14925684 0.11267179 0.5271175 0.32520917
0000f0 b6 9c 5a bf 5a 30 3d 3f 45 3b 5f bf f0 05 8d bf
       -0.8539537 0.73901904 -0.87199813 -1.1017437
000100 f1 31 56 be 3c f3 e6 be 10 bb 93 be 06 34 51 bf
       -0.20917489 -0.45107448 -0.28853655 -0.81720006
000110 0a 78 50 3f 3e bd ef be 9e d8 e7 be d1 b1 0d bf
       0.81433165 -0.46824068 -0.45282453 -0.5534945
000120 b7 2e 10 bf dc a4 25 bc 14 d1 b4 3e 88 96 52 bf
       -0.5632128 -0.010110106 0.35315764 -0.8226094
000130 31 4b d1 bc 91 71 61 bf f0 5f d2 be 07 d7 2a bf
       -0.02554855 -0.88063914 -0.4108882 -0.66734356
000140 84 38 b8 3e 67 72 49 be 0e bf 11 bf 7f b7 3c bf
       0.35980618 -0.19672547 -0.5693215 -0.7371749
000150 e9 00 a0 be 00 b5 29 bf e5 8c c1 3d 74 b6 17 bf
       -0.31250694 -0.6629181 0.094507016 -0.59262776
000160 32 c1 42 bf aa 39 1e 3f 55 e1 a3 be 3b 1e f5 be
       -0.7607604 0.6180674 -0.32007852 -0.47874627
000170 67 95 5b bf 02 39 36 bf 79 c7 0b bf fc 9f 8a 3e
       -0.85774845 -0.71180737 -0.54601246 0.27075183
000180 fa 8f af be de ab 68 bf 9f 28 ba 3e 41 b2 e3 be
       -0.34289533 -0.9088725 0.36359116 -0.44471934

predictor/l4/W f4 [2, 100]
000000 39 01 f6 3d b8 e6 84 3d 0d 1c c2 3d 60 37 b9 b7
       0.12011952 0.064893186 0.094780065 -2.2079505e-05
000010 d5 1b 8f bd e0 65 e4 bd 4b b9 a7 3d 29 9d 9c 3d
       -0.069877304 -0.111522436 0.08189639 0.076471634
000020 97 f7 54 bd 4d 33 3c bc 5f dd 50 3d 8e 0c 16 be
       -0.051993933 -0.01148684 0.050992366 -0.14653227
000030 b0 70 05 3d d6 b1 02 3e 53 b5 70 3d d1 eb 09 bd
       0.03257817 0.12763152 0.058766674 -0.033672158
000040 da 43 14 be be fc da 3c d9 51 90 bd 0e 4a 94 3d
       -0.14479008 0.026731845 -0.07046861 0.07240687
000050 24 90 e1 3d 23 fc ca 3c c0 d5 79 3d 72 00 31 be
       0.11013821 0.024778431 0.060994864 -0.17285326
000060 15 bc 21 bd de 4b 4a bd ed b7 cd bd 58 e6 b8 bc
       -0.03948601 -0.04938876 -0.10044847 -0.022570774
000070 48 aa f6 bd ee e1 fb bd ec 5e 8a bd 7b f9 6e bd
       -0.12044197 -0.12298952 -0.06756386 -0.058343392
000080 93 57 82 3c 91 ce 10 3d 02 82 6c bd 6d 1c 28 bd
       0.0159109 0.035353247 -0.057741173 -0.041042734
000090 cf ce e4 3c 17 fb a1 bd 4d d6 09 be 83 6c 92 bd
       0.027930645 -0.0790922 -0.13460656 -0.07149603
0000a0 da 25 e4 3d 4b fa 14 3e eb 8d 7a bd 58 6c c3 3d
       0.11140032 0.14548604 -0.0611705 0.09542149
0000b0 ee 0c 52 3e 65 ef 20 bd 59 5e 9f bb dc 08 c3 3c
       0.20512745 -0.039290804 -0.004863542 0.023807935
0000c0 a6 f6 a2 bd f1 6f 5c 3d b4 91 f1 bd 28 d7 13 3d
       -0.07957201 0.053817693 -0.11795369 0.03609386
0000d0 28 52 0d 3e c6 84 e1 3c 8f 31 26 3d d7 46 60 bd
       0.13800871 0.027529132 0.040574607 -0.05475506
0000e0 7e e1 f4 bd b0 8b d6 bd cb 4b 55 bd 35 28 06 3d
       -0.11957072 -0.10475862 -0.052074235 0.03275319
0000f0 09 bf 37 3e 0a 7e 64 3b ce 75 c3 3d 7b d8 84 bd
       0.17943968 0.0034865164 0.09543954 -0.06486603
000100 b9 ea f3 bb 2d 2b f7 3c ea f3 b2 3d 4f d6 b3 3d
       -0.0074437526 0.030171955 0.08737929 0.087811105
000110 8c f7 d1 bd 49 12 19 bd 01 56 4e bc 68 96 51 bb
       -0.10252294 -0.037370954 -0.012593747 -0.0031980518
000120 87 1f b8 3c 37 05 f0 bd bc 3c 03 3c 51 a2 2d bd
       0.02247597 -0.11719745 0.008010086 -0.042391125
000130 67 67 ac 3c 0e 4d e6 3d f1 5c 19 3d 4f d6 bc 3d
       0.0210454 0.11245166 0.03744215 0.092205636
000140 8e cb 4a be 15 2d 63 be 4c dc 4b 3d 60 73 59 3d
       -0.19804212 -0.22185166 0.04977064 0.053088546
000150 71 4b 6b 3d 7b 36 3a 3d 60 49 26 be 63 9e 44 3d
       0.057444993 0.045462113 -0.16238928 0.04800261
000160 a1 95 25 3d 43 1c 61 3d 63 12 8d bd a1 b0 73 bd
       0.0404259 0.054958593 -0.068882726 -0.05949462
000170 d1 7f ab 3d d4 2c f4 3d 99 ca b2 bd 6a 8a f0 bd
       0.083739884 0.11922613 -0.08730049 -0.117451504
000180 fe 3e 46 3d f0 7c b3 bd e7 58 94 3d 38 d1 68 3d
       0.048399918 -0.08764064 0.07243519 0.05684015
000190 2e 75 79 3d ae c2 ac bb 72 ea 2e bd b1 56 89 3d
       0.060902767 -0.005272231 -0.042704053 0.06705988
0001a0 7e 0c 8f bc 9f af 4c bd 9b 40 33 3c e3 00 a0 ba
       -0.017462011 -0.049972173 0.010940696 -0.0012207296
0001b0 aa 73 55 3d 5c e4 4a 3d 7d 3c 24 3e 6f 3e bd bd
       0.05211226 0.049534187 0.160387 -0.09240424
0001c0 4b 7d d9 3d f4 69 f1 3b 32 69 e5 bc a6 05 4f 3d
       0.10619601 0.007367367 -0.028004263 0.050542496
0001d0 8e 1a 4c bd 67 5e 9f 3d dc e6 0f be 77 cb 41 3c
       -0.049830012 0.07781678 -0.1405291 0.011828295
0001e0 dc f7 47 3c 89 3e 07 bd b7 9a e7 bc c9 fd ee bd
       0.01220509 -0.033018623 -0.028272016 -0.116694994
0001f0 92 91 6d bd e0 d0 d5 bd 7e d7 25 bc 44 bc 97 3d
       -0.058000155 -0.1044023 -0.010122178 0.07408956
000200 c3 53 da 3b f7 ba 56 bd 3b 74 1f 3d b0 7f 66 bb
       0.006662817 -0.052424397 0.038929205 -0.0035171323
000210 c7 0a 41 bd 3e 55 eb 3d cc d6 14 3d 0b ff be 3d
       -0.04712942 0.11490868 0.03633766 0.09325989
000220 8e 8d 5c bd c4 e0 e9 3c 30 5f 9a bd 17 2f 27 be
       -0.053845935 0.02854956 -0.07537687 -0.16326557
000230 ec 5a 56 3d 4f 3d f6 3c 04 4c 92 3c 42 af 47 3e
       0.052332804 0.030058531 0.017858513 0.1950045
000240 1c 33 a9 3d a7 f2 6c 3d 4b 55 89 3d dc d8 bf bd
       0.082617015 0.0578486 0.067057215 -0.093675345
000250 fb 7c 81 bc 8a 9f 00 bd 45 f2 eb bb 27 03 eb 3d
       -0.015806666 -0.03140215 -0.0072005116 0.11475211
000260 98 a8 3a 3d a8 02 2e bd 0a 4f 22 bd 8d 91 03 be
       0.04557094 -0.042483002 -0.03962616 -0.12848492
000270 24 23 84 bd 5f b5 30 be bf f8 08 be 06 78 99 bd
       -0.06452015 -0.17256688 -0.13376139 -0.07493596
000280 b3 0f b7 3d 94 86 7d bd cf 20 38 3c 4b 1a 6a 3c
       0.08938541 -0.06189592 0.011238291 0.014288495
000290 03 e2 8a 3d 83 1f 0b bd ac e5 0c 3d 9f 25 1d 3d
       0.067813896 -0.0339656 0.03439872 0.038365956
0002a0 1b ba 8a bd c9 f1 b6 bc 54 ca 97 bd 6b c1 c4 3d
       -0.06773778 -0.022332089 -0.07411638 0.09607204
0002b0 cd e8 20 3e 47 15 7f bd 9c a0 78 3d 7f ec e7 3c
       0.15713806 -0.06227615 0.060700044 0.028311012
0002c0 cf 2d cc bc 64 ea 07 3d d6 9a df bc 69 62 a4 3b
       -0.024924187 0.033182517 -0.027295511 0.005016614
0002d0 b6 ef a7 bd b3 b1 01 be 9a e1 d7 bc 6a 85 e3 bc
       -0.08200018 -0.12665443 -0.026352692 -0.027773578
0002e0 d5 a3 07 3e ae cb 2b bd 36 bd 90 bd 35 bb 5c 3c
       0.1324609 -0.04194229 -0.07067339 0.013472368
0002f0 ae f1 12 3e 32 23 05 bd 94 f0 36 3d 10 18 04 be
       0.14350006 -0.032504268 0.044663027 -0.12899804
000300 f2 29 ac 3c 8f 64 2a 3d 37 bd 44 3d d0 e3 db bc
       0.021016095 0.041599806 0.04803201 -0.026842028
000310 f6 4e 36 bd 75 ab 04 be 47 8d 25 bc 89 30 a5 ba
       -0.044508897 -0.1295603 -0.010104484 -0.0012602966

predictor/l3/W f4 [100, 100]
000000 e8 07 07 3e 2c b7 4f be a9 f1 98 bd 0d b1 cf 3d
       0.1318661 -0.20284718 -0.07467968 0.10141192
000010 31 eb 1c bd 00 fb 4a 3d ba ce c4 3d 5c 9a 94 bd
       -0.038310234 0.04955578 0.096097425 -0.07256004
000020 b2 3a e9 bd 1f 1e 09 3e 27 7b 8d be 61 e3 90 3d
       -0.11388148 0.13390397 -0.2763302 0.07074619
000030 d7 9d ac bd 5c 21 3a be 71 a6 20 be 06 49 e6 bd
       -0.08428543 -0.18176788 -0.15688492 -0.11244397
000040 e2 92 8a 3d 98 c0 09 be 90 3d 57 3e 31 87 1c be
       0.06766297 -0.13452375 0.21019578 -0.15285946
000050 09 65 c1 bd 57 83 b6 3d d0 53 52 be 49 2d 9f bd
       -0.09443099 0.0891177 -0.20539784 -0.07772309
000060 97 47 2e be 7b b4 1f be fc ac 4b be ac 11 65 be
       -0.17019497 -0.15596192 -0.19890207 -0.22370023
000070 22 47 61 3d d6 1f 17 be 2a 2a 3c 3d 89 f4 8e 3c
       0.05499948 -0.14758238 0.04593865 0.017450588
000080 99 ac 31 be 15 fa c4 3d 4b 11 f2 bd 91 45 c3 bd
       -0.17350997 0.09618012 -0.118197046 -0.09534753
000090 ec 3e 81 be d0 9b 07 3e 57 c8 18 be 44 e8 cc 3d
       -0.25243318 0.13243032 -0.14920174 0.10005239
0000a0 69 6a bc bc e6 ea f5 3b 40 91 d7 bc 99 e3 84 bd
       -0.022999959 0.0075048087 -0.026314378 -0.06488723
0000b0 c3 46 23 be 82 0e 65 be de e5 07 be 17 78 f1 3c
       -0.15944962 -0.22368816 -0.13271281 0.029476209
0000c0 54 56 9b 3d 37 cf 16 be 26 02 28 3e 9f 6c 19 be
       0.07584825 -0.14727484 0.1640707 -0.14982842
0000d0 d3 5f 63 bd 71 a7 b0 bc bd 0b a1 3e 06 a0 0c bc
       -0.055511307 -0.021564217 0.31454268 -0.008583074
0000e0 28 0e bc bc 39 6d 14 be 45 ba 49 3e 23 d5 dd bd
       -0.022955969 -0.1449479 0.19699962 -0.10831668
0000f0 37 1a 11 3e 85 eb 2d 3d 2b e3 3c 3e e1 48 ae bd
       0.14170156 0.042460937 0.18446033 -0.08509994
000100 1e b8 f2 3b d8 ce 21 be bc 92 12 3d 38 93 66 3e
       0.0074072024 -0.15801561 0.035784468 0.22517097
000110 ec 81 99 bd 43 99 de 3b f8 da 77 bd d3 2c 91 bd
       -0.07495484 0.0067931726 -0.06051156 -0.07088628
000120 9f e7 56 bd 75 9a ff bc 19 8e 3b bd 3b 64 03 bd
       -0.052466985 -0.03120158 -0.04578981 -0.03207801
000130 8e 24 16 bd a8 8f f7 3d 25 e2 90 be 35 27 1b be
       -0.036655955 0.12087947 -0.28297535 -0.15151675
000140 a9 1b 13 bc 47 86 77 3d bb 5c 26 3d 00 f7 51 3e
       -0.008978763 0.06043079 0.04061578 0.2050438
000150 1f c9 c5 bd 10 b4 1f be c2 c6 01 3e 2a 33 69 3e
       -0.096575014 -0.15596032 0.12673476 0.22773424
000160 c8 dd 0d be 4d 8f 35 3e 29 e2 97 be 51 20 b0 be
       -0.13854134 0.17730446 -0.29664734 -0.34399655
000170 09 f8 c7 3d b8 fc c6 bd 81 b4 97 3d e2 23 20 3d
       0.09764106 -0.09716171 0.07407475 0.03909672
000180 0e 5a 3f 3c 07 c3 81 3d ab cb 7d bc d4 3a bf 3a
       0.011679186 0.06336027 -0.015490453 0.0014589676
000190 0c 3a 26 3d c8 45 b8 bd 85 20 ae bd 16 ed b5 3c
       0.0405827 -0.08997685 -0.08502296 0.022207778
0001a0 fb 9f ad 3b ee a2 02 3d 4f f5 13 3e ce 9a 52 be
       0.005298612 0.031893663 0.14449047 -0.20566866
0001b0 3c f1 19 be 01 f6 09 3e a8 29 e6 bd 17 44 73 3d
       -0.1503343 0.1347275 -0.11238414 0.059391107
0001c0 f4 db 05 bd b5 26 07 be b4 8c c0 bd fc 82 8a bd
       -0.032680467 -0.1319836 -0.09401837 -0.067632645
0001d0 58 58 8a bd 2f d0 c8 bd 2c b4 8e 3c 54 53 1d be
       -0.067551315 -0.09805333 0.017419897 -0.15363818
0001e0 c4 5d f1 bc 65 21 a5 bc d1 2d 88 bd ae 3f f3 bd
       -0.029463656 -0.020157525 -0.06649364 -0.1187738
0001f0 3f 45 e0 bd 39 d6 fe bd 2e 6a f9 bd 92 0f 69 bd
       -0.10950708 -0.124432035 -0.12178455 -0.056899615
000200 ad 06 4a 3d 15 54 56 be cf 54 d1 3c 95 72 b5 bc
       0.049322773 -0.20930512 0.025553135 -0.022149364
000210 17 8d 52 be 77 4d 49 3c 69 46 61 bb 39 af 21 be
       -0.20561634 0.012286535 -0.0034374243 -0.15789498
000220 c0 a7 83 be 41 10 62 3c d3 5a 8f 3d 0f 2a 07 3d
       -0.2571392 0.013797821 0.06999745 0.032999095
000230 1a 5b 23 be 4e 97 95 3c 24 13 07 3e 12 68 28 3c
       -0.15952721 0.018260624 0.13190895 0.010278719
000240 45 c6 12 be 06 d4 37 be c3 dc 37 3e 65 63 20 be
       -0.14333446 -0.17951974 0.17955308 -0.15662916
000250 33 ea d5 3d d0 59 a4 bd 34 6f 50 3e f4 91 0e be
       0.104450606 -0.08024943 0.2035492 -0.13922864
000260 ef 4b 19 be 78 aa 90 3d 3f be 27 3e ce 27 b6 bd
       -0.14970373 0.07063764 0.16381167 -0.08894311
000270 14 2d 28 be 3b e3 7e be 2c 9b 46 ba fc 8a a0 bd
       -0.16423446 -0.24891369 -0.0007576223 -0.07839009
000280 8d 19 ab bc f4 b3 5c 3c 9c 31 66 3e 20 07 a2 bd
       -0.020886207 0.013470639 0.22479862 -0.07911515
000290 da c9 80 3d 8f fa 2e be 5f ef 5b 3d 00 15 ff 3c
       0.062885 -0.17087768 0.05369508 0.031137943
0002a0 1a d7 ad 3d 6f c0 83 3d 84 54 e9 3d 30 e5 99 bd
       0.08488293 0.06433188 0.11393073 -0.07514417
0002b0 52 ea 00 3d a5 b7 87 3d 92 ff 5f be d0 80 78 bc
       0.031473465 0.06626824 -0.21874836 -0.01516743
0002c0 12 c6 52 be e8 72 cf bc 0a 0d 08 be 9e 5d 92 be
       -0.2058337 -0.025323346 -0.13286224 -0.2858705
0002d0 23 da b5 3d 1b a8 0a 3d 20 93 22 bd 58 05 a8 3d
       0.08879497 0.033851724 -0.03969109 0.08204144
0002e0 fc d1 a7 3b 7f dd 80 be 4c 4b 58 3d 6a 30 88 3d
       0.0051214676 -0.25168988 0.052806184 0.06649859
0002f0 61 d2 34 be a5 e1 ba bb 6e 9e 15 be ee bd 40 be
       -0.17658378 -0.0057031685 -0.14611217 -0.18822452
000300 aa c1 47 3e 6d 53 1e bc ce c5 12 3d db ba a9 bd
       0.1950747 -0.009663445 0.035833173 -0.08287593
000310 01 ef 42 be 96 7d b3 bd be 7e 4e bd 04 11 86 bd
       -0.19036485 -0.08764188 -0.05041384 -0.06546214
000320 9e f1 55 3e 24 57 ac 3d d8 c4 9c bd 7a 67 04 bd
       0.20892951 0.08415058 -0.076547325 -0.032325245
000330 69 ff 83 bd 83 2a 96 bd 96 51 4e 3b f5 24 c9 bd
       -0.064452 -0.07332327 0.0031481734 -0.09821502
000340 bd 1c d1 bd ef 1a 4c 3e 95 f8 12 be 8f 13 6a 3d
       -0.102105595 0.1993215 -0.14352639 0.05714756
000350 d9 2f ea bd 68 ad 57 bc ec 2d 27 be b4 d3 aa bd
       -0.114349075 -0.013163902 -0.16326112 -0.083411604
000360 6b 15 90 3d 82 d3 98 bd 8f 18 0a 3d 62 59 4e bd
       0.07035335 -0.07462217 0.033714827 -0.05037821
000370 b3 05 85 bb 14 ee f9 3d d3 ee 62 bd 92 6c c7 bd
       -0.0040595173 0.12203613 -0.05540354 -0.09737505
000380 6a 4d 0c bd 28 78 c0 bd 80 c5 3a be 85 f0 1a be
       -0.034253515 -0.09397918 -0.18239403 -0.15130813
000390 f5 f4 ab 3c 43 59 54 be e0 f3 48 bd 67 b3 80 3e
       0.020990828 -0.20737176 -0.049060702 0.25136873
0003a0 d3 8a ed bd cd d1 2b 3e b5 dd 8c 3c ae b8 ed bd
       -0.11598744 0.16779251 0.017195562 -0.116074905
0003b0 a8 f7 00 bc 40 f2 1f 3d a2 92 72 bc 6c 77 93 3a
       -0.007871546 0.039049387 -0.014805468 0.00112508
0003c0 18 0e 17 be 69 a4 98 bc 99 84 c3 bd 68 3a 02 be
       -0.1475147 -0.018633084 -0.09546775 -0.12717593
0003d0 ab 3a 55 be be 91 63 be 7e 02 21 3e 76 ee aa 39
       -0.20823161 -0.22223565 0.15723607 0.00032602594
0003e0 3a 9f e2 3d 5d 2c 8e 3d 5e 77 62 3e 82 39 07 be
       0.11065526 0.069420554 0.22115847 -0.13205531
0003f0 c0 b6 43 be a9 bf eb bd 86 ec a6 3c 39 56 01 be
       -0.19112682 -0.11511166 0.020376455 -0.12630548

predictor/bn2/beta f4 [100]
000000 00 b8 ad be 1e d7 20 bd 54 13 df be 9a 5b 6f bd
       -0.33929443 -0.03926765 -0.43569434 -0.058436967
000010 ff b3 df be e2 4b e4 bd 97 ea 75 be 7a 03 b8 be
       -0.43692014 -0.11147286 -0.2401527 -0.35940152
000020 23 82 f2 be 31 b8 81 be bd 5e 02 bf 43 80 ac be
       -0.4736491 -0.2533584 -0.5092581 -0.33691606
000030 80 09 65 be f5 e9 83 be 2b d2 71 be 5d 07 da be
       -0.22366905 -0.25764433 -0.23615329 -0.42583743
000040 c8 e0 bb be 34 39 aa be 6b af 82 bd a7 3c b8 be
       -0.36694932 -0.33246768 -0.063811146 -0.35983774
000050 ea 84 43 be 02 46 75 be 9d 06 f3 be 60 9c 1b be
       -0.19093671 -0.23952487 -0.47465983 -0.15196371
000060 2f 24 bb be cf a4 7e be bb 82 8f bd d9 b7 8e be
       -0.36551043 -0.24867557 -0.07007357 -0.2787464
000070 56 9c 19 be c5 81 bf be 13 2c af bd c1 b1 bf be
       -0.15001044 -0.37403694 -0.08553328 -0.37440303
000080 32 ee f5 bd a2 3e c0 be fb d3 1e be 98 ed d8 be
       -0.12008323 -0.37547785 -0.15510552 -0.4236877
000090 58 42 55 be 0c e1 1d be 0b 05 94 3c 85 f5 84 be
       -0.2082609 -0.1541788 0.01806881 -0.25968567
0000a0 4c 70 86 be d7 d0 a3 be 39 03 0e be 3b fb df be
       -0.2625755 -0.3199527 -0.13868417 -0.4374636
0000b0 6f 77 58 be 6d 78 a7 be aa c6 53 be 68 15 b7 be
       -0.2113931 -0.32709065 -0.20681253 -0.3575852
0000c0 71 95 8d be 18 58 ba be 82 d1 9a be 11 00 93 be
       -0.27653077 -0.36395335 -0.30237967 -0.28710988
0000d0 32 23 be be f6 79 8d be 0e 7f bf be c5 8d 8f be
       -0.37136227 -0.2763211 -0.37401623 -0.2803785
0000e0 cd 4a 64 be 86 72 91 be 05 96 25 be 8f 8e c3 be
       -0.22294159 -0.28407687 -0.16170509 -0.381947
0000f0 c8 09 a5 be d6 f9 af bd ec 5c af be ec f0 9f be
       -0.32234025 -0.08592574 -0.3425058 -0.31238496
000100 80 68 06 be a0 18 af be df 49 75 bd b7 04 e4 be
       -0.13125801 -0.34198475 -0.059884902 -0.44534847
000110 1d 59 82 bd 8f ad 6c be 76 82 87 be 68 91 a2 bd
       -0.06364653 -0.23113082 -0.2646672 -0.0793789
000120 da aa 41 be 97 4f 81 be 5f 13 06 be 7e 3d e8 be
       -0.18912831 -0.25256035 -0.13093327 -0.45359415
000130 1b 1e 3d 3c f7 c2 06 bf 71 85 79 be f6 09 6e be
       0.011542822 -0.5264124 -0.2436731 -0.23245987
000140 8c c8 ad be 77 e7 1a be b0 c4 81 be 46 76 86 be
       -0.33942068 -0.1512736 -0.25345373 -0.2626211
000150 bd f6 4e be 0c 51 c1 be 23 b9 3b be 5d 6a 82 be
       -0.2021131 -0.37757146 -0.18332343 -0.25471774
000160 a0 2e 0f bf d4 0a 85 be 97 e8 bb be 8d e2 1f be
       -0.5593052 -0.25984824 -0.3670089 -0.15613766
000170 df 1f a6 be d8 22 ff be 2d 57 5a be 9b c2 bc be
       -0.3244619 -0.4983127 -0.21322317 -0.36867222
000180 2f 1e 89 be 30 70 ac be a1 d7 a5 be 6d 31 f2 bd
       -0.2678084 -0.33679342 -0.32391074 -0.118258335

predictor/bn3/beta f4 [100]
000000 7c ec 9a bd 6e 23 9d bd 6b ca 00 be 9b 9f b0 bd
       -0.07564637 -0.07672773 -0.12577216 -0.08624192
000010 e8 16 68 bd 5e b4 24 be 08 e7 bd bd d5 4c 80 3d
       -0.05666247 -0.1608443 -0.09272581 0.062646545
000020 0a 9d 5a be 94 46 e4 bd 79 a1 55 bd 0f 61 c2 bd
       -0.21348968 -0.11146274 -0.052155945 -0.09491169
000030 aa 6e 73 bd 79 19 ed bd be 8d 8c bd 1c 5a d7 bd
       -0.05943171 -0.11577124 -0.06862973 -0.10515234
000040 b3 34 33 be 16 67 a2 bd 7e a1 a2 bd 4c 8f bd 3c
       -0.17500572 -0.07929818 -0.079409584 0.023139618
000050 a9 99 2c bd c8 16 76 3d 46 23 eb bd 60 70 9f 3d
       -0.04213873 0.06008032 -0.11481337 0.07785106
000060 77 85 b3 ba c2 9b 97 bd 98 cf d5 bc 1f 78 bf bc
       -0.0013696392 -0.07402755 -0.026099965 -0.023372708
000070 c1 6e 06 be 0c ad da bd de d6 9d bd bf bf 6b 3c
       -0.13128187 -0.10677537 -0.07706998 0.014388978
000080 33 15 85 bd 2d 38 ea bd 88 7e fe bd b7 43 47 bd
       -0.06498184 -0.11436496 -0.12426478 -0.048648562
000090 57 9d 9c 3d 33 97 14 be 63 15 f2 bd 67 2c 47 bd
       0.07647198 -0.14510803 -0.118204854 -0.04862633
0000a0 f3 1e cf bd 6d c0 55 bb 39 bc c6 3b be a4 bf bd
       -0.10113325 -0.0032615915 0.0060649184 -0.09357594
0000b0 b9 c1 61 bd 2c bf 00 bd 81 43 da bd 7e a8 dc bd
       -0.05511639 -0.031432316 -0.106574066 -0.10774325
0000c0 8a ef ed bd 63 1a 75 bd 5a 06 d1 bd 95 56 38 be
       -0.11617954 -0.059839617 -0.102062896 -0.18001778
0000d0 8e 63 4e bc 37 a0 51 bd eb 1e a2 3d 71 b0 c2 bd
       -0.012596978 -0.051178183 0.079160534 -0.0950631
0000e0 49 ec 81 bd 52 70 98 bd 74 9b fb bd 51 61 b2 bd
       -0.06343896 -0.074432984 -0.1228551 -0.08709968
0000f0 eb 40 0e be 32 cc 90 bd 43 dd cd bc 27 52 4a be
       -0.13891952 -0.07070197 -0.02512992 -0.19757901
000100 5b 7f 7c be 64 ab 00 3c 7c 89 e1 bb 0a 03 da bd
       -0.24657957 0.007853363 -0.0068828445 -0.10645111
000110 56 35 0c bc d5 c3 66 be 8f c1 f7 bc c8 14 84 bd
       -0.008557638 -0.22535641 -0.030243663 -0.06449276
000120 45 a2 98 3c 6f 11 00 bd ed f2 9b bd c7 a3 9d 3d
       0.018632064 -0.031266626 -0.07614694 0.07697254
000130 72 b7 fc bd a4 4d 31 3d cc 09 2d bd b4 fc b4 ba
       -0.12339677 0.043286934 -0.04224567 -0.0013808222
000140 17 77 e2 bd 9a d4 af bd a0 dc 41 bd 93 96 24 bd
       -0.11057871 -0.085854724 -0.047329545 -0.04018266
000150 3c af 19 be c3 40 cb bc 6d 60 27 bd 56 55 68 bc
       -0.15008253 -0.024811154 -0.040863443 -0.014180502
000160 eb 88 e4 bd cb eb cf bd 6a dc 3e be 0a f9 66 3d
       -0.111589275 -0.10152396 -0.18638769 0.056389846
000170 82 57 9f bd 8d c3 a0 3d 8a 52 48 bc 8b 74 9a bd
       -0.07780363 0.07849798 -0.01222671 -0.0754176
000180 7a 00 5f bd b6 25 1b be d2 bf cf bc 19 c6 04 bd
       -0.054443814 -0.15151104 -0.025360022 -0.032415483

predictor/l4/b f4 [2]
000000 9e ff 23 3e a2 ff 23 be
       0.16015479 -0.16015485

predictor/l3/b f4 [100]
000000 05 7c 75 3a 92 a2 65 ba b7 2d 91 3a b3 cc 98 ba
       0.00093644887 -0.00087598816 0.0011076246 -0.0011657685
000010 6e 7c 91 ba 7d 3d 11 3b da 0f 50 ba f3 49 f4 ba
       -0.0011099705 0.0022161894 -0.00079369324 -0.0018637761
000020 6b 78 e1 3a f5 68 01 3b 5a 6d 88 b9 ca 1f 0b ba
       0.0017202025 0.0019746397 -0.00026021415 -0.0005307166
000030 37 42 e6 37 0a 02 00 bb 96 86 e1 b9 e4 9c 3d 3b
       2.744897e-05 -0.0019532465 -0.0004301562 0.0028932625
000040 56 98 b3 3a d6 ff 85 ba ed 69 82 3a 40 a0 26 ba
       0.0013702016 -0.001022334 0.0009949781 -0.00063562766
000050 21 51 70 3a db 2b cf 3a fd 91 38 bb 0e 52 3c 38
       0.00091673626 0.0015805917 -0.0028163188 4.4899112e-05
000060 29 8d c7 38 1a 28 b0 b9 36 aa e4 3a c9 63 eb 39
       9.5153526e-05 -0.00033599214 0.0017445746 0.0004489704
000070 21 d5 45 3b e9 7c 1c ba da ee e8 3a c3 8e 0c ba
       0.003018685 -0.0005969541 0.0017771379 -0.00053618493
000080 5c 8f bd ba 87 2d 3a bb 21 10 62 3b 75 4f 3c b9
       -0.001446228 -0.0028408484 0.0034494477 -0.00017958677
000090 e8 0d 0c ba bf 94 ff ba 99 52 aa 3a 1b 47 87 bb
       -0.00053426484 -0.0019499286 0.0012994587 -0.0041283495
0000a0 2b 4f fb 3a 5c 60 2b 3b a2 ec 87 3a bb 82 38 3a
       0.0019173374 0.0026149964 0.0010370205 0.00070385233
0000b0 ad 17 3e bb 0e f7 b5 3a e8 f4 40 b8 8a f5 90 3a
       -0.002900581 0.0013882832 -4.6004454e-05 0.0011059504
0000c0 5d cc 89 ba d7 d9 12 ba 89 f5 9a ba d3 b1 fd 39
       -0.0010513176 -0.00056019187 -0.0011822443 0.0004838841
0000d0 02 fc e0 ba 6c 45 12 bb 54 54 f6 b9 de 18 98 ba
       -0.0017164948 -0.002231921 -0.00046983606 -0.0011604091
0000e0 fe 5f 34 bb 90 25 84 3a 0e b3 29 3b 83 de 7f bb
       -0.0027523036 0.0010081995 0.0025894078 -0.003904254
0000f0 a2 11 43 38 24 e1 0f bb 92 c2 e4 b9 5c 70 a7 ba
       4.6508045e-05 -0.0021954263 -0.00043632515 -0.0012774575
000100 8d 47 5a bb 22 dd 56 ba 31 c1 40 bb d6 80 3a 3b
       -0.0033306808 -0.00081964035 -0.0029412026 0.002845814
000110 ae 09 10 bb b7 ca 30 39 86 97 d1 ba 5f 42 10 ba
       -0.0021978426 0.00016860185 -0.0015990592 -0.0005503054
000120 86 1e fa 39 02 ba b6 3a 86 5e 00 bb 55 cc 0b ba
       0.00047706458 0.0013940933 -0.001958759 -0.0005332877
000130 53 cb 5c 3b 9d 73 8d 3a 6e 05 73 ba 1f 1e f8 b9
       0.0033690527 0.0010791902 -0.00092705234 -0.00047324688
000140 f8 e6 02 bb 3d 48 1e bb de f6 30 ba 41 aa 23 bb
       -0.0019974094 -0.0024151944 -0.0006750653 -0.0024973305
000150 d3 b4 95 b9 19 f2 5c 3a a3 d0 70 ba 10 1c 1e b9
       -0.0002855422 0.00084284093 -0.0009186363 -0.00015078508
000160 9a d9 28 bb 18 16 f2 3a 5f 8f 43 bb a6 d0 ff ba
       -0.0025764466 0.0018469719 -0.0029840095 -0.0019517138
000170 3d 88 bd 3a e2 c9 02 bb a2 df 77 bb 34 de 2e 3a
       0.0014460158 -0.0019956757 -0.0037822505 0.0006670684
000180 7a c4 10 bb c5 58 4a bb 73 b3 0a 3b 81 ef 76 3a
       -0.0022089765 -0.0030875665 0.002116409 0.0009419844

predictor/bn3/avg_mean f4 [100]
000000 dc 1a 61 bf 7c 69 80 bf 74 83 72 bf 9a 42 f8 be
       -0.8793161 -1.0032191 -0.9473183 -0.48488313
000010 78 a2 87 be e8 51 2b bf 82 98 48 bf 37 73 d3 be
       -0.2649114 -0.66921854 -0.7835771 -0.4129884
000020 20 a1 41 bf b7 47 5e bf 32 df 33 bf e1 6a dd be
       -0.7563648 -0.8682818 -0.70262444 -0.43245605
000030 6e a4 ac be c2 00 84 bf f9 5b 57 bf b5 16 28 bf
       -0.337192 -1.0312731 -0.84124714 -0.6565965
000040 7a 8a 56 bf e4 9f a0 be 96 b0 8b bf dd 9c 6c bf
       -0.8380505 -0.31371987 -1.0913265 -0.92426854
000050 f6 25 02 be 9c b8 76 bf c5 71 72 bf 55 1a 22 be
       -0.12709793 -0.9637544 -0.9470485 -0.15830357
000060 03 2c 0f bf 76 27 b3 be eb 96 b0 be a6 61 b8 3e
       -0.5592653 -0.34991044 -0.3449014 0.36012
000070 1e 4c 48 bf c6 66 2d 3e 86 a4 11 bf cd b2 af 3e
       -0.78241146 0.16933736 -0.5689167 0.34316102
000080 23 d3 64 bf 2c 2d 95 bf 55 f4 2b bf 5c ff 09 bf
       -0.8938467 -1.165441 -0.67169696 -0.5390527
000090 74 1e e1 be 4e 59 2f bf 0e 11 26 bf 66 15 84 bf
       -0.43968546 -0.68495643 -0.64869773 -1.031903
0000a0 0b 21 07 bf 75 16 31 bf 90 33 6c be 16 79 48 bf
       -0.52784795 -0.6917489 -0.23066545 -0.7830976
0000b0 e1 fc 45 bf 9c 14 10 bf a5 df 69 bf 09 6b 22 bf
       -0.7733899 -0.5628145 -0.9135688 -0.6344457
0000c0 90 bb a1 be f1 5b 9c bf 7f b2 de 3d ff c9 4f 3e
       -0.3158841 -1.2215558 0.10873889 0.20291899
0000d0 15 7d 7d bf 9e c2 61 bf af d0 c3 be ad b6 83 bf
       -0.99018985 -0.8818759 -0.3824515 -1.0290123
0000e0 60 62 7b be 07 3c 80 bf 86 71 2e bf f8 72 8d bf
       -0.24549246 -1.0018319 -0.68141973 -1.1050711
0000f0 04 5f 6e bf b3 3c 30 bf 9e 90 27 bf de b9 e5 bc
       -0.9311373 -0.6884262 -0.65455043 -0.02804273
000100 b0 ea a4 be 65 cc 30 bf 1c 35 8e bf 2b 49 5e bf
       -0.32210302 -0.6906188 -1.1109958 -0.86830395
000110 98 41 12 bf 95 3e 58 3f a7 4f 8a bf a8 a0 20 3e
       -0.5713134 0.8447049 -1.0805558 0.15686285
000120 88 51 28 bf 38 71 e6 be fa 27 ec bd 26 eb f0 bb
       -0.65749407 -0.45008254 -0.115310624 -0.0073522506
000130 b5 5d 58 bf 7a ba 4b bf 44 54 9e bf f3 80 44 bf
       -0.84517986 -0.79581416 -1.2369466 -0.7675926
000140 cf 6c 19 bf 58 84 e9 be f0 c1 65 bf ac 93 70 bf
       -0.59931654 -0.45608783 -0.8974905 -0.9397533
000150 ea b2 35 bf ba 57 8f bf 87 06 30 bd 23 06 68 bf
       -0.70976126 -1.1198647 -0.042974975 -0.90634364
000160 2a 96 51 bf ff f2 97 bf 4c 9b 1c bf be 31 76 bf
       -0.8186976 -1.1871032 -0.61174464 -0.9616965
000170 15 ef 51 bf 9f 8c 43 bf ab 0c d1 be e7 ac c1 bd
       -0.82005435 -0.76386446 -0.40829977 -0.09456807
000180 14 4c 85 bf f0 cb 38 bf 6b 86 57 bf c2 d2 5c bf
       -1.0413842 -0.72186184 -0.8418948 -0.8625909

predictor/l1/b f4 [100]
000000 da 68 29 bc ec cb 3c 3b 47 b4 98 bb f1 eb 41 3a
       -0.01033994 0.002880807 -0.0046601626 0.0007397524
000010 ee 90 04 b8 fd 52 94 3c 5d f7 c6 ba 5f 47 92 bb
       -3.160623e-05 0.018105978 -0.0015179921 -0.0044640745
000020 b7 65 71 b8 d6 15 77 b9 13 e9 81 3b 2f bf 87 3c
       -5.7553607e-05 -0.0002356389 0.003964552 0.016570656
000030 4a 50 df bc 57 47 3d 39 6f a5 55 ba 17 bb 2d 3a
       -0.027259964 0.00018051021 -0.00081499567 0.0006627305
000040 33 94 13 b9 13 f2 1a ba 9c 11 65 3c e4 0d b3 38
       -0.00014074221 -0.00059107057 0.013981249 8.5379725e-05
000050 57 89 a2 39 28 fc 3c ba 29 87 3a 3b da 55 a0 3a
       0.00031001374 -0.0007209205 0.002846191 0.0012232617
000060 d5 d2 2e 3a ef 52 1a 3c e7 f9 ee 38 65 38 90 3b
       0.00066689897 0.009419187 0.00011395272 0.004401254
000070 26 23 5e 3a b7 83 9f b8 4c 34 28 b9 66 8d f9 39
       0.00084738655 -7.6062446e-05 -0.0001604121 0.0004759833
000080 f2 a2 bf 3a 09 05 ef 37 34 1c 05 bd 66 51 99 ba
       0.0014620705 2.8493365e-05 -0.0324976 -0.0011697232
000090 93 7c 24 3a 15 91 45 ba 1a 7f bf 39 1c 3b c1 b5
       0.00062746665 -0.00075365725 0.00036525057 -1.4396824e-06
0000a0 d5 25 69 bb bf 9c 31 b9 73 4c e9 38 e4 e0 d7 b9
       -0.0035575528 -0.00016938428 0.000111245456 -0.00041175552
0000b0 42 cb cb bb d1 8c a6 bc 2c 38 0b 3b ce 7c 9b 3b
       -0.0062192986 -0.020330818 0.0021243198 0.0047451025
0000c0 33 4f 8c ba 74 3e c4 ba 46 bf 2b bc 7f b0 b0 ba
       -0.0010704756 -0.0014972226 -0.010482615 -0.0013480334
0000d0 4f e6 0c 39 1a ba 82 b8 b9 14 4e 3c 9b 87 17 b8
       0.00013437237 -6.233547e-05 0.012578183 -3.6127498e-05
0000e0 c8 e3 98 3c 7b ef 6e 3a 31 ed 36 bc db 7a a5 38
       0.018663302 0.0009114665 -0.011164949 7.890697e-05
0000f0 2e 1b 39 bc fa 59 3a b6 33 18 12 b9 af 8d 57 3c
       -0.011297984 -2.7768533e-06 -0.0001393266 0.013156339
000100 72 51 25 ba 2a 37 8b 3a ab 24 00 3a 16 3c 6e 3a
       -0.0006306387 0.0010621299 0.00048882765 0.0009087933
000110 b5 87 81 3b 74 c2 85 bb 69 41 ce ba f2 6b 09 38
       0.003952945 -0.0040820185 -0.0015736046 3.2763877e-05
000120 92 24 8f b8 aa 9e b0 b9 cf bc ab 3c 57 cc c3 3a
       -6.825583e-05 -0.0003368755 0.020964054 0.0014938217
000130 14 d7 c3 3a f8 c0 d8 bb 01 15 db b9 cd fe 2d 3c
       0.0014941418 -0.0066148005 -0.00041786584 0.010619831
000140 e9 ed ca 39 ef 1b ae 3b cd 7e ce 3a 34 b2 97 bb
       0.000387057 0.0053133885 0.0015754342 -0.0046293978
000150 5f 68 02 ba 71 4a 02 bc 81 b0 8b ba db ed 20 3d
       -0.0004974659 -0.0079523185 -0.0010657461 0.039289337
000160 0d b0 52 bb 05 b9 c8 b8 31 fd 96 39 65 c9 37 39
       -0.0032148391 -9.571206e-05 0.00028798872 0.00017527265
000170 63 de 77 3c bf f9 5e 3a 22 88 99 ba 22 e3 d7 38
       0.015128705 0.0008505843 -0.0011713544 0.00010294306
000180 70 1a 83 39 03 71 06 bb 8c 54 bb b8 a0 7b 2b ba
       0.00025005965 -0.0020514138 -8.932603e-05 -0.0006541554

predictor/l2/b f4 [100]
000000 3e 1d 4e bb 05 4a 8b 3b 82 6f 80 bb b4 5d 83 bb
       -0.0031450535 0.004250767 -0.0039195428 -0.004008973
000010 b1 41 25 bb 83 c1 28 bb dc bb 60 3b f1 8f a8 ba
       -0.0025216157 -0.0025750108 0.003429166 -0.0012860281
000020 d7 f1 10 bc 48 53 1c 3c d4 c1 09 3a 71 12 42 bb
       -0.008846722 0.00954134 0.0005255018 -0.0029613043
000030 fe 6a be 3b 1b 70 59 bb 63 6c b3 3b df dd be 3b
       0.0058110943 -0.0033178392 0.005475567 0.005824789
000040 b5 66 88 ba 05 26 51 3b 91 25 3a 3b 8f e8 ad 3a
       -0.0010406586 0.003191353 0.002840374 0.001326816
000050 f7 31 5f 3b 93 26 16 ba b8 8c 18 ba 42 b0 c2 ba
       0.003405688 -0.0005727794 -0.00058193086 -0.0014853554
000060 04 13 84 bb dd 0f ba 3b 61 1a 78 3b 77 9b 8a bb
       -0.004030587 0.0056781606 0.003785752 -0.0042299586
000070 6a 1c ff ba f3 44 ae ba d4 56 99 ba 03 1b d0 38
       -0.0019463424 -0.0013295695 -0.001169885 9.923244e-05
000080 2d f3 42 39 36 0c 45 bb a9 a7 0d bb ab 70 7b 3b
       0.00018591872 -0.0030067093 -0.0021614826 0.0038366716
000090 02 ef 9a 3a 64 19 a9 b9 d1 4f c7 bb 76 0b a5 bb
       0.0011820497 -0.0003225311 -0.006082513 -0.0050367666
0000a0 f0 5a 0d 3a b7 e4 5f 3a c5 31 0b bb b4 dd 21 3b
       0.0005392274 0.0008540856 -0.0021239382 0.0024698796
0000b0 b8 c8 9b 39 b9 c0 68 ba be 92 90 b9 49 71 c7 3a
       0.0002971345 -0.00088788156 -0.00027575152 0.0015216257
0000c0 ae 06 ff b9 cb 24 e4 b9 65 ac 1d bc cf c3 cf 3a
       -0.00048642367 -0.00043514962 -0.009623622 0.0015851202
0000d0 b0 85 6f 39 75 57 04 b9 e4 1c 1c 3b 10 c6 7e b6
       0.00022842619 -0.00012621081 0.002382093 -3.7964237e-06
0000e0 6f bf 3b ba ba 67 34 3b 67 7b b6 3a b9 eb 6e 3a
       -0.000716201 0.0027527646 0.0013922275 0.0009114105
0000f0 1d 7d ed bb 7e a0 09 3b db 36 bd 3b 85 a3 c2 bb
       -0.0072475807 0.0021000202 0.0057743615 -0.005939903
000100 64 15 89 bb 99 df 78 ba c3 2d 69 ba d5 88 05 3a
       -0.004183458 -0.0009493768 -0.00088950637 0.0005093937
000110 fb 5e ac bb 87 b6 52 bb 09 3d 68 bb 83 09 f6 b9
       -0.005260346 -0.0032152252 -0.003543677 -0.00046927863
000120 0a bf 50 bb 16 ca 80 39 a3 cc d6 bb c4 c0 17 bb
       -0.003185215 0.00024564628 -0.0065551563 -0.0023155669
000130 12 a7 c7 ba aa fd 46 39 0d 62 36 3b a2 23 81 bb
       -0.0015232286 0.00018977249 0.002782944 -0.0039410153
000140 3c a9 07 bb f5 00 a1 ba 17 41 96 3b 99 f2 0f bb
       -0.0020700237 -0.001228361 0.004585396 -0.0021964668
000150 30 94 d5 3a 3c c6 24 37 f5 fe 9e 3a 2b d0 80 3b
       0.0016294774 9.821317e-06 0.0012130426 0.0039310656
000160 14 ba 3a 3b 7c c6 38 bb 34 00 05 bc 56 c5 ca bb
       0.002849226 -0.0028194478 -0.008117724 -0.006188075
000170 a9 34 f5 bb 58 85 28 3b 9d c4 54 3b 37 7e 2b 3a
       -0.007483084 0.0025714245 0.0032465823 0.000654194
000180 12 c6 42 ba 6d 06 fc 3a 43 0f 5d ba f6 cd ae ba
       -0.00074300275 0.0019227989 -0.0008432755 -0.0013336528

predictor/bn2/gamma f4 [100]
000000 5d 3d 7d 3f 22 db 91 3f e6 59 6a 3f cf 79 77 3f
       0.9892176 1.1394999 0.91543424 0.9667024
000010 ee 6f 5d 3f 16 63 75 3f bc 91 6f 3f 82 ee 61 3f
       0.86498916 0.9585432 0.9358175 0.8825456
000020 cd a3 5d 3f c6 88 94 3f 19 de 6e 3f 67 37 56 3f
       0.86578065 1.160424 0.93307644 0.8367829
000030 0a d3 6d 3f ab 61 79 3f d6 0b 5e 3f 2e 7b 4d 3f
       0.92900145 0.97414654 0.8673681 0.8026608
000040 20 75 62 3f 8b 85 7b 3f 22 12 85 3f 6f 56 81 3f
       0.8845997 0.98250645 1.0396159 1.0104502
000050 b0 a6 6f 3f 3f 04 4c 3f 65 a3 72 3f 23 5b 67 3f
       0.9361372 0.7969398 0.9478057 0.9037344
000060 61 15 7c 3f f5 1c 7a 3f 3f d5 87 3f 49 7d 71 3f
       0.9847012 0.97700435 1.0611953 0.94331795
000070 22 ed 77 3f d4 95 7d 3f 54 c2 47 3f 36 d0 6e 3f
       0.9684621 0.99056745 0.78030896 0.93286455
000080 32 20 5b 3f a4 58 70 3f 32 ca 81 3f aa f5 6d 3f
       0.85596 0.93885255 1.013983 0.9295298
000090 21 cf 81 3f 30 95 6d 3f 07 38 64 3f 98 97 80 3f
       1.0141336 0.9280577 0.8914799 1.0046263
0000a0 60 5c 7b 3f 69 16 5b 3f a0 89 78 3f d7 cf 5f 3f
       0.9818783 0.8558107 0.97085 0.87426513
0000b0 d5 68 68 3f 8f 98 85 3f f8 97 70 3f e5 6b 65 3f
       0.9078496 1.0437182 0.93981886 0.8961776
0000c0 54 52 60 3f 4f 86 59 3f 75 87 71 3f b2 e6 7f 3f
       0.8762562 0.84970564 0.94347316 0.9996139
0000d0 eb a7 7f 3f ed eb 7a 3f 31 37 6f 3f fe a1 6c 3f
       0.998656 0.98016244 0.9344359 0.9243468
0000e0 c8 89 67 3f c2 8a 8c 3f 89 83 5e 3f 36 c3 80 3f
       0.9044461 1.0979846 0.86919457 1.0059574
0000f0 27 f8 85 3f cb 85 80 3f af 01 7b 3f 13 0f 71 3f
       1.0466355 1.004083 0.98049444 0.94163626
000100 50 5e 91 3f 92 4d 64 3f 6c 19 72 3f 46 f9 78 3f
       1.1356907 0.8918086 0.9457004 0.9725536
000110 ff d6 6d 3f b3 2a 42 3f 26 ec 4d 3f 0b 56 84 3f
       0.92906183 0.75846404 0.8043846 1.0338758
000120 b1 70 81 3f 32 0a 6f 3f 28 df 82 3f 55 8b 4d 3f
       1.0112516 0.9337493 1.0224352 0.8029073
000130 67 87 78 3f 01 33 68 3f 22 2f 81 3f b6 9e 74 3f
       0.9708161 0.90702826 1.0092509 0.95554674
000140 db 9c 62 3f fc 6a 4b 3f e5 23 5d 3f 06 ec 76 3f
       0.8852059 0.7946012 0.86382896 0.96453893
000150 54 69 7e 3f 60 61 73 3f eb 15 60 3f dd 03 81 3f
       0.9937947 0.9507046 0.87533444 1.0079304
000160 e7 7c 77 3f a1 fd 5a 3f 18 d3 6b 3f cf 12 8c 3f
       0.9667496 0.85543257 0.9211898 1.094324
000170 bc 99 58 3f d8 7c 63 3f 38 96 7b 3f 12 43 36 3f
       0.8460958 0.8886237 0.9827609 0.7119609
000180 3a 30 4d 3f f4 38 69 3f 2b 10 6e 3f be d5 7d 3f
       0.8015171 0.9110253 0.9299342 0.9915427

predictor/bn1/avg_var f4 [100]
000000 a6 24 ef 3f 3e 29 69 3f 98 dd 82 3f 20 6b fb 3e
       1.8683059 0.91078556 1.0223875 0.49105167
000010 d0 b8 aa 42 ab 9f 70 3f 49 43 87 40 24 d2 47 40
       85.36096 0.93993634 4.2269635 3.122201
000020 1b 95 5f 43 86 7b 63 41 8c 96 b5 3f 1d 64 16 40
       223.58244 14.217657 1.4186568 2.3498604
000030 4d 54 fc 3e 6e 39 40 43 0c fd 14 41 bd 5f 87 42
       0.49283066 192.22433 9.311779 67.68699
000040 38 91 e5 43 71 29 9e 40 99 64 0b 3f 24 fd f0 43
       459.13452 4.942559 0.54450375 481.97766
000050 9c 64 21 40 d2 36 ab 41 23 be 7e 41 21 28 8e 41
       2.5217657 21.401768 15.92142 17.769594
000060 26 ff 77 43 8b 09 51 40 cb 51 8d 43 4a c7 61 40
       247.99667 3.2662075 282.639 3.5277886
000070 b1 af 4b 41 c2 af 9d 43 fe db 81 43 be 58 03 44
       12.730393 315.3731 259.7187 525.3866
000080 8a a4 db 40 8f c7 a2 42 f6 a6 81 3f 23 6c 07 42
       6.8638353 81.38976 1.0129077 33.855602
000090 0c 0d 51 43 f0 a1 16 42 ad b3 b3 43 7a cc 3b 42
       209.05096 37.658142 359.40372 46.949684
0000a0 d8 04 0c 40 72 36 b4 41 25 16 bc 43 56 ee f5 42
       2.1877956 22.526585 376.173 122.9655
0000b0 61 a1 93 40 c8 04 7c 3f cd 77 51 41 32 dd 2c 41
       4.6134496 0.98444796 13.091748 10.804003
0000c0 d7 58 c1 41 b6 65 ab 41 57 d9 01 40 fb c1 b6 41
       24.168379 21.424664 2.0288904 22.844717
0000d0 57 4c b5 43 9a ad 55 43 7b fc ac 3f 1e e2 96 42
       362.5964 213.67813 1.3514551 75.441635
0000e0 d1 66 29 40 9e da e0 41 ad af 28 40 66 91 67 43
       2.6469004 28.106747 2.6357224 231.56796
0000f0 1e 36 24 3f 12 9e 1f 44 dd 4f b2 3f 9f 89 ad 3f
       0.64145076 638.46985 1.3930622 1.3557624
000100 b3 80 7b 40 c6 eb 9b 3f 50 5c 14 44 bf a6 84 42
       3.9297302 1.2181327 593.4424 66.325676
000110 94 a5 2f 40 6a 43 6b 40 a7 ae a2 41 1b 6d 9e 43
       2.744481 3.6759896 20.33528 316.8524
000120 41 8c bf 43 9c b7 1d 43 c0 8f 8a 3e 11 fb d7 40
       383.09573 157.71722 0.27062798 6.7493978
000130 9d ae a4 3f 7e 80 93 3f 43 34 36 40 37 d8 df 3f
       1.2865788 1.1523588 2.8469398 1.7487859
000140 69 99 85 42 55 0d 00 40 60 9f 7b 41 12 ee 32 40
       66.79963 2.0008137 15.72641 2.7957807
000150 a4 14 be 42 c4 c4 36 40 74 2d ed 3f 97 92 12 3f
       95.04031 2.8557596 1.8529496 0.5725493
000160 f0 99 81 3f 7a 50 7f 43 cc 2f 2c 42 9d 37 f1 41
       1.0125103 255.31436 43.046677 30.152155
000170 3c 11 32 40 07 a4 92 42 46 18 1f 42 65 e3 2f 44
       2.782302 73.320366 39.773705 703.55304
000180 86 68 a0 41 47 f2 ed 40 9b da 3f 42 28 35 c3 41
       20.051037 7.435825 47.96348 24.400955
