model_2.npz (npz, 418370 bytes, 6 tensors)

predictor/l2/W f4 [100, 1000]
000000 6b 10 48 3a 16 15 53 bc 18 6d fc bc 9a b3 fe bc
       0.0007631841 -0.012883445 -0.030813739 -0.0310915
000010 11 5f 14 3c 31 cf 66 be 18 80 95 3c ff 63 11 3d
       0.009055869 -0.22539975 0.018249556 0.035495754
000020 db 47 84 bc b4 9d 90 3c 58 7c 9c bc 99 05 0b bd
       -0.016147545 0.017653324 -0.01910226 -0.033940885
000030 1a df 6c bc e8 75 7e bc 43 75 0c 3d 71 81 53 bd
       -0.014457488 -0.015531041 0.034291517 -0.051637117
000040 f5 a9 e9 3c 1b f2 08 bc 8c 36 21 3d 48 51 ed 3b
       0.028523425 -0.008358504 0.03935866 0.0072423555
000050 93 15 1a bc dd 4a b6 bc 37 b5 35 bd 57 9d 47 3d
       -0.009404558 -0.022252494 -0.044362273 0.048734035
000060 1c d9 4f bc 34 25 eb 3c a7 4c cd 3c 73 55 35 3c
       -0.01268604 0.028704263 0.025060965 0.011067736
000070 d3 6d 0e 3c 4e 06 b1 bc 5b 1b 15 bd 49 28 20 bd
       0.008693176 -0.021609452 -0.03640304 -0.03910092
000080 c5 a1 48 3c 99 47 ad 3c a8 12 05 bd 9f 8a c9 ba
       0.0122456 0.021152304 -0.032488495 -0.0015376395
000090 6a ff 5a bb fb be 85 3c ca e3 07 bc d1 77 e9 ba
       -0.0033416399 0.016326418 -0.008294055 -0.0017812197
0000a0 c8 aa 58 3b d5 01 e0 3b 9e 34 2d bc c1 4d fa 3d
       0.0033060778 0.006836156 -0.010571627 0.12221862
0000b0 06 69 d8 bc 3f b4 4f be e9 18 72 bd 32 55 80 3c
       -0.026417267 -0.20283602 -0.059105787 0.015665624
0000c0 3a e9 f6 bb af e8 03 3d 33 c4 02 be 36 dd 15 bd
       -0.007535127 0.032204326 -0.12770157 -0.036587916
0000d0 34 8e 67 3b d5 02 02 be 0b 17 7f 3d 00 34 9d be
       0.0035332562 -0.12696393 0.062277835 -0.30703735
0000e0 c6 ff 02 bc f6 4f 97 bc e0 ca 4c bd e2 1e 2f 3b
       -0.007995551 -0.018470746 -0.049998164 0.0026721288
0000f0 c4 7b 40 3d 37 91 2f 3b 45 84 10 bc 82 c6 db bc
       0.046993032 0.0026789436 -0.008820598 -0.026828054
000100 d1 b6 ab bc f8 35 58 bc 0f f7 14 3d d9 a1 28 bc
       -0.020961197 -0.013196461 0.036368426 -0.010292494
000110 59 65 48 3d e2 aa 65 3c d0 55 4a bc 67 8f c1 3b
       0.048924778 0.014017792 -0.012349561 0.0059069875
000120 14 16 e6 bd d6 b2 7d 3d 0c 3a 16 3b bf 8c ff bc
       -0.1123468 0.06193813 0.0022922782 -0.031195043
000130 df 8b c5 bd e7 02 1a 3c e1 84 4e 3d 04 7f 17 3d
       -0.09645819 0.009400106 0.050419692 0.036986366
000140 c2 cc 0f 3c 73 58 01 bb bb 9d 1d 3c ed 6b b6 3b
       0.008776845 -0.0019736558 0.009620125 0.005567065
000150 c4 92 cf bc b9 12 55 3d 8c 66 ce bc 3b f8 3a bd
       -0.025338538 0.05201981 -0.025195383 -0.045646887
000160 e9 d2 16 bc d0 64 f4 bc 99 ef 02 3d 76 07 e6 3c
       -0.009205558 -0.029833227 0.03196678 0.02807973
000170 95 c5 03 3d c4 72 3a 39 6a c0 6c bc 3c f8 52 bc
       0.03217085 0.00017781096 -0.014450172 -0.0128765665
000180 bd 5b 9b bc 40 e9 50 3c 7f 2d 04 3b 03 48 aa 3d
       -0.018964643 0.012750924 0.002016872 0.083145164
000190 47 ef 43 bb 4f 59 83 3c e8 73 db bd 97 08 7c bc
       -0.002989726 0.016033797 -0.10715467 -0.015382907
0001a0 50 7d 7e 3d ad 09 fd 3d d5 c9 99 be 6d 66 65 bd
       0.062131226 0.12355361 -0.30036798 -0.056005884
0001b0 91 5f 11 bb dd 23 a7 39 f8 c3 0b 3d 91 94 86 3c
       -0.0022182206 0.00031879442 0.034122437 0.016428264
0001c0 82 28 09 bd 5e 92 fa 3c 30 af b4 3c bb a9 87 bc
       -0.033485897 0.030587371 0.022056192 -0.016560426
0001d0 b4 d1 bd 3c 5c c4 1f bc 58 b8 36 bd dd 5f 1f 3d
       0.023171283 -0.009751406 -0.044609398 0.03890978
0001e0 ec 43 f9 bb db 0e 65 bd 80 f2 00 b9 b4 b9 ff ba
       -0.007606974 -0.05592237 -0.0001229737 -0.00195103
0001f0 1d 85 7a bc 36 9c 98 3c de ad 00 3b 3e 9e 2f 3c
       -0.015290526 0.018629175 0.0019634883 0.01071888
000200 38 29 aa 3b 67 47 44 3c 2c bf ea 3c f3 42 88 bd
       0.005192902 0.011979914 0.028655611 -0.066533946
000210 e3 d2 e6 3b 85 ef 23 3d b5 10 03 3d 11 76 e5 3d
       0.0070441826 0.040023346 0.031998355 0.1120416
000220 02 49 c3 bc a9 1a 5b 3d 23 15 dd bc ff 61 d9 3a
       -0.023838524 0.053492222 -0.026987618 0.0016584991
000230 e7 b2 40 3c f5 01 3d 3c e3 a3 2d be ca 25 af be
       0.011761404 0.011536111 -0.16957049 -0.34208518
000240 65 26 f1 3b 5a 36 a8 bd 4a bc 61 3d e8 11 5f 3b
       0.0073593133 -0.08213492 0.055111207 0.0034037773
000250 b8 3c dc 3c e5 04 ab 3c 20 0d 91 3c 87 31 1d 3d
       0.026884422 0.020876357 0.017706454 0.03837731
000260 04 ef cd 3b a4 ec 1c bc ae 9f 70 3d 87 35 3b bd
       0.0062845964 -0.009577904 0.058746032 -0.045705345
000270 ef 4f 1d 3c ad 4c 32 bd c1 70 a8 3c 30 f2 0f 3d
       0.009601577 -0.043530155 0.020561578 0.035143077
000280 41 af 1f 3c 0a ed b1 bc 87 e6 b8 bc 9b f9 b2 bd
       0.009746374 -0.021719474 -0.022570862 -0.08739015
000290 bc 15 87 3d 88 44 34 3c 4a f3 1c bc ee e2 29 bc
       0.065959424 0.011002667 -0.009579489 -0.010369046
0002a0 05 50 2b bd 45 0b 5c 3d 41 55 e5 bb 8c 82 05 be
       -0.04182436 0.053721685 -0.0069986884 -0.13038081
0002b0 46 7d 8b bc 37 c0 02 3d 7c 0c f5 3c dc 6f a3 b9
       -0.017027508 0.03192159 0.02991318 -0.00031173124
0002c0 1d ab 16 bc 18 6e 12 3d 49 f0 e4 bc fd b5 7b be
       -0.00919607 0.035749525 -0.027946608 -0.24581142
0002d0 2e 3e 96 ba 53 c6 f5 ba 60 52 ee bc 42 80 e9 bc
       -0.0011462623 -0.0018751122 -0.029092014 -0.02850354
0002e0 7c 21 bd bc 3b 73 2c bd 6c 94 31 be b9 dd 25 3d
       -0.023087256 -0.04210208 -0.17341775 0.040494654
0002f0 bd e1 75 bb 99 3e 11 3d ce b2 7d 3d 20 c8 c3 bc
       -0.0037518584 0.03546009 0.0619381 -0.023899138
000300 8e 86 90 bb dd 5c 54 bd 75 c7 8e 3c c1 d5 1d bd
       -0.0044105714 -0.051846374 0.017429093 -0.03853393
000310 44 4d 01 3d 3c 69 0b 3c 9e e2 5f 3b 2b ce 29 3d
       0.031567827 0.008508977 0.0034162174 0.041456383
000320 c4 35 3b 3d 53 ad 79 bd 5a e3 8e bd 04 67 a8 bc
       0.04570557 -0.06095631 -0.069769576 -0.020556934
000330 56 d6 9e bd 47 bd 97 bb ca d8 a2 bd 65 3b 2c 3c
       -0.07755725 -0.004630718 -0.079515055 0.010512208
000340 3c 0e 85 3c 1f 19 33 3d b8 d4 ab bc db 31 10 3d
       0.016242139 0.04372513 -0.020975456 0.035203796
000350 83 d5 82 3c 00 c2 e2 ba ae 28 91 bb d9 25 25 3d
       0.015970951 -0.0017300248 -0.004429898 0.040319297
000360 a4 a1 33 3c ea cf 44 bc 32 c0 e8 bc 09 0c 80 3d
       0.010963831 -0.012012461 -0.028411958 0.062522955
000370 aa bb f9 3c 8c b6 b9 bc 97 7e 91 bc 1a 5d 8e ba
       0.030484993 -0.022670053 -0.017760558 -0.0010861487
000380 48 09 0d 3d a0 c1 f1 bc fa c7 16 bd 4c 94 8d bc
       0.03443268 -0.029511273 -0.036811806 -0.017282628
000390 e6 7e a1 bb 30 8d 8d 3c 60 3e c3 bd ae ec 47 3d
       -0.0049284576 0.017279238 -0.095333815 0.0488097
0003a0 90 60 84 bd 1c 81 d8 bb 13 0a 3b bc 35 d2 15 3c
       -0.0646373 -0.006607188 -0.011415976 0.009144356
0003b0 7c a1 87 bd a1 56 25 3e 89 fa b9 bb 18 d9 1a 3c
       -0.066225976 0.16146328 -0.005675618 0.009451173
0003c0 67 57 ba 3b 97 f4 46 bc c5 73 29 3d e6 34 4f 3d
       0.0056866887 -0.012143276 0.041370172 0.050587557
0003d0 c7 ba 1b bd 32 2f 2f 3d 17 06 08 bd a9 aa 3a 3d
       -0.03801992 0.04276962 -0.033208933 0.04557291
0003e0 ee 78 8b bc 61 a2 a0 3c 33 ea 33 3d f4 f1 5e bd
       -0.017025437 0.019608678 0.04392452 -0.054429963
0003f0 e1 b3 71 bb 01 64 bf 3c ec 6d ff bb 01 88 52 3d
       -0.0036880898 0.023363115 -0.007795086 0.051399235

predictor/l1/b f4 [1000]
000000 39 e0 cb 3b 3d 39 b2 ba 00 00 00 00 94 8f f5 bc
       0.006221798 -0.0013597381 0.0 -0.02997569
000010 41 8b 84 bc 51 95 12 3e c0 3f 98 3a 78 ce f2 bb
       -0.016179683 0.14314772 0.0011615679 -0.007409867
000020 ed 9d ef bc 5c 08 ac bc bd 11 43 bd d5 01 8d 3c
       -0.02925011 -0.02100008 -0.04762434 0.017212788
000030 55 70 c2 3c 00 00 00 00 bb 71 82 bc 3a 4b 31 bc
       0.023735205 0.0 -0.015923372 -0.010821158
000040 00 00 00 00 e4 5b 72 3c 00 00 00 00 00 00 00 00
       0.0 0.014792416 0.0 0.0
000050 7d 31 e8 3c 00 00 00 00 4e c1 b4 3d 00 00 00 00
       0.02834391 0.0 0.088259324 0.0
000060 80 d3 37 bb 60 f3 23 bc 79 fd 29 3c 00 00 00 00
       -0.0028049648 -0.010006756 0.010375374 0.0
000070 75 0c 81 3c a6 03 1a 3c d4 4f 00 bb 47 af 5d 3c
       0.01575301 0.009400284 -0.0019578831 0.013530559
000080 31 ad 05 bd 0b d0 60 bc 4c 00 cb 3c dc c3 ce bb
       -0.03263587 -0.013721476 0.024780415 -0.0063099694
000090 1f 73 8e bc e9 31 eb bc 67 79 0b 3c dc 6e 5f bc
       -0.017388878 -0.028710322 0.008512831 -0.013637271
0000a0 6a 02 f8 bb 3c b1 b1 bc 00 00 00 00 44 aa 8a bd
       -0.007568647 -0.021690957 0.0 -0.06770757
0000b0 18 e0 d1 bc b2 8e b1 3d ad d9 31 3c f4 be 92 bc
       -0.025619552 0.08669795 0.010855121 -0.01791332
0000c0 16 88 b5 bc c5 c7 9c bc fd aa 9f 3a 80 15 b0 bb
       -0.022159617 -0.019138226 0.0012181696 -0.0053736567
0000d0 d8 ea 96 bc c8 d6 54 3c 70 67 c6 bc 7b 22 fb 3d
       -0.01842253 0.012990661 -0.024219245 0.12262436
0000e0 00 00 00 00 50 89 e3 bc 91 f0 74 bc 80 30 20 3c
       0.0 -0.027775437 -0.014949934 0.009777188
0000f0 51 95 42 bd c8 89 b0 3b ce ab 3b 3c 6e 02 d4 3b
       -0.04750568 0.0053875186 0.011454536 0.006470016
000100 95 a4 9b 3d c8 4f 23 3d d4 30 38 bd 05 4d 53 bd
       0.07599751 0.039871007 -0.04496844 -0.051587123
000110 6e a5 f2 bb 41 be d5 bc c4 ab 9a 3a 6a 16 ad 3b
       -0.0074049747 -0.026091697 0.0011800458 0.005282213
000120 3a 27 ae 3c 13 26 51 bc 6f 4d c3 3a 00 00 00 00
       0.021258939 -0.012765425 0.0014900396 0.0
000130 a7 83 fc bc a5 00 87 bc 74 b8 f6 bc fc e1 94 bc
       -0.030824495 -0.0164798 -0.030117251 -0.018174164
000140 9a cf b0 3c 23 2b 60 bc 1b 38 d5 bc 00 00 00 00
       0.021583367 -0.01368216 -0.02602773 0.0
000150 00 00 00 00 f0 e5 61 bd 00 00 00 00 0b 7a 3d 3c
       0.0 -0.055150926 0.0 0.011564742
000160 30 eb 19 bc 0e a6 2e bc d9 17 d5 bc c4 52 4b bd
       -0.009394452 -0.010659708 -0.026012348 -0.04963948
000170 06 0f aa bc a3 7c af 3c bb e9 88 bc 33 98 d3 bc
       -0.020759117 0.021421736 -0.016713014 -0.02582941
000180 09 78 be ba 3e 76 ea 3b 4c 38 96 bc 03 bf e1 bc
       -0.0014531623 0.007155209 -0.018337391 -0.027556902
000190 00 00 00 00 00 00 00 00 89 a5 21 ba 5f 72 33 bc
       0.0 0.0 -0.0006166329 -0.010952561
0001a0 54 c5 8b bc 1c a6 3f 3c b3 10 75 3e a2 4b 81 3c
       -0.017061867 0.011697318 0.23932151 0.015783135
0001b0 98 91 9b bc 68 30 12 3c 00 00 00 00 00 00 00 00
       -0.018990323 0.008922674 0.0 0.0
0001c0 f6 46 2e 3d 41 81 75 bc 2f cc f7 3c 00 00 00 00
       0.042548142 -0.01498443 0.03024873 0.0
0001d0 00 00 00 00 19 ca 54 bc 0f 4b 0a 3c b9 f9 cf bc
       0.0 -0.012987637 0.008440747 -0.025387632
0001e0 4d 00 8d bc fd 79 26 3d b8 2b 3e 3c b7 b2 37 3d
       -0.017212057 0.04064368 0.011607103 0.04484817
0001f0 f8 f8 d0 bb 79 ce c8 bc 00 00 00 00 00 00 00 00
       -0.0063773356 -0.024512516 0.0 0.0
000200 53 6f 78 bc ec 10 ea bc 9e fc d0 bc 63 22 d4 3c
       -0.0151632605 -0.028572522 -0.025511082 0.025895303
000210 00 00 00 00 b3 1b af bc 22 c1 c1 bc cf f8 28 3d
       0.0 -0.021375513 -0.023651663 0.041252907
000220 00 00 00 00 f9 8a 68 bc 09 45 97 3c a7 0e 87 3d
       0.0 -0.01419329 0.018465536 0.065945916
000230 00 00 00 00 27 1f 8d 3c 70 56 06 3e 41 36 55 3e
       0.0 0.017226769 0.13118911 0.20821477
000240 00 00 00 00 83 11 ec 3c 09 4e 8f bc 97 ab 98 bc
       0.0 0.028816944 -0.017493265 -0.018636508
000250 b8 35 6f 3c 17 f2 d5 bc ea 64 be bc 28 d4 16 bd
       0.01460021 -0.026116414 -0.023241479 -0.03682342
000260 eb 0c fc 3a 00 00 00 00 b3 43 77 bc fa 47 04 bb
       0.0019229924 0.0 -0.015091824 -0.0020184503
000270 fe a9 d2 bc 14 cd 78 bc 00 00 00 00 d0 44 96 bc
       -0.025715824 -0.015185613 0.0 -0.01834336
000280 e0 b1 96 bc 41 7b 9a 3b f0 2c 03 ba 64 4c 85 3c
       -0.018395364 0.0047144 -0.00050039496 0.016271777
000290 b0 ac 28 bd 13 7d 00 3c 00 00 00 00 58 56 57 bc
       -0.041180313 0.00784232 0.0 -0.013143145
0002a0 f8 11 f4 3c 2d 55 95 bc bf cd 58 3c 92 c1 57 3e
       0.029793724 -0.018229092 0.013232647 0.21069935
0002b0 2a c5 b8 bc 8a 15 84 bc 0b 8d 43 3c 00 00 00 00
       -0.022554953 -0.016123552 0.011935483 0.0
0002c0 98 0c 35 3d 00 00 00 00 00 00 00 00 82 a6 84 3d
       0.044201463 0.0 0.0 0.06477071
0002d0 1a b1 97 3c 87 73 b8 bc c3 1f b8 3c 26 ce 0f bc
       0.018517066 -0.022516025 0.022476083 -0.008777177
0002e0 00 00 00 00 6b 98 af 3a fd 2b 74 3d 00 00 00 00
       0.0 0.0013396865 0.059612263 0.0
0002f0 78 c4 e7 b8 d1 63 ae bc 6b d2 0b bd 00 00 00 00
       -0.000110515335 -0.02128783 -0.034136217 0.0
000300 18 f7 1a bc 00 00 00 00 00 00 00 00 00 00 00 00
       -0.009458326 0.0 0.0 0.0
000310 b6 ac 8e bc 73 4e f3 3c 68 81 2d bd c4 6a 09 3c
       -0.01741634 0.029700493 -0.04235974 0.008387271
000320 e9 a4 c4 bb a9 fb c7 3c cd e3 9f bc 00 00 00 00
       -0.006001104 0.024411993 -0.019517804 0.0
000330 44 bc ce bb 84 68 00 3d 72 05 00 3d 1b f8 eb bc
       -0.006309064 0.031349674 0.031255193 -0.02880483
000340 00 00 00 00 19 60 05 bd 01 23 20 3d d2 e3 98 bc
       0.0 -0.03256235 0.039095882 -0.01866332
000350 00 00 00 00 51 98 45 bc ba 6e 93 bc ac bb bd bc
       0.0 -0.012060241 -0.017997134 -0.023160778
000360 09 34 71 3c 09 81 6d bc 00 00 00 00 a7 17 ab bc
       0.014721879 -0.014496096 0.0 -0.020885302
000370 ce b9 85 bc 00 00 00 00 f7 ce 48 3c 95 4f 01 bd
       -0.01632395 0.0 0.0122563755 -0.031570036
000380 8c f1 94 bc 39 7c 54 bc 61 0a da 3b 1c a3 16 3d
       -0.018181585 -0.01296907 0.0066540693 0.036776647
000390 60 ba dc 3c 93 bf 3a 3c b6 e4 8b bc 1f 79 5b 3c
       0.02694434 0.011398214 -0.017076831 0.013395577
0003a0 00 00 00 00 00 00 00 00 48 0a de 3a 8a af 63 bc
       0.0 0.0 0.001694032 -0.013896832
0003b0 ab c2 7b 3b 2f 12 85 bd 00 04 5e 3d 78 20 1b bd
       0.0038415592 -0.06497609 0.054203033 -0.03787276
0003c0 00 00 00 00 00 00 00 00 ab 9d e8 bc a7 04 4f 3c
       0.0 0.0 -0.028395494 0.012635387
0003d0 da 36 92 bc c4 5b c8 3c 00 43 28 36 be cb 8c bc
       -0.01784842 0.02445782 2.507295e-06 -0.017186996
0003e0 7a b0 65 bc 9a 0c c1 bc 45 6b 11 bd cf 79 0f bb
       -0.014019126 -0.02356558 -0.03550269 -0.0021892672
0003f0 00 00 00 00 65 26 52 3b 00 00 00 00 d8 18 27 3d
       0.0 0.0032066342 0.0 0.040795177

predictor/l3/b f4 [2]
000000 37 ae 9f bc 36 ae 9f 3c
       -0.019492252 0.01949225

predictor/l2/b f4 [100]
000000 4a d5 be bc 71 f8 78 bb 00 00 00 00 ee fa 96 bb
       -0.023295064 -0.003798988 0.0 -0.00460755
000010 60 26 cb ba e9 d8 34 3c 0e e8 99 bb 00 00 00 00
       -0.0015499108 0.011038044 -0.0046968525 0.0
000020 5f 6a b3 bb e4 52 33 bb 00 00 00 00 00 00 00 00
       -0.005475327 -0.002736264 0.0 0.0
000030 07 fd a5 bb 3c 08 9d bc 9a 5a 90 bc af 92 ba bb
       -0.0050655636 -0.019168966 -0.017621327 -0.0056937556
000040 44 2a 81 bb 00 00 00 00 73 41 88 3c 00 00 00 00
       -0.003941806 0.0 0.016632771 0.0
000050 b5 bb 9c bb 68 5b b4 bb 93 6e 0e bc 51 83 94 bb
       -0.0047831186 -0.0055040605 -0.008693355 -0.0045322557
000060 c0 f9 0a bc be 8b ec bb 00 19 b5 bb 00 00 00 00
       -0.008482397 -0.007218807 -0.005526662 0.0
000070 5e 9a f1 bb 00 00 00 00 8d c4 c4 bb 2b 41 c8 bb
       -0.0073731383 0.0 -0.006004876 -0.0061112843
000080 01 4f 6e bc 00 00 00 00 ae 7b 81 bb 00 00 00 00
       -0.014545203 0.0 -0.0039515113 0.0
000090 8e 15 27 bb 00 00 00 00 74 82 97 bb 00 00 00 00
       -0.0025495025 0.0 -0.0046237055 0.0
0000a0 71 1a b5 bc 00 00 00 00 a8 c3 c4 bb 00 00 00 00
       -0.022107335 0.0 -0.0060047694 0.0
0000b0 fe 35 a1 3c 75 c0 b1 bb 9d b2 c1 bb bb ce 5e bc
       0.019679066 -0.005424554 -0.005911185 -0.013599093
0000c0 b4 8f b7 bb c4 0b d3 bb 00 00 00 00 7a db a9 bb
       -0.0056018475 -0.0064406116 0.0 -0.0051836343
0000d0 50 4c b0 bc d0 50 91 3c d4 79 c4 bb 00 00 00 00
       -0.021520764 0.01773873 -0.0059959684 0.0
0000e0 c3 c8 c4 bb 20 67 61 bb 00 00 00 00 fe 7b da bb
       -0.006005378 -0.0034393743 0.0 -0.006667613
0000f0 00 00 00 00 26 f6 75 bb 2b c9 c4 bb cf 65 c4 bb
       0.0 -0.003753075 -0.0060054264 -0.005993582
000100 70 be 8d bb 00 00 00 00 bd 8d 54 bb 10 14 af bb
       -0.0043256804 0.0 -0.0032433115 -0.005342968
000110 4d 8e ea bb 42 5e 83 bb 83 0f 13 ba 21 a0 04 bc
       -0.007158077 -0.004009039 -0.00056099164 -0.008094818
000120 f2 a5 91 bc 4f c2 28 bb d0 08 94 bc 00 00 00 00
       -0.017779324 -0.0025750583 -0.018070608 0.0
000130 00 00 00 00 c0 8d bf bb 27 c1 c4 bb ba 06 70 3c
       0.0 -0.0058457553 -0.006004471 0.014650041
000140 6a 07 c9 bb 3c 9b 65 3a e3 38 a5 bb 51 e8 09 bc
       -0.006134917 0.00087587885 -0.005042182 -0.008417205
000150 9d c9 c4 bb 03 b6 07 bc 42 4f cf bb 0c 84 e6 bb
       -0.0060054795 -0.008283141 -0.006326587 -0.007034784
000160 9a e9 0a bc 54 34 85 bb 37 87 16 bc 08 58 be bb
       -0.0084785465 -0.004065076 -0.009187511 -0.005808834
000170 b1 b6 90 bb 00 00 00 00 00 00 00 00 bc bf c4 bb
       -0.0044163098 0.0 0.0 -0.006004302
000180 85 af c9 bb 18 fe 3f bb 62 0c 9c bb c4 c9 c4 bb
       -0.0061549568 -0.0029295739 -0.0047622183 -0.0060054976

predictor/l1/W f4 [1000, 11]
000000 28 ee 31 3f 82 95 15 3f e5 c8 15 bf ad 38 94 3d
       0.6950402 0.58431256 -0.58509666 0.072373725
000010 97 4f ea be 3c 44 c0 3d 46 cd 9f 3e 4f d6 23 3d
       -0.45763847 0.09388015 0.312113 0.039999302
000020 76 dc 69 be 46 ed c5 3d 0b 44 4b 3e 38 26 9b 3e
       -0.22838005 0.09664397 0.19850175 0.30302596
000030 de b5 2b 3e 06 45 0e 3f 74 ec 00 3f ba 42 1c be
       0.16768596 0.5557407 0.503608 -0.15259829
000040 25 72 23 be b0 46 29 3f 91 0e 57 3e f7 ec d4 3c
       -0.15961511 0.66123486 0.2100165 0.0259919
000050 da bf d1 be 79 69 c0 be 55 f2 d5 bd be 83 6a be
       -0.40966684 -0.3758047 -0.10446612 -0.22901818
000060 15 ff a3 be 7b 4b 3a bf e9 ba bf bd 6e 0b 58 be
       -0.3203055 -0.72771424 -0.09361822 -0.2109811
000070 c5 7c 3e 3e d8 7c 58 3e 78 dd 4b 3e 37 1f bb 3e
       0.18602283 0.21141374 0.19908702 0.36547253
000080 a8 f5 a8 bc 03 09 c0 bd 9e bb c2 3e d8 1a 9a be
       -0.02062495 -0.09376719 0.38033766 -0.30098605
000090 6e 92 98 be 6c 61 75 3d 27 a0 ff 3c 8b 1a 4c 3e
       -0.29799217 0.059907362 0.031204296 0.19932
0000a0 cd b4 b6 3e 53 2e 49 3e 42 31 9b be 53 2a 87 be
       0.35684815 0.19646578 -0.30311018 -0.26399478
0000b0 dc 00 c3 bd 1a 60 82 3e df 19 aa 3d 8d b6 ae bd
       -0.09521648 0.25463945 0.08305716 -0.085309125
0000c0 02 59 fc 3d 20 c2 b2 bd ec 5e 8c bd f5 9f 2f bd
       0.123216644 -0.08728433 -0.068540424 -0.042877156
0000d0 f1 e7 33 bf e1 08 14 3e d3 05 c9 3e fb 4f 38 3f
       -0.7027579 0.14456512 0.39262256 0.7199704
0000e0 18 d6 37 be 25 d0 93 bd a9 fd 53 3e ea 2b 37 bd
       -0.17952764 -0.07217435 0.20702232 -0.044719614
0000f0 da ba 74 be 86 f0 0f 3f b2 69 c6 3e f5 ce e0 3d
       -0.23899403 0.56226385 0.38752514 0.10976974
000100 0f 09 c0 be 01 ff 12 3f 02 42 24 3f 78 41 3d be
       -0.3750691 0.57420355 0.6416322 -0.18482006
000110 c5 65 d1 3e 35 9d 8b be c1 a8 31 3e fb 06 0d 3f
       0.40897956 -0.27268377 0.17349531 0.55088776
000120 41 c6 4e 3e ca 58 4a 3e 3e e1 f5 3d 7a f2 7d be
       0.20192815 0.19760433 0.12005852 -0.24799529
000130 2a 88 bb 3e ba ee 5f be 63 2a a6 3d 7f b4 eb 3d
       0.36627322 -0.2186841 0.081135534 0.11509036
000140 54 6c 35 3d 4f 8d bf bd ed 7d 8e bc 7f 6c ab 3d
       0.044292763 -0.09353124 -0.01739403 0.08370303
000150 f5 4e 41 3e ff df a9 3d f2 2f 03 3e 7f f2 79 3e
       0.18877776 0.08294677 0.12811258 0.24408911
000160 da 29 10 bc 0d b5 4d be 95 b0 ff 3e 7d 0e f3 3d
       -0.008799041 -0.20088597 0.4993941 0.11867998
000170 ad a0 a5 3e 3a 56 c6 bd a2 5a dc 3e d4 ce 55 bc
       0.32349148 -0.09684415 0.43037897 -0.0130498
000180 7c 23 73 bd d2 2b 47 bf bc 8b 2a be 3d 45 32 3d
       -0.059360012 -0.7780124 -0.16654867 0.043523062
000190 c9 e3 48 3e c7 92 ee 3e a7 41 0f 3e 3c 09 c6 bd
       0.19618143 0.46596357 0.13989888 -0.0966973
0001a0 78 ad 7b 3e 19 1a fe be 7e 92 f3 3e 5e da c2 3e
       0.24577892 -0.49629286 0.47572702 0.38057226
0001b0 4f 67 99 bd 54 63 89 bd 14 c0 4c bf db 08 0c bf
       -0.07490408 -0.067083985 -0.7998059 -0.5470101
0001c0 41 59 e3 be f1 71 8b 3e 1b 80 40 3e 4a 0e 90 3e
       -0.44404033 0.27235368 0.18798868 0.28135902
0001d0 9a af 24 3f bd 00 b3 3e bb d5 0a 3f d4 ab a0 bd
       0.64330447 0.349615 0.54232377 -0.078452736
0001e0 e4 0e 70 be a3 69 0c be 62 ae 0b 3e 2d bb f7 bd
       -0.2344318 -0.13712172 0.1364074 -0.12096248
0001f0 ff ee a1 3d 55 10 42 be 3b 22 27 bb 17 ea af be
       0.07906913 -0.18951543 -0.002550258 -0.34358284
000200 1d af b9 3c 97 88 02 3e a1 3b f7 bc d7 a8 9c bb
       0.022666508 0.12747417 -0.0301798 -0.0047808695
000210 d8 03 ce bd d4 ee 87 be 1c 5c 51 3e 47 61 5f be
       -0.10059327 -0.265494 0.20445293 -0.21814452
000220 08 1a 1b 3e a4 d7 8a 3e f1 83 d6 be 40 bd e1 3d
       0.15146649 0.27117646 -0.41897538 0.11022425
000230 af 1c c9 3e 4f 97 83 3a f6 54 c3 ba 4c 73 01 3c
       0.39279696 0.00100396 -0.001490264 0.007901024
000240 df 38 cc be 6e 6a ea bd db 3e 79 3e 68 c1 17 bf
       -0.3988714 -0.11446081 0.24340384 -0.5927949
000250 26 6e 75 3c b2 36 55 be 18 74 38 bf b5 c5 2a 3e
       0.014979875 -0.20821646 -0.72052145 0.16676982
000260 f0 c0 95 be 7c 6a 32 3e 41 76 cd be c5 0a c7 3e
       -0.29248762 0.17423433 -0.40129283 0.38875404
000270 d6 d2 9b 3e 5f 02 f5 3d 21 c7 65 be fb a0 8e 3c
       0.30434293 0.11963343 -0.22439243 0.017410746
000280 e5 df 21 3f e4 e6 5c bf 2c 8b 2f bf 3e cf 42 3e
       0.6323226 -0.8628981 -0.68571734 0.19024369
000290 64 75 9f 3e 07 ec 08 bd 91 6a 32 3e 82 7a c9 be
       0.3114425 -0.03342822 0.17423464 -0.3935128
0002a0 71 07 5d be 9d ea 3f be 12 bf b3 3c 56 9a 43 bf
       -0.2158487 -0.18741842 0.021941695 -0.7640737
0002b0 28 d2 a7 3e 15 84 3b 3f 8b d5 b5 be 27 1f 99 bc
       0.32777524 0.73248416 -0.35514483 -0.018691612
0002c0 92 d3 be 3e df c9 6a be be 80 3a bf ca 06 aa be
       0.3727079 -0.2292857 -0.72852695 -0.33208305
0002d0 ba 4f a9 bd fb 32 10 3f 18 ab 80 be 2b 7a f4 3e
       -0.0826716 0.5632779 -0.25130534 0.47749457
0002e0 f6 36 7a 3e e4 ba 7d be 10 8f ce bd db 19 a4 be
       0.24435028 -0.24778324 -0.10085881 -0.32050976
0002f0 10 40 d1 bd 04 fc 9d be 56 7b c0 bd 3e 2a 1f 3e
       -0.10217297 -0.30856335 -0.093985245 0.15543458
000300 10 ed 8e bd 07 d1 97 bd b3 e7 65 3d 51 30 60 3e
       -0.0697881 -0.07412916 0.05612917 0.21893431
000310 81 1d 4b be ef 86 ae 3e 7d 23 4a 3e 6a 0c 46 be
       -0.19835474 0.3408732 0.197401 -0.19340673
000320 1c 5c 7c bd 6d a2 8b 3e 10 ba f6 be 8f de 17 be
       -0.06161128 0.2727236 -0.4818883 -0.14830993
000330 22 ee 15 be bb 05 03 be da e7 77 be fc 76 b1 be
       -0.14641622 -0.12795155 -0.24209538 -0.3466109
000340 a7 02 c7 3d 97 36 84 be cf 7b 2b be 3c a2 90 be
       0.09717303 -0.258229 -0.16746448 -0.28248775
000350 50 11 da bd 19 87 ac bd d0 ab b8 3d 69 1c dc 3e
       -0.10647833 -0.08424205 0.09017146 0.42990425
000360 3e dd 86 3e 93 e8 ea 3c 48 44 95 3d 09 cb d8 3e
       0.2634067 0.028675353 0.07288414 0.42342404
000370 f4 77 d3 be 0f a6 97 be 47 23 3c 3c 9f 04 55 be
       -0.41302454 -0.2961888 0.01148302 -0.20802544
000380 ee 6e 16 3e 43 fa e4 3e bc 2e a5 be c1 f6 a2 be
       0.14690754 0.44722185 -0.32262218 -0.31828883
000390 15 2f 4b be b1 eb 6f 3d 0f a4 a8 be 99 33 0e 3f
       -0.19842179 0.058574382 -0.32937667 0.5554748
0003a0 36 a8 c6 be ad a2 c8 be fa 83 c4 bb f8 e1 b6 be
       -0.3880021 -0.39186612 -0.005997178 -0.35719275
0003b0 f5 dd 1c 3f cb 9d a1 3e f0 8b bd be 64 b2 ba 3e
       0.6127618 0.315657 -0.37020826 0.36464226
0003c0 6a d3 2b 3e 36 34 be be 98 9f 3d 3a 9b a7 d1 be
       0.16779867 -0.3714921 0.0007233559 -0.40948185
0003d0 9c c2 98 3d fd e9 a4 bd c3 80 55 3d a2 a3 4e be
       0.07458994 -0.08052442 0.05212475 -0.20179608
0003e0 8d ca b7 3d c1 05 7e 3e bd 91 11 bd 07 cc 8c be
       0.0897418 0.24806882 -0.035539377 -0.2749941
0003f0 c5 b6 67 3d bd fe 2c be 9a fb 01 be 3c 3c ff bb
       0.056570787 -0.1689405 -0.12693635 -0.007789163

predictor/l3/W f4 [2, 100]
000000 b1 70 6a 3d 2d 76 6c bd e9 fe 31 bd 10 ab ea 3d
       0.057236377 -0.05772989 -0.043455992 0.11458409
000010 4d 79 31 bd 6d 41 f6 3b ae a3 81 3d ba 79 2b 3e
       -0.043328572 0.0075151236 0.063300475 0.16745654
000020 f1 7c 13 be 29 62 9f 3d e8 ab 27 be 05 02 02 3e
       -0.1440313 0.077823944 -0.16374171 0.12696083
000030 bd ef 79 3c ce c3 c3 3d 0d dd 53 bc ea 24 7a bd
       0.015254912 0.09558831 -0.012931121 -0.06107036
000040 ee 80 9a 3c 5c 7e 52 bd b1 03 44 be 1f 9e c9 3d
       0.018860307 -0.051390037 -0.19142033 0.09844612
000050 a2 6e ee bc 47 b1 cf 3c 6b a0 23 bd aa 3b 91 3d
       -0.029105488 0.025353087 -0.03994791 0.07091458
000060 68 b9 85 bd 54 88 aa 3c 04 df a8 bb 05 89 e9 3c
       -0.06529504 0.02081696 -0.0051535387 0.028507719
000070 f2 f5 b5 bd 9f 02 c2 3d 86 57 06 bc 05 b4 39 3d
       -0.08884801 0.09473156 -0.008199578 0.045337696
000080 30 d0 f1 bd 26 9a 90 3d 78 b9 40 3d 74 80 10 3d
       -0.11807287 0.070606515 0.047051877 0.035278752
000090 25 73 be 3c 92 7e e2 3d 86 bd 90 bd ec 1d 84 bb
       0.023248265 0.110592976 -0.07067399 -0.0040318873
0000a0 98 e3 e5 3c 09 f8 f4 bc b0 6a 0b bd f0 ff 7d bd
       0.028062627 -0.029903429 -0.034037292 -0.06201166
0000b0 50 6f a2 be e5 13 b8 bd 58 49 0a be 5e 5b 8b 3d
       -0.3172555 -0.089881696 -0.13504541 0.06804536
0000c0 d5 32 1c bd 72 43 33 be 7c af c2 3d ee 75 9e 3d
       -0.038134415 -0.17506197 0.09506127 0.07737337
0000d0 e0 9c ba 3c d6 12 45 3c 1c b3 c1 3c e6 4d 31 3d
       0.022779882 0.012028417 0.023644976 0.04328718
0000e0 a0 24 a6 bd 07 65 31 3e 2a 9b 6f 3d b3 b4 8b 3e
       -0.081124544 0.17323695 0.058497585 0.272863
0000f0 a4 15 d1 3c b5 b2 26 bc 0c 53 ce 3c a8 10 1a bc
       0.025523014 -0.010174443 0.025186084 -0.009403385
000100 ab 18 0b be f0 3a cd bd 30 13 b6 3c f3 8a 19 bd
       -0.13583629 -0.10021007 0.022225946 -0.037486028
000110 74 60 11 3d b7 38 85 bc 3a b7 89 bd d7 29 cc bd
       0.035492375 -0.016262395 -0.06724401 -0.09968918
000120 6a 4a 4c bd 46 33 0d 3d e9 ef 61 3c 3b ff 0e be
       -0.049875654 0.034472726 0.013790109 -0.1396455
000130 d1 8c 4b be 4f f3 9e bb b0 af 93 3d 35 a5 a7 3d
       -0.19877936 -0.004850782 0.07211244 0.081858076
000140 97 e2 23 bd 50 e1 f0 3c cf 79 48 3e c5 bf 9e 3d
       -0.040011015 0.029404312 0.19577716 0.07751421
000150 0e a1 61 be 31 39 ec bd 88 6e ae 3d 20 22 48 3e
       -0.22034094 -0.11534346 0.08517176 0.19544268
000160 80 49 5b bd 34 10 e8 3d 03 57 f6 bd 63 c5 89 3d
       -0.053536892 0.113312155 -0.12028315 0.06727102
000170 78 98 5d 3d 6b 6f e2 3c 6a 37 ce 3d 9e 03 c8 bb
       0.054100484 0.027641019 0.10069163 -0.006103947
000180 fa 5b 0d 3d c4 0f 7f bd 57 d9 80 bd 39 b5 4e be
       0.034511544 -0.062270895 -0.06291454 -0.20186318
000190 5c 0b d9 bd 77 07 f3 bc 76 87 6c bc b8 b8 b1 bd
       -0.1059787 -0.029666645 -0.014436593 -0.086778104
0001a0 48 a2 04 bd 86 ef 25 3d ac 7e d7 bd 4e b4 1b 3e
       -0.032381326 0.04051163 -0.105222076 0.152055
0001b0 36 9a 89 3d 83 39 ce bb 75 4e 5c bd a5 e4 23 be
       0.067188665 -0.006293477 -0.05378576 -0.1600519
0001c0 de 41 b3 bd b1 ab 4b 3c ba 41 26 bd e5 52 85 3d
       -0.087527975 0.012431071 -0.040590025 0.065099515
0001d0 b3 ab 82 bc d2 94 b1 bc a8 9a 7a bd da 6a b7 bd
       -0.015951013 -0.021677408 -0.061182648 -0.08955927
0001e0 09 eb e1 bc d6 17 9b bc fb e7 b0 3d 6c 3d 16 3d
       -0.027577894 -0.018932264 0.08637997 0.03667967
0001f0 8b 12 87 bc bf fa db bd 24 87 de bd 43 58 71 bd
       -0.016488334 -0.107411854 -0.1086562 -0.058922064
000200 66 ac 55 3d f7 96 37 bc f4 95 5b 3c 70 d8 23 be
       0.052166365 -0.011205426 0.013402451 -0.16000533
000210 39 cd 20 be 65 3f 35 be aa 25 41 3d 5a 05 2c be
       -0.15703286 -0.17699964 0.04715506 -0.16798916
000220 dc 87 0e be 1e 3b 07 3e 94 56 93 bd df 0d 29 3d
       -0.13919014 0.13206145 -0.07194248 0.041272994
000230 05 c6 02 bc 56 f0 53 bc 77 2c 5a 3e 28 0d 1b 3e
       -0.007981782 -0.0129357185 0.21306024 0.15141737
000240 96 39 06 bd 2e 29 32 3e 8d f6 ea 3c 31 5a 79 3d
       -0.032769762 0.17398521 0.028682018 0.06087703
000250 7a 96 b9 bd aa 6a 44 be 2e 5e 65 3d d9 9e 92 3d
       -0.09061904 -0.19181314 0.05599802 0.07159204
000260 3b 8e ba bd 4a 2f 17 3d 14 68 5c bd 8f ad 51 3d
       -0.091091596 0.036910333 -0.053810194 0.05119091
000270 f6 53 ae bc 1f 70 e2 bc fa e0 49 bd fa eb 07 3e
       -0.02128027 -0.027641354 -0.04928682 0.13273612
000280 8f 91 24 be f5 a4 71 bc 3c aa 76 3d 70 8f 4b bc
       -0.16071151 -0.0147488015 0.060220942 -0.012424335
000290 71 8e 4b be d6 d9 bf bd bb b8 aa 3c 0b 60 8e bd
       -0.19878556 -0.09367721 0.02084004 -0.069519125
0002a0 05 bd d8 bd 7c a1 ac bc 86 5d aa 3c 4a 0b cd bb
       -0.105829276 -0.021073096 0.020796549 -0.0062574493
0002b0 c4 ea f1 bd 5e 1e c1 3c ab f0 9b bc 69 45 03 3d
       -0.11812356 0.02357405 -0.019035658 0.032048617
0002c0 2a cf 76 3d 17 80 37 bd 6d d8 b2 3d c5 23 0d 3e
       0.06025616 -0.04479989 0.08732686 0.13783176
0002d0 a9 ec 1a bd 90 8e 69 3d d3 28 68 bc 54 2f 51 3e
       -0.037823353 0.057020724 -0.0141698895 0.2042821
0002e0 c1 a6 83 bd 72 b1 fc 3c 99 43 0a be 2f 7f 00 bd
       -0.0642829 0.030846331 -0.13502349 -0.03137129
0002f0 69 f9 d4 3d 24 58 cd bb b0 09 71 bc 91 fe 2d bd
       0.10399134 -0.0062666107 -0.014711782 -0.0424791
000300 1e b1 e2 bc 37 4e fb bc b0 2a 3f bd d9 c5 0f 3e
       -0.027672347 -0.030676944 -0.04667157 0.14040317
000310 71 70 3b 3d f7 b4 3f 3e 95 7a a3 3d 32 93 1a 3e
       0.04576153 0.18721376 0.07982365 0.15095213
