model_1.npz (npz, 419072 bytes, 6 tensors)

predictor/l2/W f4 [100, 1000]
00000000: aca1 83bd 18cc 09bd 30a2 8bbc 8476 c73c
00000010: 7725 dbbb 9403 cb3c fc76 b8bb e34b 483d
00000020: 9e2a 513d ca38 443d d626 73bd 1b6b d2bc
00000030: d063 30bd acd6 b43c dac6 193c 9755 ecbc
00000040: 38b6 a33c f603 4b3c 0696 bc3c 9adc 09bd
00000050: a912 f4bc e254 02bc 39fa 193d 7310 813a
00000060: 04eb ab3c 1181 e4bc eae5 5a3b 7863 8dbc
00000070: 602a 973d d212 023d 2a7a edbc 91ea f93c
00000080: 4fa6 2e3c fb45 e3bc 1606 9abb 5b8b fd3c
00000090: b2b9 f43c 1d1d 02bd 3a33 eabc 540d 97bc
000000a0: b081 46bd aba8 07bd 218e 72bb 4270 eebb
000000b0: bc0b dc3c 4766 8b3c 2d07 5bbc 1b76 e53c
000000c0: 151a 8dbc d4be 763c 733f dbbc 0318 21bd
000000d0: 247e d03c cd33 a2bc 330a 443d 965e 02bd
000000e0: e86a 993c 789e cd3c 091f 11bd 801e 383d
000000f0: 692b ca3c a691 f6bc ae00 2d3c e6fb f73c
00000100: e186 acbb 1070 053b 7653 1abd 6a79 adbc
00000110: 0e27 26bd 364c e53c e00b cbbc 5ab0 51bd
00000120: dd7f 1bbc b1f1 973a a4b5 41bd 2009 a7ba
00000130: d0d9 fabc a306 48bd 6fe0 4cbd ea32 73bc
00000140: 63ba a13c 072a 33bd ac52 48bd fc66 afbc
00000150: c3fd 383d c11b b9bb 248c abbc e8ee 98bc
00000160: 695d fdbb 3710 273d 3a32 873c 769a 1c3d
00000170: 98bd 8bbd a8d6 fabc aac8 983c 38e6 853c
00000180: c576 39bb 3f7d 0dbd 83fa 2fbd bb48 f8bc
00000190: 975e 843c c20c 20ba 1897 a2bc dd27 59bd
000001a0: b4be a4bb a10d 3fbc 4742 0ebd 627d 69bd
000001b0: db6d ed3c bf6b c03c 7b33 f7bc d15f 43bd
000001c0: 08b1 a43c 2e2f 29bd 45fe 2cbc b5e6 fcbc
000001d0: 5704 643c e8c9 74bc d311 96bb d8c7 25bd
000001e0: a8da e83b fbee 25bc 20c9 90bc 82d3 2cbd
000001f0: 117c 733d a645 083d dc04 a1bc 268f 22bd
00000200: 02af 4fbc f8b3 e13c 0b96 3a3b 8571 44bd
00000210: adc0 fab9 cde3 6bbc 3344 953c 4c2a 373d
00000220: ebc4 573d 6916 a4bb b985 19bd 82b2 1f3d
00000230: e4d7 b9bb 3aa3 a3b9 d733 fbbc 9728 82bc
00000240: f487 973c 9fff 17bc 027f 823d 733c 56bc
00000250: 2dd0 dabc e3cc e73c 020c 8cbc 3e1a 463d
00000260: bfbb 62bc e5ef 28bd 360d b23b d640 813d
00000270: 318f f43b 9475 48bd 06c1 afbc 5f7e 443c
00000280: d403 7fbc be89 8ebb 110b 043c b9a8 103d
00000290: 3380 07bd 7bfe 37bd 6135 1e3c 8532 9cbc
000002a0: c323 f13c 787f 853c 7704 c3bc a0a1 cc3c
000002b0: 0d72 453d 12c0 81bc dade 5ebd 054e ebbc
000002c0: 5f7f 563c cd79 90bc 12e4 20bc 212d 313c
000002d0: 26a0 413c 6b51 ccbc 13a7 8d3b a337 22bc
000002e0: 6f16 68bd 87fd 583d cfa6 c73b 2dcd b8bb
000002f0: f9d7 ba3c 5872 363d 3628 c0b9 7bd1 a0bb
00000300: a5b1 af3c b050 7d3c 1470 193d ae33 283d
00000310: 174d 1cbd 9af2 9cbc dea2 d13b cd36 ca3c
00000320: d2e2 14bc 37e6 a4bc 2297 0c3c 2173 5fbd
00000330: a1b0 413c 323a 16bc ef27 e2bc 3321 94bc
00000340: a146 473c e6ed 863d 5ac4 f1bc fb25 f2bb
00000350: cf9d 833c ad77 bc3b 55ff 8a3c 57d4 f1bc
00000360: 1bb9 d6bb 3915 2e3d 6634 36bd 474b 0bbc
00000370: 7518 8dbc fef7 78bc caee 643c d8f9 013d
00000380: 1a21 59bc e801 0fbc 375c 05bc c9ac b6bc
00000390: 3d45 4ebc 2a0e 263d dedb 4d3c 5fad 11bd
000003a0: c5c4 79bc 6d09 ee3c 8d1b 473b a54e a03c
000003b0: 614c 20bd c3ea a23b 6a99 443d f80a 1a3c
000003c0: c149 933d dfa3 2bbd 957f 11bc d556 debc
000003d0: cb16 3fbc 0479 90bd 75f4 063d 11fc 3f3b
000003e0: 434b 34bd 9dbf 843c fc67 813d 0842 af3a
000003f0: c784 79bc 8e59 413a 5830 43bd d5b0 20bd
-0.06427321 -0.033641905 -0.01704511 0.024348505 -0.0066878158 0.02478198 -0.0056294184 0.048900496
0.051066034 0.04790572 -0.05936321 -0.025685837 -0.04306394 0.02207502 0.009385789 -0.028849406
0.01998435 0.012391081 0.023020755 -0.033657648 -0.029794054 -0.007954808 0.037592147 0.0009846821
0.020986088 -0.027893575 0.00334012 -0.017259344 0.07381129 0.03175623 -0.028988916 0.030507358
0.010659768 -0.02774333 -0.0047004325 0.030950239 0.029873703 -0.031766046 -0.02858888 -0.018438973
-0.048463523 -0.03311984 -0.0037010985 -0.007276566 0.026861064 0.017016543 -0.01336841 0.028010419
-0.017224351 0.015060145 -0.026763653 -0.03932954 0.025450774 -0.019800091 0.04786129 -0.031828485
0.018727735 0.025099978 -0.035429988 0.044950962 0.024678903 -0.030098747 0.010559244 0.030271482
-0.0052651023 0.0020360984 -0.03767725 -0.021176059 -0.04056459 0.027990442 -0.024785936 -0.051193573
-0.009490934 0.0011592415 -0.047292367 -0.0012743808 -0.03062144 -0.048834454 -0.050018724 -0.014843682
0.019742196 -0.043741252 -0.048906967 -0.021411411 0.04516388 -0.0056490605 -0.020940848 -0.018668607
-0.0077320826 0.040786948 0.016503442 0.038233243 -0.068232715 -0.030619934 0.018650372 0.016345128
-0.0028299552 -0.034543272 -0.042963516 -0.030308118 0.016158385 -0.00061054167 -0.019847438 -0.053016532
-0.0050276164 -0.011660964 -0.034731176 -0.05700434 0.028983047 0.023488877 -0.030175915 -0.0476988
0.020103946 -0.04130476 -0.010558669 -0.030871728 0.01391705 -0.014940716 -0.0045797615 -0.04047379
0.007106144 -0.010127778 -0.017674029 -0.042193897 0.05944449 0.033269547 -0.019655637 -0.0396873
-0.012676002 0.027551636 0.002847078 -0.047959823 -0.0004782727 -0.014397574 0.018220996 0.04471807
0.05267803 -0.0050075543 -0.037481043 0.038988598 -0.005671488 -0.00031211396 -0.030664368 -0.015888495
0.018497445 -0.009277253 0.06371881 -0.013075936 -0.026710594 0.02829594 -0.01709557 0.04836487
-0.0138387075 -0.041244406 0.005433704 0.063111946 0.007463359 -0.048940256 -0.021454345 0.01199302
-0.015564878 -0.0043499162 0.008059279 0.035317156 -0.033081245 -0.044920426 0.009656281 -0.019067058
0.029435998 0.016296133 -0.02380584 0.024979413 0.04820447 -0.015838657 -0.054411747 -0.028723726
0.013091891 -0.017636204 -0.009820001 0.010813982 0.0118179675 -0.024941167 0.0043228953 -0.00990096
-0.05666202 0.052976158 0.006092883 -0.0056396932 0.022808062 0.04454264 -0.00036651053 -0.0049077845
0.021447012 0.015461132 0.0374604 0.04106491 -0.038159456 -0.01915865 0.006397589 0.024684334
-0.009087281 -0.020129306 0.008580955 -0.054553155 0.011821897 -0.009169148 -0.027606932 -0.018082237
0.012162835 0.06588344 -0.029512573 -0.0073897815 0.01606646 0.005751571 0.016967455 -0.029520197
-0.006552828 0.04250071 -0.044483565 -0.008501834 -0.017223576 -0.015195845 0.013972947 0.03173241
-0.013252521 -0.008728482 -0.0081396615 -0.022299187 -0.01258975 0.04054085 0.012564627 -0.03556573
-0.015244667 0.029057229 0.0030381412 0.01956875 -0.03913534 0.0049718334 0.04799787 0.009402029
0.07191802 -0.041904327 -0.008880516 -0.027141014 -0.011663149 -0.07054332 0.032947976 0.002929453
-0.044017088 0.01620465 0.063186616 0.0013371119 -0.0152294105 0.00073757104 -0.047653526 -0.03923114

predictor/l1/b f4 [1000]
00000000: c793 4ebd b518 aabd 0000 0000 b666 d53c
00000010: 12c5 b63d 8141 153f 68a1 57be 780f e0bd
00000020: 0000 0000 0000 0000 c8fa f3bd d69d 783b
00000030: 0000 0000 8ac8 2a3d 9879 fc3d 5552 b63d
00000040: 0000 0000 561f 59bc 9063 28be 0000 0000
00000050: 7164 483d 8383 95bd 22b8 0c3e d48f a13d
00000060: 0000 0000 0d8b 50bc 754e d3be 1425 e8ba
00000070: 0000 0000 0000 0000 5257 bf3d 2b45 6a3d
00000080: 34f5 56be 165b 8cbb 524a f33c ba9a ba3e
00000090: efd4 3bbe 7755 c63b 4a93 1d3e 0000 0000
000000a0: 74e9 9f3c 5f86 a6bd db96 853d 7615 72bb
000000b0: 0000 0000 bd55 b53e 0000 0000 6ee4 933b
000000c0: 0000 0000 0fdb b83d 9054 673d ec8a 87be
000000d0: 8066 2ebe d596 a23a a681 ca3d b534 85bb
000000e0: d25f 42bd b02f 35be b8e1 bb3d 7090 d9bd
000000f0: 45f1 b4be 4801 11be ed64 b6bd 421c 2bbb
00000100: 8ec0 7bbe 48d7 413e 5158 2e3b ea4a c6bd
00000110: 0000 0000 f365 10bc 5d64 673e b085 c0bd
00000120: fae7 3abe 0000 0000 0000 0000 d19f 04bd
00000130: 1efd 413d f158 a1bb 8a35 41be 0000 0000
00000140: 349d cabd 0000 0000 da80 96bc c0b0 1e3e
00000150: 0000 0000 0000 0000 53ba 743e 0000 0000
00000160: 6b8e ef3d 86b1 22be 6b79 193d 0000 0000
00000170: 27a7 a0bd a66e 40be a77b 213d 4025 4cbe
00000180: c791 8c3e 0000 0000 0372 94bd 1de1 153d
00000190: 759d 3dbe 3a21 f3bd 9a4e 49bd 15d0 f73c
000001a0: 2149 203e 0000 0000 b6cc 763b 0b3e 3d3e
000001b0: 0000 0000 80de e83d c90f 893d 6757 23be
000001c0: 712e 76be a022 af3d aef0 a63c 2e00 e5bd
000001d0: 0000 0000 3493 09be cdd5 563d e5a6 49bd
000001e0: 4a78 b3bc 0000 0000 c47c 12bd 86e9 3abe
000001f0: 175e 323e 09e5 bcbd 0000 0000 0000 0000
00000200: 651e caba 7cce 0e3e 0402 08be dba5 c2bd
00000210: 35df 923e f322 00be ff3a 44bc 8ea8 0c3e
00000220: 0000 0000 0000 0000 cadc ff3d 6b5f 2b3d
00000230: 8c09 01bd 7388 a83d d262 2d3d 0000 0000
00000240: ab08 bbbd 0000 0000 1434 b3be 86c1 31be
00000250: 5ef3 aa3d 0000 0000 35e0 77be 041e a33d
00000260: 667b fabd f39a dc3c 7560 97bd f051 db3d
00000270: 1deb fe3d 0000 0000 4a0d c63c 0000 0000
00000280: 0000 0000 4445 cbbd 29af 02bc 51e1 83bc
00000290: dbb3 30be be18 99bd 0000 0000 8816 d5bd
000002a0: da3d 71be a66a b53d da52 033d f8b6 97bd
000002b0: cf45 7b3e 0000 0000 0baf 193d b689 c4bb
000002c0: d589 08bd 64fd 003e 0000 0000 1795 723d
000002d0: 0000 0000 d830 c33d 29df 9a3d b45d b5bc
000002e0: 0000 0000 8e3b 24bd 3199 c6bd e122 c53e
000002f0: 0b52 cbbd 5c22 313d cef3 aa3d 611f 1dbc
00000300: 159b e23d 0000 0000 0000 0000 35b9 54be
00000310: 7a8d e43d 0000 0000 0000 0000 334d 4abe
00000320: 0000 0000 ca69 f5bd d49e b6be 6d9f ddbd
00000330: ec54 24be 0000 0000 8ddb ccbd 030a a3be
00000340: 2100 d4bc 0000 0000 8b7e 97be 7819 5cbc
00000350: 4a07 02be 0000 0000 735c cc3d 0000 0000
00000360: f6e5 01be 0000 0000 adfc 4f3d 79ef 85bd
00000370: 1a4e f3bd 0000 0000 6dec 96bd 0000 0000
00000380: 4715 bbbd d4c6 92bd 6648 c2bd 872b 473e
00000390: d001 153e 0000 0000 9570 29be 2f79 b9bc
000003a0: 6a81 aabd b18d 03be 6b46 893d 1021 a5bb
000003b0: e857 01bd 0000 0000 8c9b 15be baf6 a23d
000003c0: 0000 0000 0000 0000 ede6 31bd 14c5 ee3b
000003d0: 935f 873e e40b 9bbd 233a 103c 0000 0000
000003e0: e6e0 acbd 0000 0000 da13 b0be cca2 2ebe
000003f0: 7645 85be cd72 dcbc 6c89 153e 344e 1cbe
-0.0504339 -0.08305494 0.0 0.026049953 0.08924307 0.58303076 -0.21057665 -0.109404504
0.0 0.0 -0.11913067 0.0037935874 0.0 0.041695155 0.1232788 0.08902422
0.0 -0.0132521 -0.1644423 0.0 0.048923913 -0.073004745 0.13742116 0.07888761
0.0 -0.012728465 -0.41270795 -0.0017711245 0.0 0.0 0.09342827 0.05719487
-0.20991975 -0.004283319 0.029698525 0.36446172 -0.18342946 0.0060526687 0.15388218 0.0
0.019520499 -0.08131098 0.06522914 -0.0036939061 0.0 0.35416976 0.0 0.004513315
0.0 0.09026157 0.05647713 -0.26473176 -0.17031288 0.0012404571 0.0988801 -0.004065121
-0.047454663 -0.17693973 0.09173912 -0.106232524 -0.35340324 -0.14160645 -0.08905969 -0.0026109372
-0.24585173 0.1892978 0.0026602934 -0.096822575 0.0 -0.008813369 0.2259688 -0.09400499
-0.18252555 0.0 0.0 -0.032378975 0.047360532 -0.0049239327 -0.1886808 0.0
-0.09893265 0.0 -0.018371988 0.15497112 0.0 0.0 0.23899202 0.0
0.11697086 -0.15888032 0.03746931 0.0 -0.07844382 -0.18792209 0.039424565 -0.19936085
0.2745497 0.0 -0.072483085 0.036591638 -0.18517096 -0.11871572 -0.049147226 0.030250588
0.15652896 0.0 0.0037658638 0.18480699 0.0 0.113705635 0.06692464 -0.1595131
-0.24041153 0.08551526 0.020378437 -0.11181675 0.0 -0.1343506 0.05244999 -0.04923143
-0.021907944 0.0 -0.035763517 -0.18253145 0.17418705 -0.092233725 0.0 0.0
-0.0015420435 0.13945955 -0.13282019 -0.09504291 0.28685918 -0.12513332 -0.011976956 0.13736174
0.0 0.0 0.12493284 0.041839045 -0.031503245 0.082291506 0.04233057 0.0
-0.09132513 0.0 -0.3500067 -0.1735898 0.083472 0.0 -0.24206622 0.079647094
-0.12230568 0.026929354 -0.073914446 0.10708988 0.12447188 0.0 0.024176259 0.0
0.0 -0.09925321 -0.007976332 -0.01609865 -0.1725611 -0.07475422 0.0 -0.10404688
-0.23558751 0.08858232 0.032061435 -0.074079454 0.24538349 0.0 0.03752045 -0.0059978617
-0.033334572 0.12596661 0.0 0.059224214 0.0 0.095308006 0.07562096 -0.022139408
0.0 -0.04009586 -0.09697188 0.38503173 -0.09927758 0.04324566 0.08347283 -0.009590001
0.11064736 0.0 0.0 -0.20773776 0.11159797 0.0 0.0 -0.19756012
0.0 -0.11983068 -0.3566805 -0.10821424 -0.1604802 0.0 -0.100028135 -0.31843576
-0.025878968 0.0 -0.29588732 -0.013433807 -0.12698093 0.0 0.09978571 0.0
-0.1268538 0.0 0.05077808 -0.065398164 -0.11880131 0.0 -0.073693134 0.0
-0.09134918 -0.0716683 -0.09486465 0.19450198 0.14551473 0.0 -0.16546853 -0.022640793
-0.08325465 -0.1284702 0.06702884 -0.0050393417 -0.031577975 0.0 -0.14610118 0.079572156
0.0 0.0 -0.04343312 0.007286677 0.26440105 -0.07570627 0.008802923 0.0
-0.084413335 0.0 -0.34390146 -0.1705429 -0.26029557 -0.02691021 0.14603204 -0.15264207

predictor/l3/b f4 [2]
00000000: b42d 76bd 542d 763d
-0.06010218 0.060101822

predictor/l2/b f4 [100]
00000000: e3bb b7bb bba6 a9bb c502 b9bb 464f 2cbd
00000010: 0000 0000 6d04 503d 3c48 febc 205a 123b
00000020: 62b6 a83d 3b4a 963d ce46 5cbc 0000 0000
00000030: 19c9 c4bb 46c9 c4bb 0b89 34ba 484e 36bb
00000040: ab01 403d 170a a43d 0000 0000 8456 01bc
00000050: 51c7 c4bb b5c5 b63c 9802 a1bb b5a3 80bc
00000060: f771 143c 665f b4b8 b954 a6bb 7cf5 a7bb
00000070: c69f d6bc 11ea bdbc ec1e c1bb 0000 0000
00000080: 60c6 53bd 01a6 a9bb 640a 0abd 48c6 c93d
00000090: 616e 4bbd ed1f 1fbc 7ad2 b23a fc9a b4bb
000000a0: b66c 813d a7ba bebb a2c3 c4bb d4d5 dd3d
000000b0: 3edc a6bb c3da 28bb 2ec5 b6bb 0000 0000
000000c0: 0b9c 86bb 8b5b e6bb 9362 0abc 0000 0000
000000d0: d697 e5bb b4ed cc3b bd37 bbbb 0000 0000
000000e0: caa8 1abb e0b1 2b3d 34c5 c4bb 659f 10bb
000000f0: 8ae7 aabb 6b97 ffb7 ae0a 90ba 9651 3d3d
00000100: 6812 34bb 92b7 e1bc 5deb 8bbb cad8 94bb
00000110: b06c 16bb 8ca0 feb9 faa9 c4bb 5e29 99bb
00000120: a6f4 93bb 1bc6 c4bb c351 893d 414f 7ebb
00000130: a373 55bb ba40 00bc 9d30 d8bc 725f 5ebd
00000140: e08e a6bb b593 8abb 73f2 5bba ce54 053e
00000150: b4bd c4bb 0000 0000 ffa3 643c 0863 a5bc
00000160: 0000 0000 413c 06bc fbae c4bb 04bd 85bb
00000170: 4f60 e6bb 774b 823d c663 0abc 72c7 c4bb
00000180: 0000 0000 bc27 a7bb d6d2 163a de7a fa3c
-0.0056071146 -0.0051773465 -0.005646082 -0.04206779 0.0 0.05078547 -0.031040303 0.002233155
0.08237912 0.07338377 -0.0134446155 0.0 -0.006005418 -0.006005439 -0.0006886876 -0.0027817655
0.04687659 0.08009737 0.0 -0.007894162 -0.0060052057 0.022311071 -0.0049136393 -0.015703062
0.009060374 -8.600838e-05 -0.0050760177 -0.0051256996 -0.026199233 -0.0231829 -0.0058935788 0.0
-0.051702857 -0.00517726 -0.033701316 0.09852272 -0.049665812 -0.009712202 0.0013643049 -0.0055116396
0.06319563 -0.0058205905 -0.0060047666 0.108318 -0.005092173 -0.0025765158 -0.005577705 0.0
-0.0041079572 -0.0070299557 -0.0084463535 0.0 -0.0070066256 0.0062539224 -0.0057134316 0.0
-0.0023599141 0.04191768 -0.0060049538 -0.0022067663 -0.00521559 -3.0468878e-05 -0.0010989511 0.046220385
-0.0027476791 -0.027553353 -0.004270001 -0.004542445 -0.0022952966 -0.00048566272 -0.006001708 -0.004674121
-0.0045152484 -0.0060050613 0.06705048 -0.0038804563 -0.0032570146 -0.007827932 -0.026390368 -0.054290242
-0.00508295 -0.004229034 -0.0008390315 0.13020632 -0.0060040597 0.0 0.013955115 -0.020188823
0.0 -0.008193077 -0.0060023046 -0.0040813703 -0.007030524 0.0636205 -0.008446639 -0.006005221
0.0 -0.0051011723 0.0005753463 0.030576166

predictor/l1/W f4 [1000, 11]
00000000: 377a 303e 084b 4fbd ff59 d23e 5fce 983e
00000010: 37fc e43d 0b41 84be 57c1 d03e d720 4fbf
00000020: 72e8 e83e 53b2 3b3e 6dc2 243e 5738 233c
00000030: e7da 88be 64a8 2d3d ae16 37bf 0ba9 4d3e
00000040: 40b8 e33e 0350 45bf 4d61 a73e 7711 053e
00000050: e3a5 8cbf c53f 3f3d beb3 86be cc7b f5bd
00000060: 0a42 ed3d 66cf 223e efa1 ecbd b39c 42be
00000070: 4e0b b13e 3fd1 6ebe 5cdf 053f 944a a43d
00000080: 293f 28be 7fda febe 7641 12be 7235 62be
00000090: c676 063d be79 fa3e 1cd1 623d ba6d 99bd
000000a0: 8215 f2be 4cc4 e7be d233 9e38 545e 40be
000000b0: 78de 853d 0594 6e3e c13b f13d c2fa eb3d
000000c0: 3893 ebbf 2f1d 8b3e e13d 073f 4cde 693a
000000d0: 1edb 143f ab3c a43e 49b3 0d3f f593 d13e
000000e0: 878a 02bf a060 343e 9ed5 003f 7c59 d2bd
000000f0: 2731 683f afb9 d3be 89d0 503d 98e0 8cbe
00000100: a079 123f 61a5 8e3f b58b 8dbe 0d56 50bc
00000110: 1e4e a6be 666f 6f3d 1003 5c3e 0291 94be
00000120: a49e babd e354 5bbe 9c9b 90be 2bf9 cebe
00000130: 3b4e ce3d 2757 f7be fddb 283e 0157 8fbf
00000140: 812b f33e 7f9f 93be f90c 053f 352e fcbd
00000150: bfff a33e 8848 e0be 13b4 9a3c c1f2 9f3e
00000160: 316f 913e bcb4 c0be 219a f53d 60ab 25bf
00000170: c559 6dbb 5f86 9bbe 8c39 af3c 1b94 b33c
00000180: 48ae 1fbe be1d 673e 4a9f 83be 2e15 d3be
00000190: 1e5a acbd 4163 b6be d4fe 903f 3a88 8abe
000001a0: 2021 663b 96ca a1bd b37f 893e 882d 2bbe
000001b0: a50d fb3e 6d60 99be 3322 c13d c4e5 073e
000001c0: b424 1bbf e57a 25be b26f febe e8ef 20bf
000001d0: 9dd4 943d 8a25 be3e 3e42 b6bf b260 aabf
000001e0: 86bd 41be 9d9e a5be 79a1 0dbe 1be6 903e
000001f0: d3dd 9bbe f5ba d13d 1250 7fbf 6282 f23e
00000200: 59c4 063e f5ed 383d 38cf b73f 9f3d 5c3f
00000210: 5fb7 debe eead 0bbe c296 693e 2b07 d2be
00000220: f02e 66be 1331 023e 7f15 b33e 6f02 283f
00000230: 723c 223f 480e a53d cc9d a0be 2a95 313f
00000240: e270 d4be bf2a 0d3f 920c 803e 1390 c23e
00000250: 3635 03bf 81b0 503e cf4c 3cbe bc30 0dbf
00000260: 8cd2 0b3c 0dc3 b93e a8c9 c33e ab82 013e
00000270: e5e3 383f be57 553d d6e8 bfbe cbf4 783e
00000280: e117 143f 05fe b53e 5aca 25bf 7c8c 5e3e
00000290: 2028 f8bd ac9e 883e 7926 3c3c 1e5c 3cbe
000002a0: 7635 223f f4d9 d7bd 1177 2cbe 2683 283f
000002b0: 42e1 263f e573 233f 6175 98bf e483 57bd
000002c0: 093a 9fbe 029d 12be fb28 913e 6f21 2c3e
000002d0: 22ea a1be 9a49 133d 8fb6 0fbe cc8b df3d
000002e0: 4746 6fbd bf1a 283e 889b 003c 9af1 f83d
000002f0: 7cc1 353e 110b 57be 45f2 253e 6bff d23d
00000300: 86f2 1d3f 6fd9 00be cba6 053f f58c cbbe
00000310: a75f ed3e b842 b1bd 6ba6 043d 5051 aabe
00000320: fead 823f 7056 c4bd 8dbc bb3d 47d1 d0bd
00000330: a526 c4be 2ee6 c8be c073 92bf 813a 9f3e
00000340: ad7c 353f 7809 c2bd 5d2d 8dbd e59e a0be
00000350: 18aa 413e e0bb a7be 051b ea3d bcae 0e3e
00000360: 6935 15be b3d4 c23e 0538 c5bd 88fd 2dbe
00000370: 5c68 4fbf 1db6 483d d560 94be 6b9b c73e
00000380: 9b16 143e 76d9 bb3d c450 c33e 58cf 013f
00000390: 69d8 54be 3802 39bd 4d5e a9be e396 373e
000003a0: d21d e8bd 3d41 093e 21ab acbe b1bc 963d
000003b0: a091 abbe e4a1 f7be 4be9 833e 99dd a5be
000003c0: dd02 1b3f b490 1d3e 6efb cc3e d299 54be
000003d0: 871a efbd 2132 9bbe b9e6 043f a9c2 d83d
000003e0: 0131 89be 2234 343f 3a42 29bc 37d2 0f3e
000003f0: 00ad a1be 1fc0 a8be 1b5c 843d e843 6fbe
0.17234121 -0.050608665 0.41084287 0.2984495 0.11180919 -0.25830874 0.40772507 -0.80909485
0.45489842 0.18329744 0.16089793 0.009962163 -0.2672951 0.042396918 -0.7151898 0.20084016
0.4447651 -0.77075213 0.32691422 0.12994944 -1.0988125 0.046691675 -0.26309007 -0.11986503
0.115848616 0.15899429 -0.11554324 -0.19005089 0.34578937 -0.23322009 0.52293944 0.08022037
-0.16430344 -0.49776074 -0.14282784 -0.220907 0.032828115 0.48921007 0.055375203 -0.07491632
-0.47282034 -0.4526695 7.5436794e-05 -0.18785983 0.06536573 0.23298652 0.11778975 0.11522438
-1.8404303 0.27170703 0.52828795 0.00089213694 0.58146846 0.32077536 0.5535169 0.40933195
-0.50992626 0.17614985 0.50325954 -0.10270974 0.907 -0.41352603 0.050980125 -0.275151
0.57216835 1.114422 -0.2764565 -0.012715829 -0.32481474 0.058455847 0.21485543 -0.29016882
-0.091122895 -0.214191 -0.2824372 -0.40424475 0.10073515 -0.4830868 0.16490169 -1.1198426
0.47494128 -0.28832623 0.5197292 -0.12313501 0.32031056 -0.43805337 0.018884694 0.31239894
0.28405145 -0.3763789 0.119922884 -0.6471462 -0.0036216837 -0.30375955 0.021389745 0.021921208
-0.15593827 0.2256994 -0.25707465 -0.41227096 -0.08415626 -0.356226 1.1327767 -0.27057058
0.003511496 -0.07899968 0.2685524 -0.16716588 0.49033847 -0.2995638 0.09430351 0.13271242
-0.6060288 -0.16160162 -0.49694592 -0.6286607 0.07267115 0.37138015 -1.4238966 -1.3310759
-0.18919954 -0.32347575 -0.13831128 0.28300557 -0.30442676 0.10240737 -0.9973155 0.473651
0.13160838 0.04514881 1.4360113 0.86031526 -0.43499276 -0.13640568 0.22811416 -0.41021094
-0.22478843 0.12714033 0.34977338 0.65628713 0.6337348 0.080593646 -0.3137039 0.6936823
-0.41492373 0.5514335 0.2500959 0.38000545 -0.5125307 0.20379831 -0.18388675 -0.5515249
0.008534085 0.36281624 0.3823979 0.12647502 0.7222274 0.05208563 -0.37482327 0.24312131
0.57848936 0.35545364 -0.6476189 0.21733278 -0.12117028 0.26683557 0.011483782 -0.18394515
0.63362825 -0.10539618 -0.16842295 0.65825117 0.65187466 0.63848716 -1.1910821 -0.052616015
-0.31098965 -0.14317706 0.28351578 0.16809629 -0.31623942 0.035958864 -0.14034484 0.10915336
-0.05841663 0.16416453 0.007849582 0.12155457 0.1774959 -0.21000315 0.162057 0.10302623
0.61698186 -0.12582944 0.5220763 -0.3975598 0.4636204 -0.08655304 0.03238527 -0.33265162
1.0209348 -0.09586799 0.091668226 -0.101961665 -0.38310733 -0.39238113 -1.1441574 0.31099322
0.70893365 -0.09474462 -0.06893418 -0.31371227 0.18912542 -0.32760525 0.11430935 0.13933843
-0.14571156 0.38052902 -0.096298255 -0.16991246 -0.81018615 0.0490018 -0.28980127 0.38985762
0.14461748 0.09172337 0.38147557 0.50707006 -0.20785679 -0.04516813 -0.33079758 0.17928652
-0.11333813 0.13403793 -0.3372431 0.07360209 -0.3350954 -0.483657 0.25763926 -0.32395628
0.60551244 0.15387231 0.40035576 -0.20761803 -0.116749816 -0.30311683 0.51914555 0.105840035
-0.267952 0.7039205 -0.010330731 0.14045034 -0.315773 -0.32959077 0.0646288 -0.23365748

predictor/l3/W f4 [2, 100]
00000000: 0280 e0bd c7a8 ea3d f4f9 debd 0a61 a43d
00000010: ae52 9a3d 4828 b33d 06f7 903d 8555 85bd
00000020: e145 b0bd acfe 60bc d696 b83c adfe 163d
00000030: 651b 4fbe 2803 c43d 960d 87bd c8f4 133e
00000040: 7ff5 e4b9 659d 18bd 8982 9f3c b057 923d
00000050: 5372 583b 7e27 0bbd 816f 24bc f6f2 19be
00000060: a4ba 50bc 9ffc eb3d 72dd af3d 60e9 b33d
00000070: 5500 96bd 521b 1fbd 363a 62bd 3062 023d
00000080: 1d05 793d 91be 5a3d e3bd 3f3d d356 53bd
00000090: e384 dd3d f5cb 5c3e 4198 243d 4986 8cbc
000000a0: 0add e737 db4d 1abe f667 46be 3ad4 a7bd
000000b0: 5d30 fa3d d9de 91bd d6ee 66bc 9ab1 323e
000000c0: 3911 a53c a51e cbbd a89a 04bd c884 89bd
000000d0: cfe2 edbd ec1b 93bd 2217 47bd 9cd0 62bc
000000e0: 3690 1f3d b09b e83c b48a a1bd 6644 cdbd
000000f0: 4020 95bd 21e5 19be a496 90bd d79c 883d
00000100: e0df cbbd d482 18bd 307f 75be f224 883c
00000110: 1759 493d ebaa 043e 25ba 1fbd be6f 49be
00000120: e490 983c 483e d3bd d686 3ebe 176d b73d
00000130: 4dab 37bd 4cfa 8e3d eaa9 28bd bcf9 d93d
00000140: 818b 103d 673d bfbb 16a3 7d3d c65b b03c
00000150: 0773 0bbd 87f4 883d f1ca d73c 21e3 1fbd
00000160: 9b88 393c 29f4 b0bd 6145 0a3d fe45 b4bd
00000170: 23e3 1abd fab1 adbd ad4a 56bd 3082 b1bd
00000180: 079b ef3d af0b 67bd 9dcd 2dbe d5f0 973c
00000190: c8ed 363e e358 8cbd 2538 43bd 77b4 dcbc
000001a0: 43b0 28bd b7cc b53d 7621 5cba 1a87 b8bd
000001b0: 0460 fc3c 7fff 50be 1ee5 d2bd b392 913d
000001c0: 1874 4f3e 765d a7bd 44fa babd 4bdb abbd
000001d0: 6d02 a93d 036c af3d 9852 b9bd 3520 a43d
000001e0: 6e21 0cbd 74b1 453c 4792 c43b 25c9 f8bc
000001f0: 3e18 1b3c 5395 473d 54ac 043d 2283 583e
00000200: 38bf b6bd 1fd8 a1bd a3b8 823d d49b 6dbe
00000210: fd28 f0bd 70f9 da3d 5102 4a3c dd5b e43c
00000220: 1e79 e2bd 8557 ce3d fb90 7d3d 26f9 bc3d
00000230: 8006 213e d00a 233c 1e4c 0ebe e4de f33d
00000240: 9840 fc3c 36af d1bd 1827 8a3d 7612 14be
00000250: 093d a43d 7583 6fbc a46f 5a3d 98ae 013e
00000260: 1219 593d cfb2 05be ef6a 4cbe 14a7 b43d
00000270: d0da 31bc 9e06 27be 3c42 25be 2709 443e
00000280: 0967 953d 5a50 34bd 3f74 a6bd b09e a03d
00000290: de3f 75be f09b 10be 828f 26be 2a7a 183e
000002a0: 7fbf e33c e101 c3bd 5c73 f6bc e873 4fbe
000002b0: 6925 0d3d d9da 0e3d 170c 633e f83f 1c3e
000002c0: cfb5 d7bc cc0d 003d eeaf febd 7a1d 28be
000002d0: 2156 d13c 0af5 10bc ac24 a9bd 2ca2 043e
000002e0: 67a7 de38 1f6e f33c 9dca 4fbe 79e8 26bd
000002f0: 7a21 373d 9b41 673d c204 2e3d 818c cebd
00000300: 58bb f6bd 5afa 11bd d977 69be 836c 903d
00000310: 9dc0 203d c8e9 ff3d a5bb 0c3e 59ef 003d
-0.109619156 0.11457973 -0.108875185 0.08026321 0.07535301 0.087479174 0.07078366 -0.06510452
-0.08607078 -0.0137325935 0.022532862 0.03686397 -0.20225294 0.095709145 -0.06594388 0.14448845
-0.00043670458 -0.037259478 0.019471424 0.07145631 0.0033027127 -0.03397321 -0.01003635 -0.15034088
-0.012739811 0.11522793 0.08587159 0.08784747 -0.07324282 -0.038844414 -0.055231296 0.03183192
0.060795892 0.053404395 0.04681195 -0.051596474 0.10816362 0.21562178 0.040184263 -0.017153876
2.7640275e-05 -0.15068762 -0.19375595 -0.08194776 0.12216256 -0.07122583 -0.014095029 0.17450562
0.020149814 -0.09917954 -0.032374054 -0.06714779 -0.11615526 -0.0718306 -0.048606046 -0.013843682
0.03895589 0.02839455 -0.07887784 -0.100228116 -0.07281542 -0.15028812 -0.070599824 0.0667054
-0.0995481 -0.037234142 -0.239743 0.01661918 0.04915723 0.12955825 -0.03899588 -0.19671533
0.018623777 -0.103146136 -0.18606123 0.08956354 -0.0448411 0.06981334 -0.041177668 0.10643336
0.03528929 -0.005836177 0.06192311 0.021528136 -0.034045245 0.06687265 0.026341887 -0.039034966
0.011324073 -0.0864032 0.03375757 -0.088024125 -0.03781427 -0.08481212 -0.05231731 -0.086674094
0.11699491 -0.056407627 -0.16972966 0.018547455 0.17864144 -0.06852891 -0.047660965 -0.026941521
-0.04118372 0.08876937 -0.000839732 -0.090101436 0.030807503 -0.20409964 -0.10297607 0.07108059
0.2025913 -0.08172123 -0.09129766 -0.08391436 0.08252416 0.085655235 -0.09048957 0.080139555
-0.03421157 0.012066234 0.005998883 -0.03036935 0.009466229 0.04872639 0.032390907 0.21143773
-0.08923191 -0.0790255 0.06382873 -0.23203975 -0.11726568 0.10692108 0.012329654 0.027875835
-0.110582575 0.10075287 0.061905842 0.09227209 0.15725136 0.009951308 -0.13896224 0.119077474
0.03079252 -0.10238497 0.06745738 -0.14460167 0.08019454 -0.014618744 0.053329125 0.12664258
0.053002425 -0.13056491 -0.19962667 0.0882093 -0.010855392 -0.16311118 -0.16138548 0.19144116
0.07295043 -0.04402194 -0.08127641 0.07842767 -0.23950145 -0.14121985 -0.16265681 0.14890352
0.027801273 -0.09521843 -0.030084305 -0.20259058 0.034459505 0.03487668 0.2217258 0.15258777
-0.02633181 0.031263158 -0.124359 -0.16417494 0.025553765 -0.008847484 -0.08258948 0.12952489
0.00010616966 0.029715596 -0.20292135 -0.040749047 0.04470966 0.05645905 0.042485006 -0.10085393
-0.12047452 -0.035639144 -0.22799625 0.07051947 0.03924619 0.12495762 0.13743456 0.03147826
